weights/e110.pth (torch, 788191 bytes, 4 tensors)

weights f4 [1, 1, 256, 256]
000000 b0 dc b5 40 46 bf ba 40 a1 04 b5 40 65 c8 b8 40
       5.6831894 5.835849 5.656815 5.774462
000010 87 8c b4 40 95 2f ba 40 85 cc b2 40 51 ab b1 40
       5.642154 5.8183084 5.587466 5.5521626
000020 1c f1 93 40 53 73 95 40 97 eb 96 40 aa 9a a2 40
       4.6231823 4.6703277 4.7162585 5.08138
000030 ca 79 ab 40 a9 de a9 40 ff ad a9 40 8b 57 b1 40
       5.358617 5.30843 5.3024898 5.5419364
000040 72 30 ae 40 9b e2 a6 40 42 9b 9f 40 14 47 94 40
       5.4434137 5.215162 4.9877024 4.6336765
000050 79 1f 41 40 93 01 33 40 38 45 90 40 8b 3c a9 40
       3.017546 2.796971 4.5084496 5.2886405
000060 93 4d a7 40 f4 f4 a6 40 be eb a9 40 e1 e4 af 40
       5.2282195 5.2174015 5.310027 5.4966893
000070 35 ce ad 40 c8 25 ac 40 a0 fd ac 40 29 03 ab 40
       5.4314218 5.379612 5.40596 5.3441358
000080 83 70 ac 40 89 0b ae 40 da 45 af 40 2e 93 a9 40
       5.3887343 5.438908 5.477277 5.2992163
000090 69 5f ad 40 23 da a9 40 fa cc a4 40 6b f7 a0 40
       5.4178967 5.307878 5.1500216 5.0302024
0000a0 d6 d6 93 40 4e d0 6b 40 e7 bc 44 40 24 3f 00 40
       4.619975 3.684589 3.0740297 2.0038538
0000b0 ac ff 01 40 ec a2 4e 40 90 b5 83 40 08 6e 8d 40
       2.03123 3.228694 4.1159134 4.4196815
0000c0 76 7c 91 40 9a 4c 8f 40 ef 59 89 40 f1 f8 83 40
       4.546443 4.478101 4.292228 4.1241384
0000d0 0b f7 81 40 dd 1f 82 40 09 a9 77 40 5b f7 5f 40
       4.0614066 4.0663896 3.869692 3.4994724
0000e0 ec 36 3a 40 92 d9 f9 3f b6 3f 15 40 ef 91 1e 40
       2.9096022 1.9519522 2.3320136 2.477657
0000f0 ea eb 1b 40 ab 62 10 40 1b f9 ff 3f 51 57 17 40
       2.436274 2.2560222 1.9997896 2.3647044
000100 19 b1 19 40 04 9e 16 40 a3 b0 0b 40 d9 0a ee 3f
       2.4014342 2.3533945 2.182656 1.859706
000110 fa 8d fc 3f 85 d1 ed 3f 04 70 c2 3f 9b d4 be 3f
       1.9730828 1.8579565 1.5190434 1.4908632
000120 6f b0 0d 40 f2 34 5d 40 a2 72 8d 40 c7 82 96 40
       2.2138937 3.4563565 4.4202433 4.703464
000130 7e d5 a6 40 f1 ea a1 40 e0 d1 a8 40 5e 92 aa 40
       5.213561 5.0599294 5.2756195 5.330367
000140 b9 73 a7 40 ad f8 a8 40 77 95 a9 40 47 02 ad 40
       5.2328763 5.280356 5.299495 5.406528
000150 96 80 ab 40 7e 05 ae 40 4f 73 a7 40 07 f5 a6 40
       5.3594465 5.4381704 5.2328258 5.2174106
000160 fd 46 a7 40 78 48 9d 40 3d 5e 90 40 4d 23 66 40
       5.2274156 4.9150963 4.5115037 3.5959046
000170 9f d0 4a 40 89 61 83 40 aa e1 97 40 6d 96 96 40
       3.1689832 4.105656 4.746297 4.7058625
000180 31 80 99 40 06 ee 9a 40 3a fb 96 40 bd a3 92 40
       4.7968984 4.8415556 4.7181673 4.5824876
000190 00 7e 80 40 8b 73 79 40 13 e1 8b 40 e2 c1 93 40
       4.015381 3.8976772 4.371225 4.6174173
0001a0 48 3d 96 40 f6 e6 95 40 64 96 93 40 91 4b 85 40
       4.6949806 4.6844435 4.612108 4.1654744
0001b0 bc df 65 40 a1 8e 86 40 d0 86 94 40 12 bc 98 40
       3.5917807 4.2049108 4.6414566 4.772958
0001c0 05 16 9e 40 8a fa 9f 40 ee 0b a8 40 3f f3 a6 40
       4.940188 4.9993334 5.2514563 5.217193
0001d0 6a f5 ab 40 9e 2f ae 40 09 40 a8 40 0d 3b aa 40
       5.373708 5.4433126 5.257817 5.3197083
0001e0 04 8b a4 40 68 62 a1 40 90 c7 9b 40 2a c9 8c 40
       5.1419697 5.0432625 4.8681107 4.399556
0001f0 ec 55 81 40 80 d2 23 40 4c 58 1d 40 df 69 0a 40
       4.0417385 2.559723 2.4585142 2.1627119
000200 4f 2a cd 3f ad 71 0a 40 d5 23 1d 40 d1 fa 23 40
       1.6028537 2.1631882 2.455312 2.5621836
000210 83 b1 7d 40 fe 1e 8e 40 55 17 9e 40 71 cb 9e 40
       3.9639595 4.441283 4.940348 4.962334
000220 ee e8 9e 40 b6 74 aa 40 89 df a7 40 d7 3b a9 40
       4.965934 5.326747 5.246037 5.2885547
000230 f3 b0 ad 40 05 81 a7 40 d9 50 a5 40 11 f3 a1 40
       5.4278502 5.2344995 5.166119 5.060921
000240 ab 66 a0 40 3c 59 97 40 02 a4 94 40 39 9b 88 40
       5.0125327 4.729643 4.6450205 4.268948
000250 c1 23 67 40 57 fc 82 40 a7 0c 91 40 9b fb 94 40
       3.6115572 4.093303 4.5327945 4.6557136
000260 cc f1 98 40 81 d0 92 40 36 b8 88 40 f8 3a 7e 40
       4.779516 4.587952 4.2724867 3.9723492
000270 e1 5c 7f 40 47 84 8f 40 2f 96 9a 40 f2 cc 98 40
       3.9900439 4.484897 4.830833 4.7750177
000280 53 58 97 40 37 e9 94 40 26 2f 97 40 ae d1 82 40
       4.729532 4.6534686 4.7245054 4.0880957
000290 dd 10 4d 40 1d ee 63 40 84 e6 90 40 57 f8 a1 40
       3.2041543 3.5614083 4.528139 5.061565
0002a0 ab 61 a5 40 39 da a9 40 d2 b4 af 40 a3 38 ae 40
       5.1681724 5.3078885 5.490823 5.4444137
0002b0 60 a2 ab 40 77 88 ac 40 39 ec a8 40 40 18 b2 40
       5.363571 5.3916583 5.278836 5.56546
0002c0 73 26 ac 40 8d 97 ab 40 37 bb a9 40 74 6f a7 40
       5.3796935 5.36225 5.3041034 5.232355
0002d0 ee 65 a1 40 83 35 9e 40 01 59 8c 40 60 e9 5d 40
       5.0436926 4.944032 4.3858647 3.467369
0002e0 d9 b0 0d 40 a3 d4 be 3f fd 6f c2 3f 76 d1 ed 3f
       2.213919 1.4908642 1.5190426 1.8579547
0002f0 53 8d fc 3f 79 0a ee 3f e2 b0 0b 40 44 9f 16 40
       1.9730629 1.8596946 2.182671 2.3534708
000300 c9 a7 19 40 9b 4e 17 40 38 fd ff 3f ad 6a 10 40
       2.4008658 2.3641727 1.9999151 2.256511
000310 fa e5 1b 40 5d 91 1e 40 4d 40 15 40 89 e1 f9 3f
       2.4359117 2.4776223 2.3320496 1.9521953
000320 44 4e 3a 40 2f de 5f 40 40 10 76 40 5f 4e 81 40
       2.911027 3.497936 3.8447418 4.040817
000330 8f 0c 82 40 f8 6d 80 40 90 1a 8a 40 04 8d 8c 40
       4.064033 4.013424 4.3157425 4.392214
000340 82 7f 92 40 9c d2 8b 40 6c b6 84 40 4f cd 4e 40
       4.578065 4.369459 4.1472683 3.231281
000350 67 ff 01 40 cb 3f 00 40 fb e4 44 40 73 44 6b 40
       2.0312135 2.0038936 3.0764759 3.6760528
000360 a1 61 94 40 00 07 9d 40 97 02 a5 40 94 15 a4 40
       4.6369176 4.9071045 5.156566 5.127634
000370 5f 64 aa 40 2d 02 b0 40 bf 29 b4 40 b7 3a a9 40
       5.3247523 5.5002656 5.630096 5.2884173
000380 f2 ce ae 40 7e be b0 40 16 de ac 40 c7 09 ad 40
       5.462762 5.5232534 5.40211 5.4074435
000390 8c bf aa 40 23 db ab 40 b3 4e ad 40 2d 6d ab 40
       5.335882 5.3705 5.415857 5.357077
0003a0 7f df ab 40 05 b1 9b 40 13 b1 8f 40 c8 08 33 40
       5.371032 4.865359 4.4903655 2.797411
0003b0 ac dc 40 40 80 2d 91 40 73 72 a2 40 bb 5d a6 40
       3.0134687 4.536804 5.076471 5.1989417
0003c0 1f 74 a6 40 05 c0 aa 40 5d ab ac 40 b3 8e a6 40
       5.201675 5.33594 5.3959184 5.2049193
0003d0 a0 79 a9 40 8d e2 a4 40 3c 5f 95 40 79 dc 98 40
       5.296097 5.152655 4.6678753 4.776913
0003e0 74 85 97 40 21 ce b3 40 7a c0 b5 40 47 56 b5 40
       4.7350407 5.618912 5.6797457 5.666782
0003f0 12 b3 b5 40 36 ba b4 40 93 fe b3 40 9f 54 bb 40
       5.678109 5.647731 5.624826 5.8540797

exp_avg f4 [1, 1, 256, 256]
000000 e7 9f 2b b8 2c 23 48 b8 0a b1 42 b8 68 be 2a b8
       -4.0918498e-05 -4.7716472e-05 -4.6418085e-05 -4.0708488e-05
000010 3b 6c 0a b8 f6 70 cb b7 30 c3 98 b7 28 ee 1c b7
       -3.300256e-05 -2.4252087e-05 -1.8210703e-05 -9.353775e-06
000020 36 c7 49 b6 b4 bd 17 b6 eb 3a bf b5 e0 41 86 b6
       -3.006729e-06 -2.2611175e-06 -1.4247756e-06 -4.00118e-06
000030 60 ff f5 b6 10 4b 0b b7 e0 41 1e b7 42 c9 0a b7
       -7.3312985e-06 -8.3025225e-06 -9.432872e-06 -8.2723e-06
000040 d8 88 f8 b6 db 7f b8 b6 8e 41 6a b6 28 8b 81 b5
       -7.4069067e-06 -5.4985117e-06 -3.4906875e-06 -9.651749e-07
000050 95 61 76 33 12 f2 ac b3 6a 75 93 b5 23 b4 66 b6
       5.736509e-08 -8.0534065e-08 -1.0986525e-06 -3.4377524e-06
000060 e5 cf df b6 c2 62 1a b7 e6 cb 35 b7 30 59 43 b7
       -6.67012e-06 -9.202109e-06 -1.08359145e-05 -1.1643671e-05
000070 15 c0 49 b7 c1 41 4b b7 be ab 41 b7 e9 31 3e b7
       -1.2025256e-05 -1.2115052e-05 -1.1543683e-05 -1.1336503e-05
000080 5a f4 46 b7 4b 52 3b b7 23 12 43 b7 f1 41 34 b7
       -1.1858612e-05 -1.1165229e-05 -1.16271285e-05 -1.0744189e-05
000090 bd 55 2b b7 0d 45 02 b7 e7 bc c7 b6 e4 d8 72 b6
       -1.0212357e-05 -7.764681e-06 -5.9526533e-06 -3.6187057e-06
0000a0 00 b6 da b5 e6 1e 1b b4 07 a2 4d 34 c3 8d 13 34
       -1.6295235e-06 -1.444674e-07 1.9151058e-07 1.3742014e-07
0000b0 fa 45 77 33 18 7c 82 b3 4f 98 e0 b4 9e 27 5b b5
       5.7572812e-08 -6.076169e-08 -4.183407e-07 -8.164151e-07
0000c0 21 77 a9 b5 2a b7 52 b5 c2 0f 4a b5 71 fc c9 b4
       -1.2626152e-06 -7.8497635e-07 -7.5273795e-07 -3.7622843e-07
0000d0 20 28 16 b5 5c be bc b4 48 c9 95 b4 00 84 74 b3
       -5.5937744e-07 -3.5156233e-07 -2.7899864e-07 -5.693073e-08
0000e0 a6 0b 4d b3 ed 9f 53 33 4a 19 55 b3 34 4c 6e 33
       -4.7740876e-08 4.9272717e-08 -4.9615927e-08 5.5483e-08
0000f0 0c 41 22 33 45 ac 84 b2 d2 76 04 34 d1 58 50 34
       3.7777724e-08 -1.5445162e-08 1.2336685e-07 1.9403821e-07
000100 b0 4b 9d b1 e0 ff 9d 32 ca 5a 83 b3 de 2d c1 33
       -4.577906e-09 1.8393564e-08 -6.116677e-08 8.995606e-08
000110 68 14 87 b3 5a 24 a4 b3 1a fa 9d 33 00 b5 93 b1
       -6.290139e-08 -7.6434574e-08 7.3563754e-08 -4.2988404e-09
000120 50 a6 97 b1 43 00 15 b4 c1 fd 81 b5 49 6e 4d b6
       -4.413586e-09 -1.3876802e-07 -9.685101e-07 -3.0611575e-06
000130 53 e8 b5 b6 32 ef 01 b7 2b 67 38 b7 82 ad 3a b7
       -5.4212665e-06 -7.744691e-06 -1.0991275e-05 -1.1126862e-05
000140 3e 90 5d b7 87 a0 7f b7 7c 08 87 b7 bb 6d 87 b7
       -1.32062105e-05 -1.523656e-05 -1.6097205e-05 -1.6144351e-05
000150 a9 b6 8a b7 36 27 62 b7 a8 5c 4b b7 92 ec 26 b7
       -1.653594e-05 -1.3479779e-05 -1.2121316e-05 -9.949452e-06
000160 d8 50 ec b6 17 f5 81 b6 c5 a2 d1 b5 3e 13 86 b4
       -7.0427595e-06 -3.873032e-06 -1.5619086e-06 -2.4973446e-07
000170 a3 91 e1 b3 80 a7 2f b5 10 bd e3 b5 45 92 13 b6
       -1.050387e-07 -6.5436325e-07 -1.6967842e-06 -2.1989847e-06
000180 0d f4 2f b6 c4 2d 4e b6 54 1d 40 b6 72 86 e0 b5
       -2.6219088e-06 -3.0723031e-06 -2.86273e-06 -1.6728429e-06
000190 54 4d 64 b5 57 45 81 b5 0a c9 7f b5 aa 3f de b5
       -8.5049146e-07 -9.63143e-07 -9.5287453e-07 -1.6558818e-06
0001a0 c4 d0 26 b6 5b 55 fe b5 95 38 c3 b5 3a 07 48 b5
       -2.4857445e-06 -1.8949316e-06 -1.45451e-06 -7.451632e-07
0001b0 22 8c 9e b4 20 03 6f b5 14 3d 14 b6 31 1c 8a b6
       -2.9531753e-07 -8.9038986e-07 -2.208927e-06 -4.1160024e-06
0001c0 08 d5 e5 b6 2a 16 20 b7 45 47 6a b7 6f 02 90 b7
       -6.849532e-06 -9.541904e-06 -1.3964081e-05 -1.7167271e-05
0001d0 30 b9 a8 b7 3d 83 b9 b7 18 bd b8 b7 88 54 ae b7
       -2.0113395e-05 -2.2114831e-05 -2.2022563e-05 -2.078178e-05
0001e0 ff 0c 80 b7 4e bf 66 b7 37 22 2e b7 72 5d b6 b6
       -1.526484e-05 -1.375361e-05 -1.03791745e-05 -5.434901e-06
0001f0 5e 76 0c b6 a8 10 19 b6 4e 1f 0e b6 e2 62 08 b6
       -2.0930524e-06 -2.2808472e-06 -2.117787e-06 -2.0323137e-06
000200 a6 ad cc b6 6a a4 07 b6 20 61 11 b6 31 13 17 b6
       -6.099889e-06 -2.021227e-06 -2.1663218e-06 -2.2511924e-06
000210 c8 fd 38 b6 c6 16 ac b6 cd c5 25 b7 21 a6 70 b7
       -2.7565857e-06 -5.1286506e-06 -9.8808205e-06 -1.4343795e-05
000220 8c 60 8b b7 ce fd ad b7 bd 48 b9 b7 22 26 bf b7
       -1.661505e-05 -2.0741394e-05 -2.208759e-05 -2.2786731e-05
000230 c8 0e a7 b7 76 6c 8f b7 15 1e 6f b7 5f ef 1c b7
       -1.9914834e-05 -1.7097434e-05 -1.4252514e-05 -9.3540575e-06
000240 43 fb dd b6 4c 9c 8e b6 cb 85 13 b6 34 ce 3c b5
       -6.615564e-06 -4.250125e-06 -2.1982585e-06 -7.033552e-07
000250 3a 53 81 b4 c5 90 7e b5 a8 55 de b5 f5 7d 04 b6
       -2.4088678e-07 -9.483304e-07 -1.6565218e-06 -1.974285e-06
000260 e8 38 19 b6 bc 7b e8 b5 19 60 a3 b5 54 a4 52 b5
       -2.28319e-06 -1.7321358e-06 -1.2172414e-06 -7.8470225e-07
000270 0d e2 75 b5 69 d7 00 b6 ab d6 2c b6 ba 85 58 b6
       -9.159856e-07 -1.9198872e-06 -2.575495e-06 -3.2264347e-06
000280 19 fd 39 b6 34 6e 1c b6 93 37 ea b5 b6 a3 3a b5
       -2.771447e-06 -2.3309958e-06 -1.7450533e-06 -6.952863e-07
000290 98 4b d7 b2 d5 43 ae b4 15 d0 cc b5 cd 10 6d b6
       -2.506367e-08 -3.245938e-07 -1.5259744e-06 -3.5325531e-06
0002a0 f3 87 f0 b6 eb cb 23 b7 03 a5 42 b7 7a ec 61 b7
       -7.168384e-06 -9.763035e-06 -1.1601721e-05 -1.3466104e-05
0002b0 92 a3 8a b7 f3 b1 87 b7 38 63 87 b7 62 ee 74 b7
       -1.652705e-05 -1.6176118e-05 -1.6139456e-05 -1.4599036e-05
0002c0 5d 58 58 b7 1e 92 39 b7 f8 71 37 b7 78 c0 f7 b6
       -1.2895177e-05 -1.106088e-05 -1.0934185e-05 -7.38358e-06
0002d0 97 b2 c1 b6 f5 54 2b b6 cf f4 8a b5 b3 8a f9 b3
       -5.772639e-06 -2.5530437e-06 -1.035305e-06 -1.1620195e-07
0002e0 f8 ce 95 b1 b8 a7 93 b1 23 f9 9d 33 20 26 a4 b3
       -4.3600004e-09 -4.2973305e-09 7.3562e-08 -7.64378e-08
0002f0 17 2b 87 b3 a4 21 c1 33 7b 49 83 b3 56 5c 9f 32
       -6.2942654e-08 8.993382e-08 -6.113529e-08 1.8552026e-08
000300 a0 d4 c5 b1 60 37 4f 34 c1 be 04 34 67 db 78 b2
       -5.7576273e-09 1.9298523e-07 1.2362854e-07 -1.4485386e-08
000310 f8 2b 1f 33 b8 fd 6d 33 26 d2 54 b3 95 d1 55 33
       3.706006e-08 5.541162e-08 -4.9551225e-08 4.978354e-08
000320 b0 a9 41 b3 6d 83 80 b3 f6 3d af b4 bd eb d7 b4
       -4.5090644e-08 -5.984371e-08 -3.2641373e-07 -4.0218393e-07
000330 96 c1 14 b5 1c 1f 1d b5 a8 9f 3d b5 00 6a 81 b5
       -5.5416e-07 -5.853233e-07 -7.0640317e-07 -9.642099e-07
000340 6f 91 a1 b5 b3 bd 75 b5 3f 46 c2 b4 6c eb 6f b3
       -1.2037762e-06 -9.154566e-07 -3.6186427e-07 -5.586064e-08
000350 20 23 77 33 d2 a3 13 34 57 7c 52 34 b2 b7 2d b4
       5.7541115e-08 1.375004e-07 1.9603009e-07 -1.6178709e-07
000360 0b 4c d6 b5 5c 4d 81 b6 99 4a c7 b6 d2 ae 07 b7
       -1.5966374e-06 -3.8535054e-06 -5.9393465e-06 -8.087331e-06
000370 b4 1e 2e b7 62 17 2e b7 68 81 3e b7 d7 e5 3f b7
       -1.0378357e-05 -1.0376652e-05 -1.1355012e-05 -1.1438001e-05
000380 93 c2 44 b7 1d 15 39 b7 51 c8 41 b7 3f 7f 4a b7
       -1.1727813e-05 -1.1031775e-05 -1.1550336e-05 -1.2069765e-05
000390 f0 a5 4c b7 7d df 46 b7 20 8e 32 b7 72 66 16 b7
       -1.2197983e-05 -1.1853755e-05 -1.0642718e-05 -8.964549e-06
0003a0 d9 86 d7 b6 fd ad 8b b6 8b a8 97 b5 58 24 ab b3
       -6.4231976e-06 -4.1627777e-06 -1.1299429e-06 -7.969419e-08
0003b0 d6 89 56 33 63 85 97 b5 cb 0b 60 b6 72 72 b9 b6
       4.995112e-08 -1.1289197e-06 -3.3385465e-06 -5.526753e-06
0003c0 6e 76 03 b7 0d 7c 10 b7 bf 5c 1b b7 61 9c 0e b7
       -7.8357825e-06 -8.611952e-06 -9.260314e-06 -8.500269e-06
0003d0 26 c7 f9 b6 52 1e 82 b6 8e ec ca b5 3a 04 0c b6
       -7.443962e-06 -3.8778317e-06 -1.5119019e-06 -2.0864086e-06
0003e0 9c 1c 3c b6 31 19 1b b7 8e 54 97 b7 fa 8f cd b7
       -2.8030836e-06 -9.244585e-06 -1.8039977e-05 -2.4504949e-05
0003f0 d4 2c 0a b8 f5 b4 2b b8 2e ee 42 b8 e8 03 48 b8
       -3.2943513e-05 -4.0938106e-05 -4.6475026e-05 -4.7687354e-05

exp_avg_sq f4 [1, 1, 256, 256]
000000 e1 30 fe 30 c6 08 1d 31 8f a1 0d 31 69 0c e9 30
       1.8494825e-09 2.2851494e-09 2.0610036e-09 1.6956508e-09
000010 e7 66 9d 30 44 ec 39 30 67 fa c2 2f eb c8 ea 2e
       1.14525e-09 6.763836e-10 3.5466316e-10 1.0676778e-10
000020 c5 6a b8 2d ac c9 2b 2d d9 f8 e5 2c 5b 57 dd 2d
       2.0965793e-11 9.765005e-12 6.536199e-12 2.5163585e-11
000030 78 1e 9c 2e f5 c4 d7 2e dc 84 ff 2e 73 86 cd 2e
       7.099471e-11 9.8120546e-11 1.1619658e-10 9.346204e-11
000040 c1 ab b2 2e e9 47 4c 2e 93 8f bb 2d 92 1e 7c 2c
       8.1250125e-11 4.64481e-11 2.1323198e-11 3.5828324e-12
000050 28 21 c2 2a 84 47 da 2a be 8c 83 2c c7 b7 aa 2d
       3.448433e-13 3.8774203e-13 3.7388695e-12 1.9408376e-11
000060 ae 53 7b 2e 18 57 ea 2e 7d bf 1c 2f 65 1c 33 2f
       5.7145115e-11 1.0656559e-10 1.4256148e-10 1.6290043e-10
000070 ed 5d 41 2f c2 99 47 2f 50 96 41 2f d8 66 40 2f
       1.7586617e-10 1.815357e-10 1.760665e-10 1.7498836e-10
000080 61 a7 4d 2f 2a ba 4c 2f 2e 4d 41 2f 40 37 1f 2f
       1.8704106e-10 1.861983e-10 1.7580667e-10 1.4480595e-10
000090 32 64 16 2f 9b d5 ae 2e f3 ed 84 2e 6f 1b e4 2d
       1.3678017e-10 7.950548e-11 6.044933e-11 2.5932782e-11
0000a0 8a e4 4d 2d 18 54 82 2c 72 9e 87 2b 47 6c ab 2a
       1.1703647e-11 3.7041585e-12 9.636304e-13 3.0450834e-13
0000b0 04 38 0b 2b 9b 05 8d 2b 1c 03 3f 2c ab 73 b4 2c
       4.946046e-13 1.0020208e-12 2.7144459e-12 5.1287494e-12
0000c0 5a 65 07 2d 1c 46 02 2d 0f ef f2 2c f1 fd b4 2c
       7.696366e-12 7.405212e-12 6.9045945e-12 5.144101e-12
0000d0 e2 52 ab 2c 63 8b 67 2c 7f cc 07 2c c0 5c 8a 2b
       4.869314e-12 3.290445e-12 1.9298172e-12 9.831233e-13
0000e0 b8 19 3f 2b e5 34 75 2b 8a ca 08 2b cf 24 04 2b
       6.7892523e-13 8.711489e-13 4.8597985e-13 4.6946903e-13
0000f0 56 57 0c 2b 6f 28 42 2b 8f 53 4c 2b c6 85 13 2b
       4.9859194e-13 6.897876e-13 7.259132e-13 5.241054e-13
000100 8e 86 ed 2a 93 ef c9 2a df 5b ec 2a 70 75 04 2b
       4.2193023e-13 3.587101e-13 4.198577e-13 4.70588e-13
000110 16 73 cd 2a e2 95 a7 2a ee 6b 89 2a cd 44 87 2a
       3.6495172e-13 2.976916e-13 2.441098e-13 2.4028557e-13
000120 bc 03 af 2a 40 0c 9b 2b 9d 6c 96 2c 23 31 a5 2d
       3.1088836e-13 1.1016812e-12 4.275315e-12 1.878015e-11
000130 d7 a0 49 2e d9 4e c0 2e 8c 1b 27 2f 3c 49 40 2f
       4.5844963e-11 8.745155e-11 1.5198348e-10 1.7488316e-10
000140 bd 82 88 2f 01 43 9c 2f 75 87 b7 2f 65 70 b4 2f
       2.483115e-10 2.8423844e-10 3.3383754e-10 3.282167e-10
000150 46 d1 af 2f 64 17 8d 2f a2 f5 52 2f 2c bf 0b 2f
       3.1981012e-10 2.566437e-10 1.9186655e-10 1.2709894e-10
000160 f9 51 9c 2e 0f 42 ef 2d c4 16 07 2d bf 6c e8 2b
       7.10862e-11 2.720049e-11 7.6789165e-12 1.6514775e-12
000170 25 f0 21 2c 02 6c a1 2c fc a4 25 2d 05 ef 76 2d
       2.3012783e-12 4.5878865e-12 9.415798e-12 1.4036554e-11
000180 c8 4b 92 2d d2 e2 a3 2d e2 fb 8c 2d 2f 3c 17 2d
       1.6631932e-11 1.8631683e-11 1.6028016e-11 8.59672e-12
000190 1f 5e e2 2c 10 6f e4 2c b1 26 fe 2c 40 1e 3e 2d
       6.433756e-12 6.49248e-12 7.22341e-12 1.0806966e-11
0001a0 89 fe 7d 2d 53 bd 4d 2d c0 bd 06 2d 23 fc bc 2c
       1.4437903e-11 1.1694939e-11 7.659151e-12 5.371274e-12
0001b0 7c 30 83 2c 51 58 c5 2c f8 7f 89 2d 59 a6 25 2e
       3.7286268e-12 5.608882e-12 1.5631926e-11 3.7664403e-11
0001c0 6c d2 b3 2e 33 1c 14 2f ea ad 89 2f 06 29 dd 2f
       8.177356e-11 1.347054e-10 2.5043728e-10 4.0228815e-10
0001d0 c1 77 05 30 b0 51 1e 30 14 04 2d 30 da 61 14 30
       4.85553e-10 5.759615e-10 6.294283e-10 5.398114e-10
0001e0 8b 0d cf 2f 7e ab 9c 2f 33 7c 42 2f 09 1c aa 2e
       3.7662704e-10 2.8498087e-10 1.7688322e-10 7.735685e-11
0001f0 43 9b 8d 2e 2a ef d3 2e c3 d8 19 2f 2e 27 80 2f
       6.439518e-11 9.637653e-11 1.3992278e-10 2.3310903e-10
000200 7b 25 d0 2f 2c 8f 7f 2f b2 92 1a 2f 1c 1b d3 2e
       3.786161e-10 2.324298e-10 1.4058335e-10 9.599985e-11
000210 c9 04 9b 2e eb 29 a1 2e 48 33 36 2f 89 4e a6 2f
       7.049434e-11 7.3288785e-11 1.6571022e-10 3.0251027e-10
000220 e1 31 e8 2f 3c e9 13 30 7c d1 2d 30 d5 8d 26 30
       4.2235995e-10 5.3809734e-10 6.323473e-10 6.0592004e-10
000230 79 50 03 30 cc c8 db 2f 23 22 8e 2f 92 ef 0f 2f
       4.777188e-10 3.9978543e-10 2.5853905e-10 1.3090887e-10
000240 2c 05 ac 2e 72 ef 2b 2e 73 df 88 2d 44 c4 ad 2c
       7.822573e-11 3.909357e-11 1.5560641e-11 4.9387456e-12
000250 b1 ab 7b 2c 1a 89 d6 2c 28 62 17 2d 4c 47 55 2d
       3.5764553e-12 6.097467e-12 8.605151e-12 1.2123479e-11
000260 05 7d 66 2d e1 49 45 2d b0 fc 12 2d 03 c9 cf 2c
       1.3101746e-11 1.1214558e-11 8.355247e-12 5.9056106e-12
000270 b0 ea e9 2c 51 40 2c 2d 71 5c 78 2d 8d ac ae 2d
       6.648314e-12 9.791349e-12 1.4117694e-11 1.9858138e-11
000280 f9 a0 9b 2d b5 b2 82 2d 5c fb 29 2d d7 d7 a5 2c
       1.7692946e-11 1.485865e-11 9.662351e-12 4.713545e-12
000290 87 a4 15 2c 6d 9d 00 2c 20 16 04 2d ab ea d4 2d
       2.1265505e-12 1.8277283e-12 7.508244e-12 2.4205823e-11
0002a0 e9 80 a0 2e 19 a0 07 2f 6a e3 44 2f e4 df 8c 2f
       7.298857e-11 1.2335057e-10 1.790689e-10 2.5624936e-10
0002b0 60 a9 af 2f 5e 03 b5 2f 90 47 b8 2f ea 56 92 2f
       3.1952663e-10 3.29261e-10 3.3520253e-10 2.6619001e-10
0002c0 e9 cd 83 2f 75 a2 3e 2f ae b8 25 2f 6c 53 b3 2e
       2.397507e-10 1.7338116e-10 1.5072274e-10 8.154796e-11
0002d0 ce 09 5c 2e fa d5 85 2d ab 51 9e 2c 00 8a 93 2b
       5.0030917e-11 1.5215374e-11 4.499697e-12 1.0483281e-12
0002e0 ed 83 aa 2a 42 9f 87 2a 1c 92 89 2a 94 3b a7 2a
       3.0289608e-13 2.4091325e-13 2.4437472e-13 2.97065e-13
0002f0 c6 36 c8 2a c6 ef 02 2b 5e f0 e5 2a f8 df c5 2a
       3.5565143e-13 4.651803e-13 4.084536e-13 3.514964e-13
000300 c6 8b fb 2a 80 c0 1a 2b 51 c9 49 2b 52 fc 3c 2b
       4.4683544e-13 5.497894e-13 7.168893e-13 6.714118e-13
000310 32 60 11 2b 6e a5 04 2b f2 73 08 2b 24 fe 71 2b
       5.1647846e-13 4.71254e-13 4.847781e-13 8.597309e-13
000320 bd fb 3b 2b 9c 3e 8b 2b ce a2 0e 2c 52 fa 6f 2c
       6.6785103e-13 9.893922e-13 2.0269788e-12 3.4102898e-12
000330 2f cd aa 2c 47 ee c9 2c 23 76 ed 2c 04 23 0e 2d
       4.8544706e-12 5.7392177e-12 6.749061e-12 8.0795405e-12
000340 d3 02 03 2d 06 a5 c0 2c fc 6e 35 2c ae 6e 8b 2b
       7.447115e-12 5.4752895e-12 2.5783256e-12 9.907264e-13
000350 16 76 0c 2b c9 00 a1 2a 89 f5 85 2b 06 ad 83 2c
       4.990187e-13 2.859989e-13 9.518368e-13 3.7424534e-12
000360 06 fd 4a 2d e1 6a f5 2d ff 8a 84 2e 69 21 ba 2e
       1.1538553e-11 2.7900739e-11 6.027356e-11 8.4642356e-11
000370 a6 55 1a 2f f0 e6 16 2f 4d 35 3a 2f 7f 29 54 2f
       1.4036647e-10 1.3724466e-10 1.6935538e-10 1.929603e-10
000380 66 16 4a 2f b8 84 38 2f 17 c4 41 2f 5d 5a 46 2f
       1.837975e-10 1.6781854e-10 1.7622913e-10 1.8040099e-10
000390 3d f1 45 2f ea 9e 38 2f 62 44 18 2f d1 61 e0 2e
       1.800275e-10 1.679116e-10 1.3848614e-10 1.0203716e-10
0003a0 13 b5 6b 2e eb ce e0 2d 85 65 87 2c 25 7d d5 2a
       5.359364e-11 2.5557742e-11 3.8482017e-12 3.7923237e-13
0003b0 68 49 d5 2a dd 39 91 2c d7 9e b0 2d a2 ca 4d 2e
       3.7887336e-13 4.127572e-12 2.0079422e-11 4.6791578e-11
0003c0 7f 7c c2 2e 70 49 db 2e 93 0e f8 2e ee 44 df 2e
       8.8442136e-11 9.972012e-11 1.1280323e-10 1.015311e-10
0003d0 44 0c a0 2e dc f2 d3 2d be a4 f2 2c a0 da 1a 2d
       7.2781364e-11 2.4095774e-11 6.8963437e-12 8.802431e-12
0003e0 47 ce ac 2d 46 76 e6 2e ec cc bf 2f 8a 77 3d 30
       1.9645742e-11 1.0480199e-10 3.4888303e-10 6.8927675e-10
0003f0 b7 e3 9c 30 05 7c eb 30 d0 f4 0d 31 fb d9 1c 31
       1.1415214e-09 1.7133749e-09 2.065736e-09 2.2824895e-09

loss f8 []
000000 1f 58 60 f3 2a 08 57 40
       92.12762150200477
