weights/e120.pth (torch, 788191 bytes, 4 tensors)

weights f4 [1, 1, 256, 256]
0	0x40b7c1e7	5.7424197
1	0x40b42ef6	5.6307325
2	0x40b4a59a	5.645215
3	0x40b97148	5.7950783
4	0x40b921e4	5.785387
5	0x40b8923f	5.7678523
6	0x40ac3e4c	5.3826046
7	0x40ad9939	5.424954
8	0x409472b0	4.639
9	0x409e7f95	4.953074
10	0x4093726f	4.607719
11	0x40a479cc	5.139868
12	0x40aad74c	5.3387814
13	0x40aa386d	5.319388
14	0x40a9ada2	5.3024454
15	0x40aa6d7a	5.325864
16	0x40a98a8b	5.298162
17	0x40a4414c	5.132971
18	0x409ff6c8	4.9988747
19	0x40930ed9	4.5955625
20	0x40410064	3.0156488
21	0x4032f041	2.795914
22	0x40905f2f	4.511619
23	0x40a45f0f	5.136604
24	0x40af758d	5.4830995
25	0x40af5943	5.479646
26	0x40acb88e	5.3975286
27	0x40ac0399	5.375439
28	0x40ae55d2	5.447976
29	0x40b1353f	5.53775
30	0x40af79b6	5.4836073
31	0x40ac07da	5.3759584
32	0x40b0f660	5.530075
33	0x40b2c0ab	5.586019
34	0x40af5fef	5.4804606
35	0x40ae22f5	5.441767
36	0x40adde8c	5.4334164
37	0x40a6ae62	5.208787
38	0x40a34e34	5.1032963
39	0x409f1e77	4.972469
40	0x4095243f	4.6606746
41	0x406e7d8f	3.7264135
42	0x40450ace	3.0787845
43	0x400034e0	2.0032272
44	0x4001faa3	2.0309227
45	0x404ec274	3.2306185
46	0x4085fca6	4.187091
47	0x408ed97e	4.4640493
48	0x4097b171	4.7404103
49	0x408cbfb6	4.398402
50	0x408851f1	4.2600026
51	0x408375b0	4.108116
52	0x4083790c	4.108526
53	0x40822354	4.0668125
54	0x40773935	3.8628666
55	0x405fbe6d	3.4959977
56	0x4039ae94	2.9012804
57	0x3ff9bb18	1.9510221
58	0x401519c9	2.3296988
59	0x401e7ee4	2.4764948
60	0x401c00c1	2.437546
61	0x401063a1	2.2560809
62	0x3ffff29c	1.9995914
63	0x40174f81	2.3642275
64	0x4019cee1	2.403252
65	0x40169b44	2.3532267
66	0x400b9d9e	2.1814952
67	0x3fee08fd	1.8596493
68	0x3ffc79bc	1.972465
69	0x3fede0d7	1.8584241
70	0x3fc24ef7	1.5180348
71	0x3fbefd49	1.4921046
72	0x400db138	2.2139416
73	0x405e9a29	3.4781592
74	0x408f0dce	4.470435
75	0x409b88f3	4.8604674
76	0x40a4556d	5.135428
77	0x40a3f30d	5.1234193
78	0x40b4bde3	5.6481795
79	0x40a4ed65	5.153979
80	0x40ab8899	5.3604245
81	0x40aecae3	5.4622664
82	0x40abcf15	5.3690286
83	0x40afe88a	5.497136
84	0x40ada0b1	5.4258657
85	0x40b4214a	5.6290636
86	0x40a97de0	5.2966156
87	0x40ab447d	5.3521104
88	0x40a3c6ba	5.1180086
89	0x409cb036	4.89651
90	0x40944628	4.633564
91	0x406438a5	3.5659573
92	0x404ca20a	3.19739
93	0x40848f06	4.142459
94	0x40985350	4.76017
95	0x40985a6c	4.761038
96	0x409b6091	4.855538
97	0x409d1f23	4.910051
98	0x40969d73	4.70672
99	0x408b1126	4.3458433
100	0x407c33b8	3.9406567
101	0x407df87d	3.9682915
102	0x40894f66	4.290942
103	0x40900fc3	4.501924
104	0x4097969f	4.7371364
105	0x4097b6c6	4.741061
106	0x4090f329	4.5296826
107	0x40855f8c	4.1679134
108	0x4065d73f	3.5912626
109	0x4082ed47	4.0914645
110	0x40962d73	4.693048
111	0x40990d4c	4.782873
112	0x409df801	4.936524
113	0x40a9f2fa	5.31091
114	0x40a73ff9	5.226559
115	0x40ae2383	5.441835
116	0x40ad6819	5.418957
117	0x40a5a3b2	5.1762323
118	0x40ac4573	5.3834777
119	0x40a98c7a	5.298398
120	0x40a12230	5.0354233
121	0x40a22e36	5.068141
122	0x40a158ae	5.042075
123	0x408ec242	4.461213
124	0x408080cf	4.0157237
125	0x40240fba	2.5634599
126	0x401d3194	2.456151
127	0x400a4bc3	2.1608741
128	0x3fcd076c	1.601789
129	0x400a6334	2.1623049
130	0x401d4a7d	2.4576714
131	0x4023dd17	2.5603693
132	0x407ce1e4	3.9512873
133	0x408eb338	4.4593773
134	0x40a076ff	5.014526
135	0x40a00afe	5.001342
136	0x40aa494a	5.3214464
137	0x40a4bbf6	5.1479445
138	0x40ab6d2b	5.357076
139	0x40aa7e02	5.327882
140	0x40acb4dc	5.3970776
141	0x40abfcea	5.3746233
142	0x40a5fd3a	5.1871614
143	0x40a72ed1	5.224465
144	0x409d68f4	4.9190617
145	0x409bc3e4	4.8676624
146	0x4094ee6f	4.6541057
147	0x40883a2f	4.2571025
148	0x406545c3	3.582383
149	0x40850355	4.1566567
150	0x40910573	4.531915
151	0x40949e81	4.6443486
152	0x40984d03	4.759401
153	0x409367ea	4.606435
154	0x408b9d30	4.362938
155	0x407a46e5	3.910577
156	0x40816a4a	4.0442247
157	0x408fad63	4.4899154
158	0x409b92e3	4.8616805
159	0x4097bf5b	4.742109
160	0x409c236f	4.8793254
161	0x409b1df3	4.847406
162	0x409647df	4.6962733
163	0x4083be21	4.116959
164	0x404da0f0	3.2129478
165	0x40651172	3.5791898
166	0x4094a04c	4.6445675
167	0x40a16c2d	5.044455
168	0x40ab5be1	5.3549657
169	0x40aa1d4e	5.316077
170	0x40a865f6	5.2624464
171	0x40ae8a28	5.454365
172	0x40a87e13	5.26539
173	0x40afa129	5.488423
174	0x40b25409	5.572758
175	0x40b10e97	5.533031
176	0x40ad54fa	5.416623
177	0x40aaa93a	5.3331575
178	0x40acf991	5.4054646
179	0x40a6e768	5.215748
180	0x40a2fb76	5.093196
181	0x409b7287	4.8577304
182	0x408c873f	4.3915095
183	0x405b759f	3.429054
184	0x400db138	2.2139416
185	0x3fbefd52	1.4921057
186	0x3fc24f24	1.5180402
187	0x3fede190	1.8584461
188	0x3ffc7a42	1.972481
189	0x3fee08df	1.8596457
190	0x400ba115	2.1817067
191	0x40169a99	2.353186
192	0x4019d478	2.403593
193	0x40174f9c	2.364234
194	0x3ffff39a	1.9996216
195	0x401063ff	2.2561033
196	0x401c032d	2.4376938
197	0x401e7631	2.4759638
198	0x401510b9	2.3291457
199	0x3ff9bb2c	1.9510245
200	0x4039453c	2.8948507
201	0x405e2662	3.4710927
202	0x40767e63	3.851464
203	0x4081b7df	4.053695
204	0x40820e1c	4.0642223
205	0x4084eb28	4.1537056
206	0x40891069	4.283253
207	0x408ec847	4.461948
208	0x40948f14	4.6424656
209	0x408a3fb8	4.320278
210	0x4082d8e1	4.0889745
211	0x404edbd7	3.232168
212	0x4001fa91	2.0309184
213	0x40003504	2.0032358
214	0x40448303	3.0704963
215	0x40713a8c	3.7691984
216	0x4096b0f7	4.709102
217	0x40a18a26	5.048114
218	0x40a540f3	5.1641784
219	0x40a7e10b	5.246221
220	0x40acf4f5	5.404902
221	0x40a65292	5.1975794
222	0x40aebe37	5.4607196
223	0x40ac13cc	5.3774166
224	0x40ab578d	5.3544374
225	0x40aa281e	5.317397
226	0x40aaaeda	5.333844
227	0x40af1270	5.4710007
228	0x40ac4242	5.383088
229	0x40afaca6	5.4898252
230	0x40aa7d64	5.3278065
231	0x40ac197d	5.3781114
232	0x40a990b7	5.2989154
233	0x40a3714f	5.1075816
234	0x409079ce	4.5148687
235	0x4032f131	2.7959712
236	0x4040d9d4	3.0132952
237	0x4094bebf	4.6482844
238	0x40a57295	5.170237
239	0x40a54dab	5.165731
240	0x40aaac16	5.3335066
241	0x40aebc97	5.460521
242	0x40ad1996	5.4093733
243	0x40ab4e86	5.3533354
244	0x40adc940	5.4308167
245	0x40a6dfd0	5.214821
246	0x40941efe	4.628783
247	0x40998eca	4.7986803
248	0x4092ef41	4.591706
249	0x40ae4e39	5.4470487
250	0x40ae565e	5.448043
251	0x40b7cccf	5.743751
252	0x40b5cff7	5.6816363
253	0x40b7ad38	5.739895
254	0x40b5152a	5.6588335
255	0x40b350c9	5.6036115

exp_avg f4 [1, 1, 256, 256]
0	0xb82a6616	-4.0626233e-05
1	0xb8457818	-4.7080306e-05
2	0xb83b38d7	-4.463721e-05
3	0xb82b4916	-4.0837644e-05
4	0xb809fc6d	-3.2898435e-05
5	0xb7d7e256	-2.5735393e-05
6	0xb79d8bfc	-1.8781044e-05
7	0xb720a0fa	-9.574223e-06
8	0xb6452c44	-2.9381054e-06
9	0xb5eeb868	-1.7786051e-06
10	0xb5e35d05	-1.693989e-06
11	0xb68b6623	-4.154413e-06
12	0xb6f749e4	-7.3697756e-06
13	0xb7176a8f	-9.0251115e-06
14	0xb726d7f5	-9.944652e-06
15	0xb71a2d1d	-9.189619e-06
16	0xb7062bd4	-7.997227e-06
17	0xb6c60daa	-5.9024505e-06
18	0xb6751a0a	-3.6523002e-06
19	0xb57dfa25	-9.461385e-07
20	0x33c2eec5	9.077261e-08
21	0x33f70acb	1.1503797e-07
22	0xb5a71dfc	-1.2451196e-06
23	0xb6759bd4	-3.6598549e-06
24	0xb6c50cb0	-5.8725345e-06
25	0xb71bea31	-9.293247e-06
26	0xb733eebf	-1.0724819e-05
27	0xb748a172	-1.1958518e-05
28	0xb74c0d90	-1.2162505e-05
29	0xb751f1ce	-1.251367e-05
30	0xb74520d1	-1.1749756e-05
31	0xb747e374	-1.1914282e-05
32	0xb753f71c	-1.2634115e-05
33	0xb74e060d	-1.2279966e-05
34	0xb73dfdb2	-1.1324346e-05
35	0xb737f93b	-1.09656785e-05
36	0xb72f91ac	-1.046473e-05
37	0xb705e7eb	-7.981415e-06
38	0xb6db17bb	-6.529471e-06
39	0xb68b613c	-4.1538424e-06
40	0xb5e7c2ce	-1.7267537e-06
41	0xb40aa0a0	-1.2910687e-07
42	0x341c9990	1.4584498e-07
43	0x32e8aac4	2.708601e-08
44	0xb2ab5d24	-1.9949375e-08
45	0xb2d3cb5c	-2.465611e-08
46	0xb50d1eea	-5.257158e-07
47	0xb58668fd	-1.0014334e-06
48	0xb5920404	-1.0879016e-06
49	0xb5887b44	-1.0168665e-06
50	0xb590b159	-1.0780451e-06
51	0xb5191d31	-5.703942e-07
52	0xb5133988	-5.4845486e-07
53	0xb4b17872	-3.3056455e-07
54	0xb41da69c	-1.4682377e-07
55	0xb40bb3ed	-1.301084e-07
56	0x33c9cc74	9.396982e-08
57	0xb390a55a	-6.7356e-08
58	0xb27c54a4	-1.4687576e-08
59	0xb28cfa5e	-1.6411999e-08
60	0xb34df515	-4.7953183e-08
61	0x33988650	7.102483e-08
62	0x335cfc8e	5.145244e-08
63	0xb22ed542	-1.0176622e-08
64	0xb1887718	-3.9716603e-09
65	0xb2984201	-1.7725144e-08
66	0x32266254	9.684829e-09
67	0xb3f98393	-1.1618899e-07
68	0x33c73004	9.2753936e-08
69	0x33af5399	8.164279e-08
70	0x31ecad2a	6.8881905e-09
71	0xb3221778	-3.773991e-08
72	0xb2c844f1	-2.3314415e-08
73	0x335caf94	5.138243e-08
74	0xb533cec3	-6.6983574e-07
75	0xb634f57e	-2.6964985e-06
76	0xb6bbcdd9	-5.596998e-06
77	0xb703f049	-7.864154e-06
78	0xb72a3096	-1.0144102e-05
79	0xb742c3c4	-1.1608881e-05
80	0xb76422e4	-1.3597983e-05
81	0xb76d2fa0	-1.4137389e-05
82	0xb784513e	-1.5773458e-05
83	0xb78d8d3c	-1.6874277e-05
84	0xb784e57a	-1.5842485e-05
85	0xb75895f0	-1.2909513e-05
86	0xb74e1718	-1.2283934e-05
87	0xb71fc52a	-9.523044e-06
88	0xb700b011	-7.670388e-06
89	0xb684fb34	-3.9631504e-06
90	0xb58e14ee	-1.0585916e-06
91	0xb1663f80	-3.35055e-09
92	0x34014912	1.2040644e-07
93	0xb51eb38c	-5.912086e-07
94	0xb5e172b6	-1.6797192e-06
95	0xb605c495	-1.993297e-06
96	0xb61a7ffc	-2.3022285e-06
97	0xb640aa98	-2.8709528e-06
98	0xb63214d6	-2.6536195e-06
99	0xb5ef7280	-1.7840212e-06
100	0xb58d2c98	-1.0518297e-06
101	0xb53efbec	-7.114711e-07
102	0xb5c03d2c	-1.4322918e-06
103	0xb61468b9	-2.2114675e-06
104	0xb6161f5c	-2.2369995e-06
105	0xb5f5a727	-1.830257e-06
106	0xb59f21df	-1.1856281e-06
107	0xb50308e5	-4.8814246e-07
108	0x320575e8	7.768428e-09
109	0xb51d3eb0	-5.857828e-07
110	0xb60d4c65	-2.1055105e-06
111	0xb68dc4a6	-4.2250203e-06
112	0xb6d382b7	-6.3035072e-06
113	0xb70ea81a	-8.502999e-06
114	0xb7610de3	-1.3414278e-05
115	0xb7997d37	-1.8297329e-05
116	0xb7aebaf0	-2.0829466e-05
117	0xb7d4db8f	-2.537461e-05
118	0xb7b7a65f	-2.1892773e-05
119	0xb7b8702e	-2.1986747e-05
120	0xb7969944	-1.7952763e-05
121	0xb7749ce2	-1.458006e-05
122	0xb721a274	-9.634172e-06
123	0xb6a87ce7	-5.0213307e-06
124	0xb67b83e9	-3.7478696e-06
125	0xb60bfbe8	-2.0859243e-06
126	0xb5d720c2	-1.6028282e-06
127	0xb6570a86	-3.2043622e-06
128	0xb5835c28	-9.787082e-07
129	0xb654cd0a	-3.170981e-06
130	0xb5d42558	-1.5806099e-06
131	0xb60e8972	-2.1239653e-06
132	0xb68efc75	-4.2613196e-06
133	0xb6a8f426	-5.035213e-06
134	0xb724d5e9	-9.824967e-06
135	0xb77c6ed5	-1.5046176e-05
136	0xb7854b9f	-1.589005e-05
137	0xb7bfafce	-2.285084e-05
138	0xb7b8e9db	-2.2043407e-05
139	0xb7cf4dd2	-2.471256e-05
140	0xb7af616b	-2.090699e-05
141	0xb79bd47c	-1.8576386e-05
142	0xb7633ed3	-1.3544882e-05
143	0xb71324b5	-8.770429e-06
144	0xb6d57c59	-6.3623706e-06
145	0xb684a725	-3.9533647e-06
146	0xb614f290	-2.2194909e-06
147	0xb3b24704	-8.3016886e-08
148	0xb2920120	-1.6997149e-08
149	0xb50b7eb3	-5.1965907e-07
150	0xb59e50ba	-1.1795412e-06
151	0xb60c7b7b	-2.09335e-06
152	0xb61249df	-2.1798694e-06
153	0xb603184c	-1.9534664e-06
154	0xb5a7884c	-1.2482137e-06
155	0xb565586c	-8.543782e-07
156	0xb5520c82	-7.82493e-07
157	0xb5bfac43	-1.4280744e-06
158	0xb617418d	-2.253891e-06
159	0xb65b7ce4	-3.270624e-06
160	0xb617009b	-2.2501106e-06
161	0xb5ef914a	-1.7849172e-06
162	0xb5f4234c	-1.8189689e-06
163	0xb52e9e64	-6.505054e-07
164	0x3425b675	1.54332e-07
165	0x32e2bdcc	2.6396172e-08
166	0xb58ac832	-1.0340066e-06
167	0xb67243c8	-3.6100264e-06
168	0xb6f154ba	-7.192223e-06
169	0xb72100ed	-9.596563e-06
170	0xb74f3b13	-1.2351916e-05
171	0xb75f3cb4	-1.3305969e-05
172	0xb787a5fe	-1.617055e-05
173	0xb78db465	-1.6892513e-05
174	0xb780edb2	-1.5369475e-05
175	0xb76aadc0	-1.3987941e-05
176	0xb762217f	-1.3478449e-05
177	0xb73cc2e0	-1.1251046e-05
178	0xb7329586	-1.064444e-05
179	0xb7009c7c	-7.665829e-06
180	0xb6beaf7c	-5.6828703e-06
181	0xb6355b68	-2.7024307e-06
182	0xb55e3976	-8.278506e-07
183	0xb35c2ec4	-5.1265275e-08
184	0xb2c844f1	-2.3314415e-08
185	0xb32214a4	-3.7737337e-08
186	0x31ed10da	6.8995236e-09
187	0x33af6dda	8.1690544e-08
188	0x33c742cd	9.2788106e-08
189	0xb3f9871c	-1.1619542e-07
190	0x322dcbc4	1.0116256e-08
191	0xb298fa1f	-1.780887e-08
192	0xb1609f78	-3.2686938e-09
193	0xb22ea00c	-1.01645234e-08
194	0x335d418e	5.1515194e-08
195	0x33989e4c	7.1068456e-08
196	0xb34cb0e7	-4.7658343e-08
197	0xb2965351	-1.7500186e-08
198	0xb2871178	-1.5724012e-08
199	0xb390a2ac	-6.7351124e-08
200	0x33ae55fd	8.1181476e-08
201	0xb43e4d92	-1.7723349e-07
202	0xb4359e34	-1.6914493e-07
203	0xb4bef4e0	-3.5568428e-07
204	0xb52a0ecc	-6.335147e-07
205	0xb502240e	-4.848124e-07
206	0xb58aa7a5	-1.0330592e-06
207	0xb56c7e60	-8.810075e-07
208	0xb5a9e694	-1.2658588e-06
209	0xb5ad993c	-1.2934102e-06
210	0xb53c5767	-7.0162645e-07
211	0xb2b9fcf4	-2.1651864e-08
212	0xb2ab6e88	-1.9957284e-08
213	0x32e8d24c	2.7103987e-08
214	0x340c0af2	1.3042498e-07
215	0xb33f4106	-4.452979e-08
216	0xb5dad9d5	-1.6305663e-06
217	0xb686d2ef	-4.018067e-06
218	0xb6d72be2	-6.412608e-06
219	0xb704d3e9	-7.917152e-06
220	0xb73076d4	-1.0518084e-05
221	0xb73f674a	-1.1408536e-05
222	0xb73e9578	-1.1359683e-05
223	0xb7542f0c	-1.2647139e-05
224	0xb7594d14	-1.2952154e-05
225	0xb749816c	-1.2010667e-05
226	0xb7497600	-1.2008008e-05
227	0xb753daed	-1.2627553e-05
228	0xb74dff7a	-1.2278435e-05
229	0xb74557ba	-1.176254e-05
230	0xb73610e1	-1.0851975e-05
231	0xb71ed718	-9.467614e-06
232	0xb6d0a3e1	-6.217961e-06
233	0xb679092a	-3.7109226e-06
234	0xb5a6630e	-1.2396792e-06
235	0x33f749e9	1.1515278e-07
236	0x33b9d26d	8.65301e-08
237	0xb5665ac2	-8.5813747e-07
238	0xb6615379	-3.35762e-06
239	0xb6c431c4	-5.8470487e-06
240	0xb7052411	-7.935815e-06
241	0xb7163a93	-8.954335e-06
242	0xb7236eb8	-9.741336e-06
243	0xb71661df	-8.963484e-06
244	0xb6f19eb1	-7.200834e-06
245	0xb687475a	-4.03162e-06
246	0xb5de61b7	-1.6568728e-06
247	0xb608a7d9	-2.036328e-06
248	0xb64afb6d	-3.0246695e-06
249	0xb7200c8e	-9.539666e-06
250	0xb79c89fe	-1.8660907e-05
251	0xb7d83d49	-2.5777745e-05
252	0xb80ab0c8	-3.3066404e-05
253	0xb82bb308	-4.0936313e-05
254	0xb83b1ffe	-4.461407e-05
255	0xb845a6d1	-4.712382e-05

exp_avg_sq f4 [1, 1, 256, 256]
0	0x310029f4	1.86503e-09
1	0x3121361c	2.3459341e-09
2	0x310fb9c7	2.091484e-09
3	0x30ebb14b	1.714889e-09
4	0x309d20e2	1.1432599e-09
5	0x303dc10a	6.9032124e-10
6	0x2fcb98a7	3.703395e-10
7	0x2ef25de3	1.10215635e-10
8	0x2db1d1ad	2.0215685e-11
9	0x2cf6c9f2	7.014161e-12
10	0x2cf82199	7.052314e-12
11	0x2dd47b69	2.4156415e-11
12	0x2e9c23e5	7.100435e-11
13	0x2ed70bdb	9.779174e-11
14	0x2eff981b	1.1623077e-10
15	0x2edc1251	1.00076954e-10
16	0x2ebc2ece	8.5575644e-11
17	0x2e52039f	4.7751688e-11
18	0x2db6770e	2.0743875e-11
19	0x2c78c657	3.535302e-12
20	0x2ac1e210	3.444055e-13
21	0x2aea85cb	4.1659588e-13
22	0x2c748f05	3.4753877e-12
23	0x2db83326	2.0941093e-11
24	0x2e5cf3e5	5.023883e-11
25	0x2ed7889c	9.801335e-11
26	0x2f18fbbe	1.3913756e-10
27	0x2f39a321	1.6883607e-10
28	0x2f4157a4	1.7584384e-10
29	0x2f40b47f	1.7526423e-10
30	0x2f3f7369	1.7412351e-10
31	0x2f4035ad	1.7481368e-10
32	0x2f4760f3	1.8133388e-10
33	0x2f460cf5	1.8012598e-10
34	0x2f41ff5f	1.7643974e-10
35	0x2f190470	1.3916845e-10
36	0x2f16059e	1.3644416e-10
37	0x2eb25441	8.109469e-11
38	0x2e85d9ef	6.0868525e-11
39	0x2de7d7b9	2.635746e-11
40	0x2d3eebd0	1.08526105e-11
41	0x2c6832d2	3.2997394e-12
42	0x2b81fa0c	9.235403e-13
43	0x2ab4eebb	3.2140076e-13
44	0x2b08e39f	4.8632794e-13
45	0x2b8ee58f	1.0153422e-12
46	0x2c27b49e	2.383239e-12
47	0x2ca0e28d	4.5726257e-12
48	0x2cd0b488	5.9317586e-12
49	0x2d08f021	7.784024e-12
50	0x2cf40329	6.935248e-12
51	0x2cb050e3	5.011201e-12
52	0x2c9c0741	4.434592e-12
53	0x2c5a2906	3.1002436e-12
54	0x2c06e0e8	1.9167393e-12
55	0x2b90427d	1.025027e-12
56	0x2b46528e	7.04583e-13
57	0x2b710215	8.562329e-13
58	0x2b088a75	4.8509054e-13
59	0x2b0de7b4	5.0414816e-13
60	0x2b147ce4	5.2753483e-13
61	0x2b44f5cf	6.9974316e-13
62	0x2b55542b	7.578961e-13
63	0x2b125048	5.198103e-13
64	0x2aefec33	4.2618825e-13
65	0x2abc4afb	3.3447537e-13
66	0x2af78e17	4.3974609e-13
67	0x2b04a748	4.712797e-13
68	0x2ac3705e	3.471693e-13
69	0x2aa9448a	3.006799e-13
70	0x2a8d68e6	2.511942e-13
71	0x2a9a7119	2.7434373e-13
72	0x2aa66ba2	2.956221e-13
73	0x2b759e57	8.7261226e-13
74	0x2c841474	3.7539364e-12
75	0x2d892c00	1.5594637e-11
76	0x2e4fbbb7	4.7233075e-11
77	0x2ebacdec	8.49488e-11
78	0x2f15cd87	1.3624489e-10
79	0x2f49ee89	1.8365588e-10
80	0x2f85385f	2.4232613e-10
81	0x2f94e9ff	2.7087307e-10
82	0x2fb5ce1a	3.3070152e-10
83	0x2fb233b6	3.2414754e-10
84	0x2faef39c	3.182351e-10
85	0x2f862e27	2.440725e-10
86	0x2f4f86bb	1.8874406e-10
87	0x2f04373e	1.2024956e-10
88	0x2ea22a99	7.374474e-11
89	0x2de986b6	2.6548857e-11
90	0x2cd5bd81	6.0748633e-12
91	0x2bfe5623	1.8071693e-12
92	0x2c1f9a81	2.2681026e-12
93	0x2c8da01c	4.0252367e-12
94	0x2d1e26c9	8.989872e-12
95	0x2d628628	1.2876401e-11
96	0x2d855578	1.5158305e-11
97	0x2d918cc9	1.6547113e-11
98	0x2d88d3df	1.55555e-11
99	0x2d429e38	1.1062755e-11
100	0x2cf21801	6.8807187e-12
101	0x2ccb86e1	5.7845816e-12
102	0x2d0c3ab7	7.971116e-12
103	0x2d503b51	1.1836602e-11
104	0x2d67928c	1.316337e-11
105	0x2d389f44	1.0494553e-11
106	0x2d107588	8.2115495e-12
107	0x2cb09558	5.0188013e-12
108	0x2c80dc48	3.662435e-12
109	0x2ce66e6e	6.5492533e-12
110	0x2d71e1bb	1.3749386e-11
111	0x2e1cbb9f	3.5636934e-11
112	0x2eaf969d	7.984833e-11
113	0x2efa91f1	1.1394608e-10
114	0x2f898944	2.5017688e-10
115	0x2fcb77e0	3.701066e-10
116	0x3003ff8a	4.8020665e-10
117	0x302d2f07	6.3003863e-10
118	0x3022bb76	5.9201655e-10
119	0x3013a0b0	5.370664e-10
120	0x2fd7bce5	3.924249e-10
121	0x2f94cd03	2.7066713e-10
122	0x2f20384c	1.4571916e-10
123	0x2e974fa0	6.880829e-11
124	0x2e89659a	6.248087e-11
125	0x2ec76be4	9.0686375e-11
126	0x2f19a8e0	1.3975265e-10
127	0x2f7faf27	2.3254342e-10
128	0x2fcdbfd5	3.7425588e-10
129	0x2f7de1c9	2.3090431e-10
130	0x2f195969	1.3947034e-10
131	0x2ec84ec3	9.108938e-11
132	0x2e93e678	6.7257255e-11
133	0x2e97a999	6.8968116e-11
134	0x2f247d23	1.496017e-10
135	0x2f9c8c61	2.847598e-10
136	0x2fb12c94	3.2227787e-10
137	0x301e00a1	5.748096e-10
138	0x30247da3	5.9841393e-10
139	0x3024deed	5.997965e-10
140	0x3004e07b	4.8340326e-10
141	0x2fd0a4ad	3.795199e-10
142	0x2f8b9bb4	2.5394586e-10
143	0x2f02bc6c	1.1890372e-10
144	0x2eb17be1	8.0710334e-11
145	0x2e112e2f	3.3010202e-11
146	0x2d7eaec8	1.4477038e-11
147	0x2ca9f5c0	4.8305526e-12
148	0x2c82f222	3.7217044e-12
149	0x2cb40bc0	5.117212e-12
150	0x2d0fffa0	8.185369e-12
151	0x2d502959	1.1832612e-11
152	0x2d61a9f5	1.2827507e-11
153	0x2d36d770	1.0393339e-11
154	0x2cfd8c60	7.2062772e-12
155	0x2cd9fb06	6.19538e-12
156	0x2cd559e2	6.063803e-12
157	0x2d216ade	9.17552e-12
158	0x2d6559e9	1.3037107e-11
159	0x2dabfe3f	1.9553357e-11
160	0x2d825264	1.4815878e-11
161	0x2d4da634	1.1689805e-11
162	0x2d2a71df	9.688666e-12
163	0x2c934a40	4.1862347e-12
164	0x2c1ad991	2.200549e-12
165	0x2bf646a5	1.7498959e-12
166	0x2cd25601	5.9781073e-12
167	0x2dcf2fa9	2.355434e-11
168	0x2e918c8d	6.6188034e-11
169	0x2f05d58d	1.2172148e-10
170	0x2f516d83	1.9047346e-10
171	0x2f8c3830	2.5505775e-10
172	0x2fb5211a	3.2947228e-10
173	0x2fb28a45	3.2476258e-10
174	0x2fae7331	3.1732264e-10
175	0x2f927491	2.664007e-10
176	0x2f836ad4	2.3904667e-10
177	0x2f40692e	1.7499666e-10
178	0x2f214f4c	1.4671037e-10
179	0x2eb3e1d6	8.180094e-11
180	0x2e545327	4.8277073e-11
181	0x2d898380	1.5633494e-11
182	0x2c944e87	4.2151313e-12
183	0x2b975673	1.075319e-12
184	0x2aa66724	2.9559092e-13
185	0x2a9928aa	2.7206476e-13
186	0x2a8c599a	2.493117e-13
187	0x2aa6af75	2.960927e-13
188	0x2ac0912a	3.420678e-13
189	0x2b053512	4.732474e-13
190	0x2aedf4ec	4.2269606e-13
191	0x2abe10c0	3.3762403e-13
192	0x2ae10e82	3.9978096e-13
193	0x2b123b13	5.19516e-13
194	0x2b548e42	7.551495e-13
195	0x2b44d094	6.992265e-13
196	0x2b12922c	5.2072474e-13
197	0x2b1307d6	5.2235766e-13
198	0x2b0b7a51	4.955247e-13
199	0x2b70f761	8.5608435e-13
200	0x2b4e5241	7.330005e-13
201	0x2b9ba2ad	1.1058564e-12
202	0x2c099468	1.9551253e-12
203	0x2c5e10af	3.1557359e-12
204	0x2ca3f360	4.6597587e-12
205	0x2ca8e311	4.8000566e-12
206	0x2ceeabc4	6.7834367e-12
207	0x2d009615	7.3092825e-12
208	0x2ce819e5	6.5967115e-12
209	0x2cc2196f	5.5166353e-12
210	0x2c4279f7	2.7636762e-12
211	0x2b8e1873	1.0096493e-12
212	0x2b096a75	4.8819916e-13
213	0x2ab8514f	3.2741385e-13
214	0x2b8648df	9.541498e-13
215	0x2c5d5421	3.145269e-12
216	0x2d372106	1.0409678e-11
217	0x2ddd7b71	2.517961e-11
218	0x2e82339e	5.9208846e-11
219	0x2eaff928	8.002338e-11
220	0x2f173b05	1.3754338e-10
221	0x2f236283	1.4859762e-10
222	0x2f42efaf	1.772935e-10
223	0x2f5054e7	1.8947653e-10
224	0x2f4ff84b	1.8914752e-10
225	0x2f42d7d7	1.7720879e-10
226	0x2f467c0b	1.8052064e-10
227	0x2f43aee5	1.7797282e-10
228	0x2f447a68	1.7869584e-10
229	0x2f3494c8	1.6423762e-10
230	0x2f1bf510	1.4184232e-10
231	0x2edeb57b	1.01276286e-10
232	0x2e709e1e	5.471012e-11
233	0x2dbbd271	2.1352893e-11
234	0x2c734637	3.4571354e-12
235	0x2aea3dc6	4.1609614e-13
236	0x2ac98d43	3.5802792e-13
237	0x2c65b0a5	3.2640915e-12
238	0x2da2051d	1.8419538e-11
239	0x2e4eed12	4.7049538e-11
240	0x2eb9d99c	8.451481e-11
241	0x2ed2edb4	9.591919e-11
242	0x2ef6fb35	1.1231408e-10
243	0x2ed4987a	9.667729e-11
244	0x2e9663a9	6.8389135e-11
245	0x2dcaea67	2.3068837e-11
246	0x2cf28078	6.8923166e-12
247	0x2d11194a	8.247911e-12
248	0x2db6d102	2.0783823e-11
249	0x2ef0e2f2	1.095425e-10
250	0x2fc944b8	3.6610515e-10
251	0x303e541e	6.9241135e-10
252	0x309ea02a	1.1541534e-09
253	0x30ecc458	1.7227064e-09
254	0x310f95ba	2.0894348e-09
255	0x31217d7a	2.3499909e-09

loss f8 []
0	0x405879ea29a01193	97.90491715079979
