weights/e130.pth (torch, 788191 bytes, 4 tensors)

weights f4 [1, 1, 256, 256]
5.753841 5.6422944 5.656714 5.806583 5.796836 5.7791643 5.3937078 5.435559
4.646705 4.961361 4.6155486 5.1495814 5.349341 5.330086 5.3131647 5.336573
5.3087354 5.143282 5.0085297 4.6025953 3.015718 2.7959607 4.518689 5.146573
5.4935145 5.4905357 5.408458 5.3864393 5.458855 5.548609 5.4942474 5.3866105
5.5407515 5.596666 5.491134 5.452441 5.444119 5.2191753 5.1133084 4.981525
4.6675725 3.728825 3.07891 2.0029585 2.0308495 3.2313554 4.190492 4.4695377
4.746553 4.403984 4.2655344 4.1120253 4.1124616 4.0702686 3.8653066 3.497059
2.9015083 1.9510999 2.329639 2.4764516 2.4375486 2.2561193 1.999622 2.3641756
2.4033363 2.3533623 2.181335 1.8596925 1.9723476 1.8583087 1.5179594 1.4921377
2.2140877 3.4787893 4.475483 4.86894 5.1453815 5.1335855 5.6585727 5.1643987
5.3709826 5.472828 5.3797393 5.507875 5.436614 5.6396666 5.3073177 5.362621
5.128331 4.9057164 4.640603 3.5677156 3.198076 4.146355 4.767444 4.768644
4.8637853 4.9187727 4.715229 4.353273 3.9447656 3.9712055 4.2962804 4.5091386
4.7451725 4.7475495 4.5361285 4.1716957 3.592903 4.097168 4.700586 4.79141
4.945697 5.320467 5.236916 5.4522643 5.429763 5.1870513 5.3939996 5.308903
5.0452046 5.0776877 5.050719 4.4665523 4.018556 2.5637047 2.4563766 2.1609774
1.6017543 2.1623807 2.457876 2.560659 3.9547746 4.464731 5.0232344 5.010968
5.3309007 5.158505 5.3676085 5.338654 5.40789 5.3850803 5.1975355 5.234101
4.9282556 4.8759985 4.6618004 4.261246 3.584155 4.1605616 4.5383515 4.6513534
4.7673635 4.613159 4.367711 3.9140666 4.0473313 4.4966846 4.8697443 4.7511673
4.887509 4.8546762 4.703801 4.1211185 3.2133846 3.5807264 4.651552 5.0534077
5.3651514 5.326603 5.2731586 5.465017 5.276174 5.499163 5.5834265 5.543569
5.4271693 5.3435144 5.4159503 5.2258596 5.103181 4.866208 4.397168 3.4307427
2.2140877 1.492139 1.5179636 1.8583293 1.9723632 1.8596889 2.181537 2.353324
2.4036648 2.3641822 1.9996512 2.2561414 2.4376922 2.4759402 2.329105 1.9511023
2.8952339 3.472633 3.8540576 4.05729 4.0685205 4.157254 4.2886543 4.4671464
4.649096 4.3266673 4.0933824 3.2328737 2.0308444 2.0029695 3.070786 3.7711315
4.7158074 5.0570583 5.1741543 5.256595 5.415613 5.2083144 5.4713974 5.3881187
5.365153 5.3280635 5.344521 5.481872 5.393982 5.5008025 5.33875 5.3890243
5.309418 5.117578 4.5219207 2.7960165 3.0134382 4.655034 5.179686 5.176018
5.344067 5.4711976 5.420058 5.364025 5.4413404 5.2244563 4.6365414 4.8073587
4.599514 5.457647 5.4591384 5.7550645 5.6930885 5.7513995 5.6703324 5.615174
00000000: 771f b840 ad8d b440 cd03 b540 87cf b940
00000010: ae7f b940 eaee b840 4199 ac40 19f0 ad40
00000020: cfb1 9440 78c3 9e40 93b2 9340 5fc9 a440
00000030: cd2d ab40 1190 aa40 7205 aa40 35c5 aa40
00000040: 29e1 a940 c495 a440 e045 a040 7648 9340
00000050: 8601 4140 05f1 3240 1a99 9040 bab0 a440
00000060: dfca af40 78b2 af40 1712 ad40 b65d ac40
00000070: f1ae ae40 348e b140 e0d0 af40 1d5f ac40
00000080: d64d b140 e317 b340 5fb7 af40 667a ae40
00000090: 3936 ae40 7c03 a740 39a0 a340 a768 9f40
000000a0: c15c 9540 12a5 6e40 dd0c 4540 7930 0040
000000b0: 70f9 0140 87ce 4e40 8318 8640 7406 8f40
000000c0: c3e3 9740 70ed 8c40 427f 8840 b695 8340
000000d0: 4999 8340 a43f 8240 2f61 7740 d1cf 5f40
000000e0: 50b2 3940 a4bd f93f ce18 1540 2f7e 1e40
000000f0: cc00 1c40 4264 1040 9df3 ff3f a74e 1740
00000100: 43d0 1940 7d9d 1640 fe9a 0b40 670a ee3f
00000110: e375 fc3f 0fdd ed3f 7e4c c23f 5efe be3f
00000120: 9db3 0d40 7ca4 5e40 2837 8f40 5bce 9b40
00000130: f7a6 a440 5546 a440 0713 b540 c142 a540
00000140: 17df ab40 6821 af40 d326 ac40 8340 b040
00000150: bef8 ad40 2678 b440 8cd5 a940 979a ab40
00000160: 4a1b a440 a1fb 9c40 d27f 9440 7455 6440
00000170: 47ad 4c40 f1ae 8440 e78e 9840 bb98 9840
00000180: 21a4 9b40 9666 9d40 28e3 9640 034e 8b40
00000190: 0a77 7c40 3b28 7e40 217b 8940 dd4a 9040
000001a0: 74d8 9740 edeb 9740 f727 9140 887e 8540
000001b0: 1ff2 6540 001c 8340 336b 9640 3b53 9940
000001c0: 2643 9e40 4441 aa40 d194 a740 f378 ae40
000001d0: 9ec0 ad40 53fc a540 a59b ac40 89e2 a940
000001e0: 5172 a140 6b7c a240 7d9f a140 ffed 8e40
000001f0: 0398 8040 bd13 2440 4635 1d40 744d 0a40
00000200: 4906 cd3f 7264 0a40 d74d 1d40 d6e1 2340
00000210: 071b 7d40 14df 8e40 56be a040 da59 a040
00000220: bd96 aa40 7912 a540 73c3 ab40 41d6 aa40
00000230: 6f0d ad40 9452 ac40 3652 a640 c17d a740
00000240: 45b4 9d40 2e08 9c40 782d 9540 215c 8840
00000250: cc62 6540 5223 8540 2d3a 9140 e3d7 9440
00000260: 3e8e 9840 009f 9340 4ac4 8b40 1180 7a40
00000270: bd83 8140 d7e4 8f40 f2d4 9b40 9009 9840
00000280: 7966 9c40 8259 9b40 8a85 9640 34e0 8340
00000290: 18a8 4d40 9f2a 6540 84d9 9440 84b5 a140
000002a0: 52af ab40 8873 aa40 b7bd a840 6be1 ae40
000002b0: 6bd6 a840 25f9 af40 6eab b240 eb64 b140
000002c0: 5fab ad40 12fe aa40 774f ad40 3e3a a740
000002d0: 424d a340 fab7 9b40 9ab5 8c40 4a91 5b40
000002e0: 9db3 0d40 69fe be3f a24c c23f bcdd ed3f
000002f0: 6676 fc3f 490a ee3f 4d9e 0b40 dc9c 1640
00000300: a5d5 1940 c34e 1740 92f4 ff3f 9f64 1040
00000310: 2603 1c40 ce75 1e40 0e10 1540 b8bd f93f
00000320: 834b 3940 9e3f 5e40 e1a8 7640 52d5 8140
00000330: 5231 8240 3a08 8540 a83c 8940 ddf2 8e40
00000340: 65c5 9440 0f74 8a40 fdfc 8240 67e7 4e40
00000350: 5bf9 0140 a730 0040 c287 4440 385a 7140
00000360: e5e7 9640 6cd3 a140 ac92 a540 0736 a840
00000370: b44c ad40 83aa a640 b015 af40 786b ac40
00000380: 55af ab40 7f7f aa40 5106 ab40 7f6b af40
00000390: 809b ac40 9306 b040 0ad7 aa40 e372 ac40
000003a0: c1e6 a940 33c3 a340 93b3 9040 eff1 3240
000003b0: 2cdc 4040 0af6 9440 fdbf a540 f1a1 a540
000003c0: 9902 ab40 0d14 af40 1d71 ad40 18a6 ab40
000003d0: 761f ae40 bf2e a740 8c5e 9440 e2d5 9940
000003e0: 382f 9340 0ba5 ae40 43b1 ae40 7d29 b840
000003f0: c82d b640 770b b840 5d73 b540 81af b340

exp_avg f4 [1, 1, 256, 256]
-4.5495693e-05 -4.882678e-05 -4.61821e-05 -4.1524876e-05 -3.3888122e-05 -2.6054144e-05 -1.8383278e-05 -9.802095e-06
-3.0575866e-06 -1.5883427e-06 -1.5402186e-06 -4.009089e-06 -7.4803665e-06 -8.8344095e-06 -1.02242975e-05 -9.210371e-06
-8.5866595e-06 -6.0223347e-06 -3.912056e-06 -1.1245374e-06 -4.5885763e-08 8.658986e-08 -1.0631138e-06 -3.972578e-06
-6.193293e-06 -8.943463e-06 -1.1123482e-05 -1.228059e-05 -1.2364297e-05 -1.2371858e-05 -1.2345099e-05 -1.18324015e-05
-1.2023241e-05 -1.2554436e-05 -1.2231236e-05 -1.080118e-05 -1.0101401e-05 -8.025699e-06 -6.273575e-06 -4.065326e-06
-2.0109812e-06 -3.1663282e-07 -5.7501563e-08 -2.0665254e-08 -9.209954e-09 1.8399872e-08 -5.235167e-07 -9.041503e-07
-1.3023719e-06 -1.3880966e-06 -9.881873e-07 -6.153617e-07 -6.7417056e-07 -3.5819306e-07 -1.01255054e-07 1.5177385e-08
-1.46252965e-08 1.8360345e-07 2.9979365e-08 -5.6660596e-08 -3.143345e-08 1.7717102e-07 3.9926675e-08 1.7855683e-08
2.9511424e-08 2.8704957e-08 2.3966743e-08 3.0574423e-08 -1.0197176e-09 -9.821902e-08 1.1337621e-07 -1.4998744e-08
-4.8387854e-09 5.8303037e-08 -9.868749e-07 -2.851652e-06 -5.5337296e-06 -8.2081715e-06 -1.0235285e-05 -1.177282e-05
-1.3622763e-05 -1.5102654e-05 -1.715917e-05 -1.6022139e-05 -1.6739075e-05 -1.4332552e-05 -1.2011028e-05 -9.59188e-06
-7.5828398e-06 -4.322644e-06 -1.5419492e-06 -1.09679476e-07 -2.838442e-07 -5.7715175e-07 -1.8632301e-06 -2.32077e-06
-2.9830474e-06 -3.031437e-06 -3.1718732e-06 -2.049436e-06 -1.2664575e-06 -7.715931e-07 -1.0453989e-06 -2.1709627e-06
-2.6640275e-06 -1.974196e-06 -1.7853911e-06 -9.2048856e-07 -3.9683974e-07 -1.4058294e-06 -2.289493e-06 -4.484932e-06
-6.4685637e-06 -8.37854e-06 -1.4729524e-05 -1.6057253e-05 -2.078143e-05 -2.2567796e-05 -2.2478529e-05 -2.0784899e-05
-1.5776646e-05 -1.3481746e-05 -8.616376e-06 -3.835711e-06 -2.6705507e-06 5.8398996e-07 -7.0534816e-07 3.591038e-07
5.9051786e-10 3.9316308e-07 -6.8324164e-07 5.4558654e-07 -3.184787e-06 -3.8494927e-06 -8.8021925e-06 -1.3965797e-05
-1.3561971e-05 -2.1657714e-05 -2.2626102e-05 -2.1888383e-05 -2.0862482e-05 -1.6332322e-05 -1.4860101e-05 -8.643337e-06
-6.527884e-06 -4.22544e-06 -2.4063968e-06 -9.3785684e-07 -4.2030962e-07 -9.491323e-07 -1.7796964e-06 -2.2303245e-06
-2.609859e-06 -1.8915879e-06 -8.411006e-07 -9.160549e-07 -1.0017804e-06 -1.6759027e-06 -2.8098584e-06 -3.4275467e-06
-2.930341e-06 -2.1081885e-06 -2.0049115e-06 -6.3874256e-07 -2.5072055e-07 -8.043233e-08 -1.518433e-06 -3.987585e-06
-7.0815636e-06 -9.669402e-06 -1.2082077e-05 -1.4729189e-05 -1.708757e-05 -1.6042013e-05 -1.67386e-05 -1.4955427e-05
-1.3502318e-05 -1.1403042e-05 -1.0721062e-05 -8.008345e-06 -5.6194344e-06 -2.8575205e-06 -1.1428072e-06 -4.607844e-08
-4.8387854e-09 -1.4996008e-08 1.13386e-07 -9.8176514e-08 -9.858283e-10 3.0567605e-08 2.4378688e-08 2.8624068e-08
3.021341e-08 1.786847e-08 3.998538e-08 1.772172e-07 -3.115757e-08 -5.7676292e-08 2.9019553e-08 1.8360853e-07
-2.6371449e-08 -3.2691197e-08 -1.2334257e-07 -3.833872e-07 -7.5889e-07 -5.308869e-07 -9.429597e-07 -1.2615144e-06
-1.4799989e-06 -1.1733499e-06 -6.973464e-07 2.1274555e-08 -9.21915e-09 -2.0643919e-08 -7.195734e-08 -2.328736e-07
-1.921218e-06 -3.928263e-06 -6.1489372e-06 -7.960187e-06 -1.0153272e-05 -1.1225868e-05 -1.2265502e-05 -1.2943674e-05
-1.2333242e-05 -1.1933696e-05 -1.2619956e-05 -1.2482986e-05 -1.2485246e-05 -1.2083087e-05 -1.1247017e-05 -9.114546e-06
-6.5323684e-06 -4.0204204e-06 -1.0572952e-06 8.670113e-08 -4.9873993e-08 -1.0363923e-06 -3.6201413e-06 -5.966863e-06
-8.523726e-06 -8.972018e-06 -1.0031215e-05 -8.770055e-06 -7.3096676e-06 -3.881318e-06 -1.5015893e-06 -1.8544906e-06
-3.140157e-06 -9.765521e-06 -1.8259168e-05 -2.6096517e-05 -3.4060868e-05 -4.1621253e-05 -4.6158188e-05 -4.8870803e-05
00000000: a1d2 3eb8 5bcb 4cb8 a7b3 41b8 ff2a 2eb8
00000010: 1823 0eb8 d98e dab7 ca35 9ab7 ad73 24b7
00000020: f030 4db6 0a2f d5b5 82b9 ceb5 d085 86b6
00000030: dcff fab6 8037 14b7 0689 2bb7 3e86 1ab7
00000040: 6c0f 10b7 7613 cab6 4e44 83b6 d0ee 96b5
00000050: ee13 45b3 47f3 b933 50b0 8eb5 2f4c 85b6
00000060: fbcf cfb6 e20b 16b7 fe9e 3ab7 bc08 4eb7
00000070: 4070 4fb7 ba90 4fb7 cc1d 4fb7 c783 46b7
00000080: 6db7 49b7 e4a0 52b7 c234 4db7 b736 35b7
00000090: 3079 29b7 1da6 06b7 9981 d2b6 e268 88b6
000000a0: 65f4 06b6 affd a9b4 a3f7 76b3 6083 b1b2
000000b0: ce39 1eb2 bf0d 9e32 cb87 0cb5 bcb4 72b5
000000c0: 28cd aeb5 a34e bab5 dba1 84b5 562f 25b5
000000d0: a6f8 34b5 ae4d c0b4 8e71 d9b3 6c5f 8232
000000e0: bc42 7bb2 8824 4534 a9c2 0033 fc5a 73b3
000000f0: 7201 07b3 663c 3e34 d87b 2b33 1061 9932
00000100: 4f80 fd32 de92 f632 6ddf cd32 ef50 0333
00000110: 2026 8cb0 7aec d2b3 3b79 f333 96d6 80b2
00000120: 6842 a6b1 de68 7a33 c374 84b5 025f 3fb6
00000130: 60ae b9b6 d4b5 09b7 37b8 2bb7 e083 45b7
00000140: 528d 64b7 6861 7db7 09f1 8fb7 4867 86b7
00000150: e46a 8cb7 d875 70b7 f982 49b7 d0ec 20b7
00000160: 1970 feb6 3b0b 91b6 f9f4 ceb5 ee88 ebb3
00000170: 4063 98b4 91ed 1ab5 1914 fab5 86be 1bb6
00000180: 5d30 48b6 b16f 4bb6 5edc 54b6 0b89 09b6
00000190: 26fb a9b5 791f 4fb5 a24f 8cb5 dbb0 11b6
000001a0: a5c7 32b6 6e7c 04b6 92a1 efb5 7e17 77b5
000001b0: 3d0d d5b4 eeaf bcb5 31a5 19b6 467d 96b6
000001c0: 8a0c d9b6 8e91 0cb7 d31e 77b7 b0b2 86b7
000001d0: c853 aeb7 f94f bdb7 4690 bcb7 3b5b aeb7
000001e0: 1758 84b7 a82f 62b7 0e8f 10b7 82b4 80b6
000001f0: b637 33b6 7cc3 1c35 2857 3db5 daca c034
00000200: 0052 2230 ec13 d334 0268 37b5 6c74 1235
00000210: 39ba 55b6 e42a 81b6 21ad 13b7 a44e 6ab7
00000220: 3988 63b7 96ad b5b7 2fcd bdb7 f29c b7b7
00000230: d701 afb7 6501 89b7 a64f 79b7 da02 11b7
00000240: 190a dbb6 41c8 8db6 957d 21b6 08c1 7bb5
00000250: eaa6 e1b4 e0c7 7eb5 e7dd eeb5 afac 15b6
00000260: 0925 2fb6 77e2 fdb5 fec7 61b5 d0e6 75b5
00000270: ea74 86b5 94ef e0b5 0091 3cb6 ce04 66b6
00000280: e0a6 44b6 677a 0db6 1e8c 06b6 0e76 2bb5
00000290: c59a 86b4 24ba acb3 f6cc cbb5 18cd 85b6
000002a0: 2b9e edb6 c439 22b7 20b4 4ab7 631d 77b7
000002b0: 4757 8fb7 f691 86b7 df69 8cb7 12e9 7ab7
000002c0: 0488 62b7 b14f 3fb7 9cde 33b7 945b 06b7
000002d0: 938e bcb6 d4c3 3fb6 8e62 99b5 c8e7 45b3
000002e0: 6842 a6b1 92d0 80b2 9d7e f333 1cd5 d2b3
000002f0: c07d 87b0 7049 0333 4d69 d132 fee0 f532
00000300: ffc3 0133 2e7d 9932 64bc 2b33 1849 3e34
00000310: 1cd2 05b3 c1b7 77b3 ac46 f932 ee25 4534
00000320: 6e87 e2b2 5a68 0cb3 2670 04b4 56d4 cdb4
00000330: 86b6 4bb5 4582 0eb5 b21f 7db5 4e51 a9b5
00000340: 60a4 c6b5 ff7b 9db5 4831 3bb5 3ebf b632
00000350: 4062 1eb2 7554 b1b2 f786 9ab3 cf0b 7ab4
00000360: 46ee 00b6 86cf 83b6 f852 ceb6 be8c 05b7
00000370: f957 2ab7 bc56 3cb7 eec7 4db7 a828 59b7
00000380: dfea 4eb7 d636 48b7 4cba 53b7 046e 51b7
00000390: b977 51b7 77b8 4ab7 92b1 3cb7 adea 18b7
000003a0: 9e30 dbb6 26e7 86b6 63e8 8db5 7330 ba33
000003b0: 0935 56b3 2b1a 8bb5 8ef1 72b6 f636 c8b6
000003c0: 2001 0fb7 8686 16b7 be4b 28b7 1923 13b7
000003d0: 9145 f5b6 453c 82b6 378a c9b5 d0e7 f8b5
000003e0: 7dbb 52b6 98d6 23b7 442b 99b7 d8e9 dab7
000003f0: 94dc 0eb8 7b92 2eb8 fa99 41b8 a0fa 4cb8

exp_avg_sq f4 [1, 1, 256, 256]
1.8886723e-09 2.3736266e-09 2.1142086e-09 1.7340928e-09 1.1557685e-09 6.9584105e-10 3.724041e-10 1.1008285e-10
1.995939e-11 6.6639524e-12 6.7487283e-12 2.355365e-11 7.016608e-11 9.697816e-11 1.1549953e-10 9.94397e-11
8.4788905e-11 4.7154895e-11 2.0141593e-11 3.302569e-12 3.2558556e-13 4.0525355e-13 3.2291242e-12 2.0390594e-11
4.9506173e-11 9.74835e-11 1.3920258e-10 1.6899311e-10 1.7645813e-10 1.7639282e-10 1.7434075e-10 1.7616114e-10
1.8238026e-10 1.8084328e-10 1.7674344e-10 1.3946695e-10 1.3632484e-10 8.0545716e-11 6.042572e-11 2.5782742e-11
1.0584675e-11 3.3447294e-12 9.517125e-13 3.249942e-13 4.880716e-13 9.730074e-13 2.248923e-12 4.3660505e-12
5.732346e-12 7.568041e-12 6.7694197e-12 5.022974e-12 4.410347e-12 3.0499605e-12 1.8602264e-12 9.809856e-13
6.882395e-13 8.6679833e-13 4.9730917e-13 4.8963925e-13 5.2908773e-13 6.9929175e-13 7.836711e-13 5.386652e-13
4.1644693e-13 3.3350726e-13 4.3309076e-13 4.935818e-13 3.5986123e-13 3.0876812e-13 2.5363487e-13 2.7974977e-13
3.010487e-13 8.8528794e-13 3.5789854e-12 1.5037756e-11 4.66767e-11 8.4170504e-11 1.3676808e-10 1.842633e-10
2.4366198e-10 2.7252378e-10 3.3255973e-10 3.268553e-10 3.2066602e-10 2.446768e-10 1.8919408e-10 1.1981141e-10
7.3084e-11 2.5732508e-11 5.730492e-12 1.7397646e-12 2.2308147e-12 3.8889746e-12 8.615908e-12 1.2331005e-11
1.4696465e-11 1.5818322e-11 1.4788377e-11 1.054677e-11 6.602535e-12 5.68752e-12 7.5763085e-12 1.1289595e-11
1.247001e-11 9.894951e-12 7.728919e-12 4.837031e-12 3.5661426e-12 6.0982656e-12 1.3024447e-11 3.449726e-11
7.867098e-11 1.1344966e-10 2.4868632e-10 3.6753767e-10 4.783817e-10 6.2664035e-10 5.8629285e-10 5.3020643e-10
3.82246e-10 2.6143973e-10 1.3821791e-10 6.6093575e-11 6.167046e-11 9.204099e-11 1.4355526e-10 2.3889482e-10
3.8059433e-10 2.375862e-10 1.433355e-10 9.2352875e-11 6.586504e-11 6.623993e-11 1.4198742e-10 2.7527386e-10
3.1309302e-10 5.678499e-10 5.926763e-10 5.963713e-10 4.815855e-10 3.7695325e-10 2.5245428e-10 1.1836179e-10
7.952174e-11 3.1943167e-11 1.3715753e-11 4.540953e-12 3.6162787e-12 4.924335e-12 7.7044785e-12 1.1154337e-11
1.2147291e-11 9.929538e-12 6.8729714e-12 6.0543215e-12 5.871413e-12 8.763068e-12 1.2362479e-11 1.8734977e-11
1.4366076e-11 1.11970615e-11 9.280067e-12 4.0314744e-12 2.1752138e-12 1.6919346e-12 5.6393622e-12 2.2798591e-11
6.555543e-11 1.2128774e-10 1.909311e-10 2.5572686e-10 3.3199135e-10 3.2747546e-10 3.1905886e-10 2.6801958e-10
2.4035443e-10 1.7556247e-10 1.4727285e-10 8.1025166e-11 4.7714194e-11 1.5075472e-11 3.99947e-12 1.0500244e-12
3.0102315e-13 2.7788427e-13 2.5209386e-13 3.050142e-13 3.5568597e-13 4.951927e-13 4.1914446e-13 3.3608305e-13
3.9484548e-13 5.384246e-13 7.814237e-13 6.988699e-13 5.23521e-13 5.045162e-13 5.058197e-13 8.6667685e-13
7.1137513e-13 1.0475306e-12 1.8929329e-12 3.0993277e-12 4.6163845e-12 4.8301957e-12 6.6273233e-12 7.1250566e-12
6.361588e-12 5.243228e-12 2.58845e-12 9.683586e-13 4.8960293e-13 3.2991727e-13 9.764127e-13 3.2105022e-12
1.0159741e-11 2.4621527e-11 5.877529e-11 7.947359e-11 1.374291e-10 1.4892348e-10 1.7760328e-10 1.902714e-10
1.902418e-10 1.7858008e-10 1.8079041e-10 1.7912773e-10 1.793295e-10 1.6436556e-10 1.419236e-10 1.0075245e-10
5.3963833e-11 2.0797305e-11 3.2120968e-12 4.048477e-13 3.3665892e-13 3.0484998e-12 1.7852084e-11 4.6454972e-11
8.372836e-11 9.526808e-11 1.1157284e-10 9.5862956e-11 6.7554e-11 2.2478701e-11 6.5952556e-12 7.852845e-12
2.0516188e-11 1.0940617e-10 3.681201e-10 6.979572e-10 1.1668149e-09 1.7420294e-09 2.1121318e-09 2.377741e-09
00000000: e0c9 0131 481d 2331 8d49 1131 f754 ee30
00000010: fdd8 9e30 7645 3f30 38bb cc2f 2313 f22e
00000020: 8d90 af2d 8c77 ea2c 2473 ed2c 1b2e cf2d
00000030: fe4b 9a2e da41 d52e 74fc fd2e 93ab da2e
00000040: e973 ba2e b163 4f2e d62a b12d cb65 682c
00000050: d349 b72a 3123 e42a bb3a 632c 895b b32d
00000060: ffba 592e 555e d62e 0b0e 192f 55cf 392f
00000070: 8c04 422f 2af2 412f 8fb0 3f2f f4b0 412f
00000080: 7b87 482f dcd6 462f db54 422f 7558 192f
00000090: 08e4 152f 351f b12e a8e0 842e 93c9 e22d
000000a0: 2335 3a2d 4a5d 6b2c 0ef1 852b 9af4 b62a
000000b0: 4461 092b 49f0 882b ff40 1e2c e39d 992c
000000c0: 62b0 c92c 6d23 052d 832d ee2c edba b02c
000000d0: e02c 9b2c 349f 562c dce6 022c bb0f 8a2b
000000e0: e2b8 412b 67fb 732b e7fa 0b2b 3ad2 092b
000000f0: caec 142b 48d5 442b 7495 5c2b eb9e 172b
00000100: 5470 ea2a 76bf bb2a f5ce f32a 51ee 0a2b
00000110: 7895 ca2a 2dd2 ad2a a3c8 8e2a 317c 9d2a
00000120: b179 a92a b82f 792b 45d9 7b2c 0446 842d
00000130: 4b49 4d2e c817 b92e cb60 162f 8299 4a2f
00000140: 60f4 852f 50d2 952f 9fd3 b62f cbb0 b32f
00000150: bb49 b02f 3383 862f 6605 502f eabb 032f
00000160: a2b6 a02e 7558 e22d af9f c92c a0d9 f42b
00000170: c9fa 1c2c c5d4 882c 9a92 172d e9ed 582d
00000180: 7f45 812d b223 8b2d 7714 822d 6e8a 392d
00000190: 594e e82c a01c c82c a948 052d d19b 462d
000001a0: ef5f 5b2d e612 2e2d f5f7 072d 1a30 aa2c
000001b0: eaf1 7a2c 4b90 d62c e520 652d 76b8 172e
000001c0: d3ff ac2e 7b7a f92e 7db7 882f 540e ca2f
000001d0: 1f7f 0330 e53f 2c30 b128 2130 f6bd 1130
000001e0: 5824 d22f 5fba 8f2f e2f8 172f 6057 912e
000001f0: 629d 872e 7966 ca2e 37d7 1d2f 7555 832f
00000200: e43b d12f 499d 822f 5b99 1d2f 0c16 cb2e
00000210: b9d6 902e c4a9 912e e81d 1c2f 5a55 972f
00000220: ed1f ac2f e216 1c30 e3e9 2230 e6ed 2330
00000230: 9160 0430 743b cf2f c8c9 8a2f e223 022f
00000240: c3de ae2e cf7c 0c2e 434a 712d 45c5 9f2c
00000250: 1679 7e2c 7742 ad2c e389 072d ab3a 442d
00000260: 89b2 552d aaae 2e2d 39d2 f12c 7b04 d52c
00000270: fd94 ce2c 5a29 1a2d a87b 592d 6bcb a42d
00000280: 0ebb 7c2d 15fb 442d b541 232d 4bd8 8d2c
00000290: 2b11 192c 5e1e ee2b dc6a c62c dd89 c82d
000002a0: 6d28 902e 775b 052f 54ee 512f 5b96 8c2f
000002b0: a183 b62f 1308 b42f 8b67 af2f 6758 932f
000002c0: e122 842f 7108 412f 9fed 212f 1d2d b22e
000002d0: 68d9 512e f29a 842d 06b8 8c2c 1ec7 932b
000002e0: 0276 a92a 586f 9c2a 8eea 8d2a 2eb5 ab2a
000002f0: c03b c82a 6562 0b2b 15f5 eb2a ac32 bd2a
00000300: 3b47 de2a 958d 172b 83f3 5b2b e2b6 442b
00000310: aa5b 132b 3902 0e2b 2760 0e2b a6f2 732b
00000320: fb3b 482b 446d 932b 0c34 052c 8618 5a2c
00000330: b26c a22c 89f2 a92c 9f2d e92c ceb0 fa2c
00000340: 17d4 df2c cd7a b82c 5f25 362c cc48 882b
00000350: 9ccf 092b 17ba b92a fa6a 892b 44eb 612c
00000360: 68bb 322d c092 d82d 8c3f 812e a7c3 ae2e
00000370: da1a 172f 3cbe 232f e146 432f a334 512f
00000380: 4e2c 512f d359 442f fac7 462f f9f3 442f
00000390: c42c 452f cbb8 342f f10b 1c2f 968e dd2e
000003a0: e055 6d2e 5eef b62d fe07 622c b4e8 e32a
000003b0: aa85 bd2a e484 562c 5207 9d2d a64f 4c2e
000003c0: e01e b82e 297f d12e ed59 f52e 0cce d22e
000003d0: 858d 942e 89b9 c52d c80c e82c 1226 0a2d
000003e0: 5976 b42d 3396 f02e 4c60 ca2f 5fda 3f30
000003f0: a65d a030 366c ef30 0425 1131 a965 2331

loss f8 []
114.83902596181866
00000000: 64a0 f299 b2b5 5c40
