weights/e140.pth (torch, 788191 bytes, 4 tensors)

weights f4 [1, 1, 256, 256]
00000000: 185e b840 0dcd b440 bc42 b540 b30e ba40
00000010: 90be b940 0b2d b940 29d6 ac40 aa2a ae40
00000020: eedc 9440 26f2 9e40 a5dd 9340 c1fe a440
00000030: 0868 ab40 e1ca aa40 8840 aa40 fbff aa40
00000040: 6c1b aa40 5bce a440 da7b a040 5070 9340
00000050: 5003 4140 77f1 3240 81c0 9040 2ee8 a440
00000060: 4604 b040 0cee af40 014e ad40 dd99 ac40
00000070: 59ea ae40 73c9 b140 250b b040 f498 ac40
00000080: 9587 b140 0552 b340 2ff2 af40 cdb4 ae40
00000090: a870 ae40 263c a740 e2d6 a340 919a 9f40
000000a0: 8582 9540 6abc 6e40 910f 4540 5231 0040
000000b0: 11fb 0140 3fd7 4e40 d22b 8640 d424 8f40
000000c0: 1606 9840 6f0c 8d40 909c 8840 79aa 8340
000000d0: b5ae 8340 9551 8240 037a 7740 b4dc 5f40
000000e0: 15b9 3940 a0bd f93f 7a1b 1540 4c7e 1e40
000000f0: 76ff 1b40 3062 1040 e8f0 ff3f 5f4e 1740
00000100: 4ecf 1940 479c 1640 6c9c 0b40 d40b ee3f
00000110: cd7b fc3f dbdf ed3f 4b4a c23f d1fd be3f
00000120: beb1 0d40 c5ab 5e40 fe53 8f40 7cfd 9b40
00000130: 0edd a440 b07d a440 7d4b b540 8c7b a540
00000140: 8118 ac40 205b af40 7861 ac40 517a b040
00000150: 4c33 ae40 0eb2 b440 d90f aa40 40d4 ab40
00000160: a453 a440 8c2e 9d40 06a8 9440 8d69 6440
00000170: 9eb6 4c40 85c4 8440 50b7 9840 2fc3 9840
00000180: 16d2 9b40 6897 9d40 d912 9740 ea77 8b40
00000190: 01a5 7c40 e647 7e40 e497 8940 9972 9040
000001a0: 2905 9840 3610 9840 864c 9140 7093 8540
000001b0: a405 6640 d83c 8340 0c95 9640 5282 9940
000001c0: 5675 9e40 7475 aa40 f9cd a740 74b1 ae40
000001d0: cbfb ad40 4537 a640 9ad5 ac40 431c aa40
000001e0: 0fa8 a140 03b1 a240 35cf a140 860b 8f40
000001f0: b9a7 8040 6915 2440 9938 1d40 ff4f 0a40
00000200: 540b cd3f bb66 0a40 f450 1d40 03e4 2340
00000210: bc41 7d40 b3fc 8e40 63ee a040 dc8e a040
00000220: 9fca aa40 834c a540 72fd ab40 fa10 ab40
00000230: a448 ad40 518b ac40 778b a640 5fb2 a740
00000240: 98e6 9d40 2d36 9c40 2c58 9540 3874 8840
00000250: c977 6540 ee38 8540 a45e 9140 09ff 9440
00000260: 93ba 9840 e3c3 9340 cadd 8b40 26a6 7a40
00000270: 2795 8140 060b 9040 3902 9c40 353c 9840
00000280: 0794 9c40 1a82 9b40 60af 9640 3ef7 8340
00000290: b9ae 4d40 423c 6540 6a01 9540 05e7 a140
000002a0: e9e6 ab40 42ad aa40 14f8 a840 8f1b af40
000002b0: 2d11 a940 f632 b040 e1e5 b240 849e b140
000002c0: b2e4 ad40 8336 ab40 7e88 ad40 5171 a740
000002d0: 8483 a340 2ce7 9b40 dfd5 8c40 40a4 5b40
000002e0: beb1 0d40 e1fd be3f 6b4a c23f 88e0 ed3f
000002f0: 4a7c fc3f b40b ee3f ad9f 0b40 af9b 1640
00000300: 80d4 1940 7a4e 1740 daf1 ff3f 8d62 1040
00000310: c301 1c40 1976 1e40 e212 1540 b3bd f93f
00000320: ed53 3940 cf51 5e40 77c3 7640 0fe8 8140
00000330: bf48 8240 f51a 8540 2959 8940 bb0f 8f40
00000340: 6bea 9440 8a97 8a40 f715 8340 ccef 4e40
00000350: fdfa 0140 7731 0040 488c 4440 416c 7140
00000360: 940c 9740 bd04 a240 1ec9 a540 956e a840
00000370: 2e87 ad40 35e5 a640 8650 af40 d4a5 ac40
00000380: 55e9 ab40 6cb9 aa40 cf40 ab40 caa6 af40
00000390: fed6 ac40 a642 b040 0913 ab40 95ae ac40
000003a0: a020 aa40 d4fa a340 dada 9040 5df2 3240
000003b0: c0de 4040 4c1c 9540 e5f4 a540 6eda a540
000003c0: c73c ab40 994e af40 0aac ad40 d5e0 ab40
000003d0: 8759 ae40 ad63 a740 3d89 9440 b506 9a40
000003e0: f45a 9340 94df ae40 23ee ae40 a167 b840
000003f0: aa6c b640 a44a b840 4cb2 b540 e2ee b340
5.761486 5.6500306 5.6643963 5.8142943 5.804512 5.7867484 5.4011426 5.442708
4.651969 4.967059 4.620806 5.156098 5.356449 5.3372655 5.3203773 5.3437476
5.3158474 5.15019 5.0151186 4.60746 3.0158272 2.7959878 4.523499 5.1533422
5.5005217 5.4978085 5.415772 5.393782 5.466107 5.555841 5.5013604 5.393671
5.5478005 5.603762 5.4983134 5.4595704 5.451252 5.2260923 5.119981 4.987618
4.6721826 3.73025 3.079075 2.0030103 2.0309489 3.2318876 4.192849 4.4732456
4.750743 4.407768 4.2691116 4.1145597 4.1150765 4.0724587 3.866822 3.4978456
2.9019215 1.9510994 2.329802 2.4764585 2.437467 2.255993 1.9995394 2.3641584
2.4032779 2.3532884 2.1814222 1.859736 1.9725281 1.858394 1.5178922 1.4921209
2.2139735 3.479234 4.479003 4.874693 5.151984 5.1403427 5.665465 5.1713314
5.377991 5.4798737 5.386898 5.514931 5.443762 5.646735 5.3144345 5.3696594
5.13521 4.911932 4.6455107 3.5689423 3.198646 4.148989 4.772377 4.773826
4.8693953 4.924732 4.7210507 4.358388 3.947571 3.9731383 4.2997913 4.513989
4.75063 4.751979 4.5405912 4.1742477 3.5940943 4.101177 4.705694 4.7971582
4.951823 5.3268375 5.243893 5.4591618 5.4369864 5.194247 5.4010744 5.31595
5.051765 5.084108 5.056544 4.4701567 4.020474 2.5638068 2.4565794 2.1611326
1.6019082 2.1625202 2.458066 2.5607917 3.957137 4.468347 5.0291 5.017439
5.337234 5.16559 5.374688 5.3458223 5.4151173 5.3920064 5.2045245 5.240524
4.9343987 4.8816133 4.667013 4.264187 3.585436 4.1631994 4.542803 4.656132
4.772775 4.617662 4.370824 3.916391 4.049457 4.5013456 4.8752713 4.7573495
4.8930697 4.8596315 4.708908 4.123931 3.2137892 3.5818028 4.6564226 5.0594506
5.3719373 5.3336496 5.280283 5.472114 5.2833467 5.506221 5.5905614 5.5506
5.434167 5.3504043 5.4229116 5.2325826 5.109804 4.871969 4.4011073 3.4319
2.2139735 1.4921228 1.517896 1.8584146 1.972543 1.8597322 2.1816208 2.3532522
2.403595 2.3641648 1.9995682 2.256015 2.4376075 2.475958 2.3292775 1.9511017
2.8957474 3.4737432 3.8556802 4.0595775 4.07138 4.1595407 4.292134 4.47067
4.6536155 4.3309984 4.0964313 3.233386 2.030944 2.003019 3.071062 3.7722323
4.7202854 5.0630784 5.1808004 5.263499 5.4227514 5.2154794 5.4785795 5.3952427
5.372233 5.3351345 5.351661 5.48911 5.401244 5.508136 5.3460736 5.3963113
5.3164825 5.1243687 4.5267153 2.7960427 3.0135956 4.659704 5.1861444 5.182914
5.351169 5.4783444 5.427251 5.3711953 5.4484286 5.2309175 4.6417527 4.8133187
4.6048527 5.4647923 5.4665694 5.76265 5.7007647 5.7591114 5.6780148 5.6229105

exp_avg f4 [1, 1, 256, 256]
00000000: a1a0 45b8 e58a 57b8 6419 4db8 8e0b 36b8
00000010: 5dd5 18b8 9fe0 e5b7 fccc a4b7 19b5 2fb7
00000020: d11c 72b6 73d8 f9b5 b897 02b6 e3d5 96b6
00000030: 3a1c 07b7 33c9 26b7 a847 33b7 6e71 30b7
00000040: 90f5 15b7 5927 dfb6 3fe1 86b6 60d4 a8b5
00000050: 0677 6db3 c2fd 1134 d566 a6b5 3374 85b6
00000060: c7cf deb6 fb71 23b7 e373 43b7 68c6 60b7
00000070: eebb 59b7 f6b9 5cb7 fae4 4bb7 3d17 52b7
00000080: da5a 5cb7 d221 5cb7 57e4 56b7 2726 43b7
00000090: 668c 40b7 3946 12b7 4055 f8b6 6329 93b6
000000a0: 4cc1 0fb6 0dbd 15b5 6834 86b4 be81 74b3
000000b0: bcd5 10b4 5a05 8cb4 fa62 07b5 4f0b a6b5
000000c0: 9856 e3b5 3883 f7b5 82cd dfb5 2a03 2bb5
000000d0: d692 6db5 3794 59b5 07b2 15b5 419a 5c33
000000e0: ac0a 97b2 0ec2 26b4 7cf3 91b3 3a18 08b4
000000f0: 658b eab3 b6ae 1eb4 c8a8 d7b2 5b1f 2db4
00000100: b67b b5b3 1e0b e9b2 34df 20b4 1430 2cb3
00000110: faad 8d32 7e6a f1b2 ccd6 9e33 4400 0c32
00000120: 80fc 21b2 53c7 e1b3 4a00 84b5 b665 59b6
00000130: b93d d4b6 8c4f 10b7 ec45 3bb7 0dbf 55b7
00000140: bfe1 71b7 2fe9 73b7 31e8 91b7 7049 92b7
00000150: eb91 95b7 63d5 77b7 28e8 59b7 0ff1 23b7
00000160: d3ef 05b7 242e 8fb6 a23f c9b5 2d5e c833
00000170: 96b5 c234 cd47 fab4 f25c f0b5 fdf1 16b6
00000180: 8b34 38b6 0b54 3cb6 42b2 3fb6 c7cd deb5
00000190: a60a 16b5 4fe9 78b4 65b5 43b5 841f cbb5
000001a0: 2d68 06b6 9543 cdb5 35c8 a8b5 5c7f 01b5
000001b0: 0071 7db0 1865 97b5 0177 0cb6 c8ca 93b6
000001c0: 5392 e0b6 d739 19b7 e08a 72b7 8a88 97b7
000001d0: 58cd afb7 848c c5b7 a387 b5b7 2a6c aeb7
000001e0: b3c4 8ab7 1a12 67b7 d6f4 0cb7 808f 32b6
000001f0: 8ffa 89b5 d5bb 2036 f8aa 1936 b67a 2c36
00000200: 02b6 8f36 f2ca 2e36 1b31 1b36 b20e 1e36
00000210: 430e d3b5 e286 33b6 582c 10b7 2230 6fb7
00000220: 0bba 71b7 92d5 b5b7 51bf b6b7 0ccb bfb7
00000230: 1475 b0b7 58e3 99b7 fad1 74b7 6fc8 1db7
00000240: 596e e2b6 a5b4 8ab6 9cfd 13b6 bf09 34b5
00000250: 308a d2b2 dea1 09b5 9dfd a7b5 cba3 f0b5
00000260: a794 02b6 b392 a5b5 5137 10b5 a8c1 c7b4
00000270: e76b a1b4 f9f2 adb5 b124 27b6 4579 57b6
00000280: c6a6 34b6 17ea 08b6 14a5 01b6 89a5 0cb5
00000290: 61fc d434 9d0e 0334 a41f c6b5 763d 84b6
000002a0: 40ae fab6 1025 25b7 0f15 5bb7 2c23 7eb7
000002b0: 076c 98b7 e570 92b7 1285 8eb7 065c 71b7
000002c0: 0aef 6fb7 9995 4fb7 9761 43b7 90fb 0cb7
000002d0: e610 d7b6 28c7 59b6 549f 98b5 0453 5ab4
000002e0: 80fc 21b2 d410 0c32 78db 9e33 f60c f1b2
000002f0: abf3 8d32 4438 2cb3 ba73 20b4 86b3 e9b2
00000300: a401 b4b3 e81b 2db4 fe1d d7b2 78a2 1eb4
00000310: 2ff4 e9b3 ea2b 09b4 bd0c 94b3 d6c0 26b4
00000320: 385e feb2 00b1 1b31 3445 1bb5 eee3 5fb5
00000330: cdf5 81b5 f04a 14b5 7be7 d9b5 54d7 e5b5
00000340: 4cbf fab5 1205 ccb5 7bf0 37b5 0e8a 8ab4
00000350: 37d8 10b4 c76d 74b3 ccb6 8db4 f562 00b5
00000360: 819c 09b6 2e45 8eb6 226e f4b6 7219 11b7
00000370: da6c 41b7 f06e 4ab7 c477 57b7 ce2a 62b7
00000380: 1599 61b7 e0be 53b7 6b61 50b7 5697 5eb7
00000390: 949c 5bb7 d26d 5db7 997d 45b7 094a 26b7
000003a0: caff e9b6 9b12 87b6 f7a0 a5b5 3f1b 1234
000003b0: 3f89 7db3 5ece 9cb5 de05 7ab6 1138 ddb6
000003c0: e3e9 14b7 6b8a 2cb7 e1f6 2fb7 ecb5 25b7
000003d0: 992d 04b7 8178 92b6 f01d 00b6 4e9f 0fb6
000003e0: 3f9d 77b6 671e 2fb7 d7cc a3b7 263b e6b7
000003f0: 2493 19b8 0676 36b8 91ff 4cb8 fab9 57b8
-4.7118057e-05 -5.138935e-05 -4.8899456e-05 -4.3402943e-05 -3.6438334e-05 -2.7403525e-05 -1.9645777e-05 -1.0472978e-05
-3.6077583e-06 -1.8614941e-06 -1.9459821e-06 -4.495248e-06 -8.053199e-06 -9.941216e-06 -1.0685915e-05 -1.0516827e-05
-8.938267e-06 -6.6504986e-06 -4.0197333e-06 -1.2578785e-06 -5.5289114e-08 1.3596494e-07 -1.2397892e-06 -3.9772362e-06
-6.640304e-06 -9.742095e-06 -1.1649888e-05 -1.33976355e-05 -1.2977964e-05 -1.3156319e-05 -1.2153056e-05 -1.2522386e-05
-1.3134175e-05 -1.3120896e-05 -1.28085585e-05 -1.1631789e-05 -1.1476781e-05 -8.718628e-06 -7.4009004e-06 -4.3857594e-06
-2.1421174e-06 -5.578193e-07 -2.4997576e-07 -5.6928677e-08 -1.3488801e-07 -2.6080926e-07 -5.043545e-07 -1.2371255e-06
-1.693802e-06 -1.8441124e-06 -1.6674605e-06 -6.370707e-07 -8.8503054e-07 -8.105448e-07 -5.576589e-07 5.1363035e-08
-1.7583567e-08 -1.5530551e-07 -6.796378e-08 -1.26748e-07 -1.092183e-07 -1.4778456e-07 -2.5106047e-08 -1.6123288e-07
-8.450972e-08 -2.7129825e-08 -1.4982362e-07 -4.0090598e-08 1.6493676e-08 -2.810452e-08 7.39652e-08 8.149133e-09
-9.428845e-09 -1.0513636e-07 -9.83485e-07 -3.2394723e-06 -6.325278e-06 -8.60159e-06 -1.11623485e-05 -1.2740272e-05
-1.441728e-05 -1.4538221e-05 -1.739347e-05 -1.7438753e-05 -1.7830132e-05 -1.477203e-05 -1.2988261e-05 -9.771683e-06
-7.983256e-06 -4.2671036e-06 -1.4994187e-06 9.330356e-08 3.6267437e-07 -4.661837e-07 -1.7908444e-06 -2.2492598e-06
-2.744872e-06 -2.8063102e-06 -2.8564978e-06 -1.6600178e-06 -5.589485e-07 -2.3181677e-07 -7.2907125e-07 -1.5133851e-06
-2.0028194e-06 -1.5293359e-06 -1.2575243e-06 -4.8241577e-07 -9.2201446e-10 -1.1279799e-06 -2.0930895e-06 -4.4045482e-06
-6.6927546e-06 -9.1329775e-06 -1.4456658e-05 -1.8064184e-05 -2.0957246e-05 -2.3549663e-05 -2.1640042e-05 -2.0792784e-05
-1.6542477e-05 -1.37728875e-05 -8.401656e-06 -2.6607595e-06 -1.0280218e-06 2.395119e-06 2.2898294e-06 2.5701424e-06
4.2829206e-06 2.604615e-06 2.3125383e-06 2.3552388e-06 -1.5724876e-06 -2.675159e-06 -8.593393e-06 -1.4256717e-05
-1.4408036e-05 -2.1676333e-05 -2.178518e-05 -2.2863525e-05 -2.1035354e-05 -1.8344886e-05 -1.4592422e-05 -9.404596e-06
-6.748171e-06 -4.1337503e-06 -2.2052327e-06 -6.706941e-07 -2.4510058e-08 -5.1272025e-07 -1.2516281e-06 -1.7929063e-06
-1.9458037e-06 -1.2336153e-06 -5.3724676e-07 -3.7207542e-07 -3.0067096e-07 -1.2960219e-06 -2.4906296e-06 -3.2108085e-06
-2.6919165e-06 -2.0401837e-06 -1.9318586e-06 -5.239495e-07 3.9671707e-07 1.2205642e-07 -1.4761358e-06 -3.9410615e-06
-7.470866e-06 -9.843396e-06 -1.305832e-05 -1.5147769e-05 -1.8170116e-05 -1.7457127e-05 -1.6989685e-05 -1.4386145e-05
-1.4301166e-05 -1.2372992e-05 -1.1645628e-05 -8.403222e-06 -6.4094666e-06 -3.2451444e-06 -1.1371253e-06 -2.0333033e-07
-9.428845e-09 8.152899e-09 7.3973695e-08 -2.8061987e-08 1.6525368e-08 -4.0098044e-08 -1.4943262e-07 -2.7206408e-08
-8.3822016e-08 -1.6122033e-07 -2.5042933e-08 -1.4774002e-07 -1.0894325e-07 -1.2775095e-07 -6.894104e-08 -1.5530108e-07
-2.9612337e-08 2.2656081e-09 -5.7842703e-07 -8.3405655e-07 -9.682786e-07 -5.5243345e-07 -1.623513e-06 -1.7124498e-06
-1.8682126e-06 -1.520066e-06 -6.852276e-07 -2.580495e-07 -1.3489704e-07 -5.691052e-08 -2.63963e-07 -4.782772e-07
-2.0505688e-06 -4.2399834e-06 -7.284588e-06 -8.648598e-06 -1.152904e-05 -1.2065968e-05 -1.2842884e-05 -1.3480616e-05
-1.3446687e-05 -1.2621022e-05 -1.2420448e-05 -1.3267467e-05 -1.3089873e-05 -1.3198196e-05 -1.1771358e-05 -9.911609e-06
-6.973719e-06 -4.0254795e-06 -1.2340305e-06 1.3607222e-07 -5.9030977e-08 -1.1682966e-06 -3.7256318e-06 -6.5928402e-06
-8.875943e-06 -1.0284227e-05 -1.0488294e-05 -9.877123e-06 -7.87843e-06 -4.3651676e-06 -1.9090912e-06 -2.1401388e-06
-3.6897397e-06 -1.0437891e-05 -1.95265e-05 -2.744568e-05 -3.6615078e-05 -4.35021e-05 -4.8875405e-05 -5.14332e-05

exp_avg_sq f4 [1, 1, 256, 256]
00000000: 0917 0331 a75d 2531 efe0 1231 b32a f130
00000010: 2083 a030 9429 4130 dac8 cd2f 06fd f12e
00000020: b4b4 ad2d 63e2 df2c 6a8a e32c 12c9 ca2d
00000030: 96f5 982e bd54 d42e af8c fc2e 2eb2 d92e
00000040: 6afd b82e 4213 4d2e 72a2 ac2d f423 582c
00000050: 4bfc b02a f3f4 dd2a 1316 532c 1c83 ae2d
00000060: 06e6 552e 547b d52e b27c 182f 52c5 392f
00000070: 98aa 412f bd98 412f 85f9 3f2f 93c3 412f
00000080: 58bc 472f 602c 472f ed6d 422f 1507 192f
00000090: d892 152f a04d b02e a7a4 832e 7b17 e02d
000000a0: da49 362d 09d7 6a2c 6367 862b d57d b62a
000000b0: c780 0c2b 5d43 862b c7da 192c f8a6 942c
000000c0: 31be c42c f960 012d 26f3 ea2c db57 af2c
000000d0: 1a12 982c 6bcf 522c c8c0 fd2b a09e 862b
000000e0: 208f 3b2b 3c38 792b ded1 092b 2a86 0a2b
000000f0: dac5 132b c542 4f2b 5d78 5e2b 83ec 172b
00000100: 1c60 ed2a 60fd b62a d6b7 f12a 5543 0d2b
00000110: 064e cd2a bcfe ae2a f4e9 912a 1365 a32a
00000120: dddf aa2a df63 762b 5593 6f2c e2bf 7e2d
00000130: 8c10 4a2e 459d b72e b130 152f b8c4 492f
00000140: d65f 862f 1da9 962f a4a4 b72f 61f7 b32f
00000150: 4153 b02f 17a8 862f 1c61 4f2f 2df0 022f
00000160: 10a6 9e2e e923 db2d c48d bc2c 45ab f12b
00000170: 2cb6 1c2c 4c38 832c 7316 102d 2bb7 4c2d
00000180: ae89 752d 2333 852d fb74 772d d1ef 2e2d
00000190: 0dbb e72c f835 c42c 2924 fe2c 72b4 3e2d
000001a0: 04fb 502d c16a 252d 56c6 002d e45a a62c
000001b0: fd5f 792c 32e6 c42c c779 572d 7d2c 112e
000001c0: 652c a92e f6ac f52e 998e 872f 2618 c92f
000001d0: 1579 0330 e2ff 2b30 a01f 2030 c76e 1030
000001e0: f283 ce2f dae3 8b2f d341 122f fb57 882e
000001f0: 7506 812e d8ab c82e 12c5 182f ef03 7e2f
00000200: 92cd ca2f 18dd 7c2f 8e95 182f 0e30 c92e
00000210: 6435 892e bba4 882e 1749 162f 1162 932f
00000220: 73f5 a82f d9c4 1a30 08e1 2130 27a8 2330
00000230: 3b5b 0430 b144 ce2f dd9f 892f a335 002f
00000240: 8904 ab2e 033b 062e 300f 632d 30cd 922c
00000250: 125e 7c2c 0615 a92c f85e 002d 6e5a 3a2d
00000260: b985 4b2d 960a 282d 3040 e72c d5af cf2c
00000270: b0a9 d02c 5607 112d 523a 4e2d 562c 9e2d
00000280: f4e2 6f2d 7a8e 392d 3f3d 1b2d f1ba 872c
00000290: 9b88 192c e90f ec2b 9082 b92c 0be3 c12d
000002a0: dc2b 8e2e 6b90 042f 174c 512f 5fbe 8c2f
000002b0: b194 b62f f54e b42f a829 b02f d12a 942f
000002c0: 418c 842f 5b2a 402f 45c2 202f 87bc b02e
000002d0: f696 4e2e d665 7f2d d475 852c 0a18 8e2b
000002e0: d8dc aa2a 0189 a22a 3234 912a fe43 ad2a
000002f0: 7761 cb2a 5ba2 0d2b 6a4b eb2a 092d b82a
00000300: 5a6e e32a 59de 172b f1f3 5d2b fe29 4f2b
00000310: f67d 122b cbf1 0d2b 3fc6 0b2b 1031 792b
00000320: 1ae3 402b 4d59 8e2b f5da 002c 77ec 552c
00000330: 18be 9e2c 942f a92c 5842 e62c b105 f42c
00000340: 0fd0 d92c f2b1 b12c 4977 2f2c 18ba 852b
00000350: 1ddb 0c2b b4c2 b82a a137 892b afb7 622c
00000360: 1118 2f2d 5b00 d62d a506 802e 1bf2 ad2e
00000370: 0fcb 162f 0a77 232f 4461 432f ac97 512f
00000380: 246b 502f 726e 442f 531c 472f f19e 442f
00000390: bbd5 442f d7a5 342f fb7c 1b2f e4ae dc2e
000003a0: 9070 692e e10d b22d 3ef5 512c 8ec5 dd2a
000003b0: 3008 b62a e035 472c e4c0 982d f900 4a2e
000003c0: d6a7 b62e cf7f d02e 35e1 f32e f1de d12e
000003d0: 4037 932e 706b c12d a858 de2c 8549 042d
000003e0: 3083 b22d 277d f02e fc68 cb2f 14c0 4130
000003f0: da0c a230 7645 f230 ecbb 1231 0ba7 2531
1.9076103e-09 2.4063895e-09 2.1373656e-09 1.7547194e-09 1.16788e-09 7.0272077e-10 3.7431996e-10 1.1004357e-10
1.9748071e-11 6.363175e-12 6.467095e-12 2.3054034e-11 6.9557846e-11 9.6556964e-11 1.1484624e-10 9.8996686e-11
8.4123666e-11 4.6628708e-11 1.9626276e-11 3.0715404e-12 3.1438944e-13 3.9427454e-13 2.9997157e-12 1.9839734e-11
4.8634895e-11 9.708026e-11 1.386862e-10 1.6895754e-10 1.7613855e-10 1.7607511e-10 1.7459996e-10 1.762273e-10
1.8165858e-10 1.811471e-10 1.7683251e-10 1.3917785e-10 1.360364e-10 8.017342e-11 5.9864384e-11 2.5476279e-11
1.0361901e-11 3.3372769e-12 9.549968e-13 3.2417008e-13 4.9916706e-13 9.53997e-13 2.1864054e-12 4.2249503e-12
5.5917705e-12 7.354333e-12 6.677675e-12 4.983553e-12 4.3221095e-12 2.9957935e-12 1.8030239e-12 9.5653e-13
6.663437e-13 8.854061e-13 4.8963427e-13 4.921364e-13 5.2499465e-13 7.3633834e-13 7.903728e-13 5.39742e-13
4.2166346e-13 3.250551e-13 4.2937762e-13 5.0186705e-13 3.6469455e-13 3.1085366e-13 2.5919512e-13 2.902475e-13
3.0353403e-13 8.7535355e-13 3.4045728e-12 1.4480835e-11 4.594418e-11 8.349813e-11 1.356877e-10 1.8350732e-10
2.4442554e-10 2.7405003e-10 3.340449e-10 3.2735684e-10 3.207337e-10 2.4493893e-10 1.886104e-10 1.1908759e-10
7.214507e-11 2.4913365e-11 5.3590205e-12 1.7171617e-12 2.227006e-12 3.729494e-12 8.190437e-12 1.1636729e-11
1.3957209e-11 1.5143059e-11 1.4066299e-11 9.944005e-12 6.5861817e-12 5.576647e-12 7.2231288e-12 1.08403165e-11
1.1879168e-11 9.402868e-12 7.319997e-12 4.7280947e-12 3.5438312e-12 5.596212e-12 1.2248375e-11 3.3008696e-11
7.693116e-11 1.1172034e-10 2.465768e-10 3.6578846e-10 4.782959e-10 6.257307e-10 5.82526e-10 5.254432e-10
3.7564934e-10 2.544585e-10 1.3302008e-10 6.2001924e-11 5.867388e-11 9.1254726e-11 1.3894333e-10 2.3102563e-10
3.6889652e-10 2.2997815e-10 1.3877452e-10 9.148958e-11 6.239523e-11 6.213826e-11 1.3668387e-10 2.6808825e-10
3.0733424e-10 5.630461e-10 5.889125e-10 5.9538013e-10 4.8150967e-10 3.751999e-10 2.5033745e-10 1.1660588e-10
7.776985e-11 3.0520485e-11 1.2906828e-11 4.17235e-12 3.5863573e-12 4.805603e-12 7.297045e-12 1.0592955e-11
1.1568906e-11 9.552045e-12 6.572541e-12 5.902815e-12 5.9305547e-12 8.243925e-12 1.1722694e-11 1.798221e-11
1.3635971e-11 1.0547669e-11 8.824329e-12 3.8576854e-12 2.181844e-12 1.6773225e-12 5.2725116e-12 2.2042387e-11
6.4652034e-11 1.2056638e-10 1.9035472e-10 2.5601118e-10 3.321126e-10 3.2797912e-10 3.2043812e-10 2.6951466e-10
2.4110317e-10 1.7477346e-10 1.4620934e-10 8.0370426e-11 4.6973057e-11 1.4517684e-11 3.793169e-12 1.0096379e-12
3.0351307e-13 2.8872046e-13 2.5793392e-13 3.0778152e-13 3.6127674e-13 5.0318576e-13 4.1796715e-13 3.2716215e-13
4.0399872e-13 5.3954546e-13 7.885351e-13 7.359945e-13 5.2044426e-13 5.042882e-13 4.965784e-13 8.853066e-13
6.852727e-13 1.0114493e-12 1.831144e-12 3.0400385e-12 4.5117347e-12 4.808551e-12 6.544359e-12 6.935529e-12
6.19061e-12 5.0503985e-12 2.4935212e-12 9.50187e-13 5.004207e-13 3.2820068e-13 9.749876e-13 3.2218497e-12
9.952942e-12 2.4329141e-11 5.8219464e-11 7.910136e-11 1.3714561e-10 1.4867055e-10 1.7769702e-10 1.9062324e-10
1.8955554e-10 1.7865334e-10 1.8109007e-10 1.7882563e-10 1.7902028e-10 1.6429823e-10 1.414157e-10 1.00355085e-10
5.3078042e-11 2.024242e-11 2.9836823e-12 3.9394567e-13 3.2335376e-13 2.8309508e-12 1.736606e-11 4.5930346e-11
8.3062154e-11 9.481448e-11 1.10903654e-10 9.543822e-11 6.6946004e-11 2.1989272e-11 6.3194623e-12 7.519656e-12
2.0294516e-11 1.0936168e-10 3.700008e-10 7.048595e-10 1.1790704e-09 1.7627559e-09 2.1352617e-09 2.4105613e-09

loss f8 []
00000000: ec3b 908e 4bd4 5740
95.31711162648543
