weights/e150.pth (torch, 788191 bytes, 4 tensors)

weights f4 [1, 1, 256, 256]
5.7665906 5.65518 5.6695175 5.8194184 5.809628 5.7918005 5.4061136 5.4474874
4.6554914 4.9709325 4.6244144 5.1605496 5.3612647 5.342116 5.325225 5.348608
5.320652 5.15488 5.01956 4.610876 3.015981 2.7959852 4.526843 5.1579237
5.5052743 5.5027156 5.4206915 5.3987193 5.4709916 5.5607204 5.506131 5.398428
5.5525813 5.60855 5.503133 5.464373 5.4560695 5.2307563 5.1245112 4.9917493
4.6753426 3.731372 3.07926 2.003069 2.0309882 3.2323322 4.1943965 4.4758425
4.7536116 4.410402 4.271641 4.116274 4.116892 4.0741053 3.8679848 3.4982631
2.9021168 1.951126 2.3298302 2.4764953 2.437541 2.2560625 1.9996123 2.364299
2.403309 2.3533022 2.181467 1.859707 1.9725076 1.8583994 1.5178564 1.4921306
2.2139513 3.4795449 4.481442 4.8786383 5.1565022 5.1449485 5.6701493 5.176033
5.3827057 5.484591 5.391705 5.519705 5.4485826 5.6515083 5.3192368 5.3743944
5.139868 4.916161 4.6488957 3.5696838 3.1988974 4.1507807 4.7758026 4.7773695
4.873259 4.928779 4.7250133 4.361828 3.9493792 3.9743686 4.3022094 4.5172567
4.754337 4.7549906 4.5435715 4.1760106 3.5948339 4.1039114 4.709211 4.8011155
4.956006 5.3311667 5.2485824 5.4638343 5.441833 5.1990933 5.4058213 5.3206916
5.0562067 5.088481 5.0605507 4.4726095 4.021741 2.5637617 2.4566045 2.1610472
1.6018095 2.1624234 2.4580812 2.560764 3.9587111 4.470804 5.0331306 5.0218472
5.3415318 5.1703634 5.3794403 5.350653 5.4199653 5.3966928 5.209222 5.2448955
4.938588 4.8854747 4.670601 4.2661686 3.5862355 4.16502 4.54578 4.659386
4.7764535 4.6206894 4.372973 3.9178915 4.0507965 4.5044694 4.8790326 4.7615433
4.8969 4.863019 4.712454 4.125843 3.2139275 3.5824413 4.659781 5.063571
5.3765388 5.33839 5.2850914 5.476911 5.288184 5.5109944 5.595352 5.555308
5.4388723 5.3550777 5.4276323 5.2371597 5.114336 4.8759165 4.4038334 3.4326932
2.2139513 1.4921321 1.5178603 1.8584205 1.9725224 1.8597031 2.1816616 2.3532658
2.4036214 2.3643053 1.999641 2.2560847 2.4376798 2.476002 2.329312 1.9511282
2.8960137 3.4743881 3.8569157 4.0612803 4.0733624 4.1610904 4.294594 4.4731226
4.656715 4.334013 4.0984616 3.2338176 2.0309832 2.0030768 3.0713217 3.7731407
4.7233596 5.0671573 5.185311 5.2681527 5.427573 5.220306 5.4833994 5.400054
5.37703 5.339899 5.356447 5.4939933 5.4061327 5.5130644 5.3509994 5.401231
5.32127 5.128958 4.530052 2.796039 3.0137815 4.662992 5.190497 5.187597
5.355968 5.483187 5.4320865 5.376041 5.453229 5.2353377 4.645327 4.817372
4.6084237 5.469568 5.471537 5.767703 5.705883 5.764237 5.683136 5.62806
00000000: e987 b840 3cf7 b440 b06c b540 ad38 ba40
00000010: 79e8 b940 6e56 b940 e2fe ac40 d151 ae40
00000020: c9f9 9440 e111 9f40 34fb 9340 3923 a540
00000030: 7b8f ab40 9df2 aa40 3e68 aa40 cc27 ab40
00000040: c842 aa40 c7f4 a440 3ca0 a040 4c8c 9340
00000050: d505 4140 6cf1 3240 e6db 9040 b60d a540
00000060: 352b b040 3f16 b040 4e76 ad40 4fc2 ac40
00000070: 5d12 af40 6cf1 b140 3a32 b040 ecbf ac40
00000080: bfae b140 3e79 b340 aa19 b040 25dc ae40
00000090: 1f98 ae40 5b62 a740 fffb a340 69bc 9f40
000000a0: 689c 9540 cdce 6e40 9912 4540 4832 0040
000000b0: b6fb 0140 88de 4e40 7f38 8640 1a3a 8f40
000000c0: 961d 9840 0322 8d40 48b1 8840 84b8 8340
000000d0: 94bd 8340 125f 8240 108d 7740 8be3 5f40
000000e0: 48bc 3940 7fbe f93f f01b 1540 e67e 1e40
000000f0: ac00 1c40 5463 1040 4cf3 ff3f ad50 1740
00000100: d1cf 1940 819c 1640 289d 0b40 e10a ee3f
00000110: 217b fc3f 08e0 ed3f 1e49 c23f 23fe be3f
00000120: 61b1 0d40 ddb0 5e40 f967 8f40 ce1d 9c40
00000130: 1102 a540 6ba3 a440 dd71 b540 10a2 a540
00000140: 203f ac40 c581 af40 d988 ac40 6ca1 b040
00000150: ca5a ae40 28d9 b440 3037 aa40 0afb ab40
00000160: cc79 a440 3151 9d40 c1c3 9440 b375 6440
00000170: bcba 4c40 32d3 8440 60d3 9840 36e0 9840
00000180: bdf1 9b40 8fb8 9d40 4f33 9740 1894 8b40
00000190: a1c2 7c40 0e5c 7e40 b3ab 8940 5e8d 9040
000001a0: 8723 9840 e228 9840 f064 9140 e1a1 8540
000001b0: c211 6640 3e53 8340 dbb1 9640 bda2 9940
000001c0: 9a97 9e40 eb98 aa40 63f4 a740 bbd7 ae40
000001d0: 7f23 ae40 f95e a640 7dfc ac40 1b43 aa40
000001e0: 72cc a140 d6d4 a240 08f0 a140 9e1f 8f40
000001f0: 1ab2 8040 ac14 2440 0239 1d40 994e 0a40
00000200: 1808 cd3f 2565 0a40 3451 1d40 8fe3 2340
00000210: 865b 7d40 d410 8f40 680f a140 f9b2 a040
00000220: d4ed aa40 9e73 a540 6024 ac40 8d38 ab40
00000230: 5b70 ad40 b5b1 ac40 f2b1 a640 2fd6 a740
00000240: ea08 9e40 cf55 9c40 9075 9540 7484 8840
00000250: e284 6540 d847 8540 0877 9140 b119 9540
00000260: b5d8 9840 b0dc 9340 65ef 8b40 bcbe 7a40
00000270: 20a0 8140 9d24 9040 0921 9c40 905e 9840
00000280: 68b3 9c40 da9d 9b40 6ccc 9640 e806 8440
00000290: fdb0 4d40 b846 6540 ed1c 9540 c608 a240
000002a0: 9b0c ac40 17d4 aa40 781f a940 db42 af40
000002b0: ce38 a940 115a b040 200d b340 15c5 b140
000002c0: 3e0b ae40 cc5c ab40 2aaf ad40 d096 a740
000002d0: a4a8 a340 8207 9c40 34ec 8c40 3fb1 5b40
000002e0: 61b1 0d40 2ffe be3f 3f49 c23f b9e0 ed3f
000002f0: 9d7b fc3f c00a ee3f 58a0 0b40 e89b 1640
00000300: efd4 1940 c750 1740 3cf4 ff3f b163 1040
00000310: f202 1c40 d176 1e40 7313 1540 92be f93f
00000320: 4a58 3940 605c 5e40 b5d7 7640 02f6 8140
00000330: fc58 8240 a727 8540 506d 8940 d223 8f40
00000340: cf03 9540 3cb0 8a40 9926 8340 def6 4e40
00000350: a1fb 0140 6932 0040 8990 4440 237b 7140
00000360: c325 9740 2726 a240 11ee a540 b594 a840
00000370: aeae ad40 bf0c a740 0278 af40 3ecd ac40
00000380: a110 ac40 74e0 aa40 0468 ab40 cbce af40
00000390: 0aff ac40 066b b040 633b ab40 e2d6 ac40
000003a0: d847 aa40 6d20 a440 30f6 9040 4ef2 3240
000003b0: cce1 4040 3b37 9540 8d18 a640 cb00 a640
000003c0: 1764 ab40 4576 af40 a7d3 ad40 8708 ac40
000003d0: da80 ae40 e387 a740 85a6 9440 e927 9a40
000003e0: 3578 9340 b306 af40 d516 af40 0691 b840
000003f0: 9896 b640 a174 b840 40dc b540 1119 b440

exp_avg f4 [1, 1, 256, 256]
-4.1529704e-05 -4.654224e-05 -4.448558e-05 -4.1057236e-05 -3.369178e-05 -2.5642421e-05 -1.7692131e-05 -9.151756e-06
-2.8720783e-06 -1.8619472e-06 -1.5296247e-06 -3.955938e-06 -7.378791e-06 -8.8541965e-06 -9.798363e-06 -8.9873565e-06
-8.094748e-06 -5.8716023e-06 -3.5715948e-06 -9.3948233e-07 1.4186639e-08 -8.8407106e-08 -9.145802e-07 -3.886542e-06
-6.2958e-06 -8.86515e-06 -1.1100878e-05 -1.2261645e-05 -1.2243279e-05 -1.2007746e-05 -1.1832353e-05 -1.2008253e-05
-1.219901e-05 -1.2018495e-05 -1.1834338e-05 -1.0466888e-05 -1.1013362e-05 -7.603884e-06 -6.356744e-06 -3.6309023e-06
-1.804384e-06 -1.6217754e-07 -4.2782347e-08 5.8259477e-08 7.868635e-08 1.222322e-07 -3.512692e-07 -7.5533245e-07
-1.4816012e-06 -1.1743261e-06 -1.152054e-06 -6.664476e-07 -5.865564e-07 -2.8709275e-07 -2.1404523e-07 -5.1608424e-08
5.317179e-08 -7.386473e-08 -2.0189134e-08 -4.7004995e-09 1.943585e-07 8.296894e-09 1.5601597e-07 1.5556242e-07
5.9042858e-08 -4.295476e-09 2.061874e-07 6.711056e-08 4.071414e-08 -2.4386964e-08 5.1532254e-08 4.7094822e-08
-3.4059795e-09 -1.139485e-07 -6.747784e-07 -2.39754e-06 -5.5226747e-06 -8.052948e-06 -1.0435609e-05 -1.2191547e-05
-1.36015115e-05 -1.4551766e-05 -1.658096e-05 -1.5792863e-05 -1.6323156e-05 -1.3978105e-05 -1.2589174e-05 -9.4097895e-06
-7.5048833e-06 -3.7982988e-06 -1.5281613e-06 -5.62942e-07 -2.3219462e-07 -6.0544716e-07 -2.0096325e-06 -2.3630869e-06
-2.5732638e-06 -3.1053196e-06 -2.9989167e-06 -2.1739058e-06 -9.601381e-07 -1.0786432e-06 -1.2038113e-06 -2.0562677e-06
-2.6905086e-06 -1.8415743e-06 -1.4990836e-06 -7.4392506e-07 -1.2469717e-07 -1.1570492e-06 -2.2500428e-06 -4.2982524e-06
-6.677097e-06 -8.859685e-06 -1.43805055e-05 -1.7533825e-05 -1.9881292e-05 -2.2749731e-05 -2.2032922e-05 -2.1073718e-05
-1.6945323e-05 -1.38235055e-05 -8.608185e-06 -3.9554293e-06 -2.6389189e-06 -1.4763541e-06 -1.7508999e-06 -3.9998617e-06
-3.3683455e-06 -3.968527e-06 -1.7294592e-06 -1.5133528e-06 -3.168795e-06 -3.969219e-06 -8.796118e-06 -1.4293628e-05
-1.4816842e-05 -2.1933149e-05 -2.2178796e-05 -2.2054399e-05 -1.9960595e-05 -1.7800583e-05 -1.4508256e-05 -9.123813e-06
-6.7365554e-06 -4.0296713e-06 -2.3654966e-06 -6.8713894e-07 -1.4883045e-07 -7.744114e-07 -1.4932889e-06 -2.1056535e-06
-2.6357143e-06 -1.7784887e-06 -1.0124987e-06 -1.2219973e-06 -6.975296e-07 -1.8212804e-06 -2.621908e-06 -3.488954e-06
-2.5199504e-06 -2.1520227e-06 -2.146355e-06 -6.6378e-07 -1.9962327e-07 -5.362222e-07 -1.5057119e-06 -3.4551879e-06
-6.989493e-06 -9.4863735e-06 -1.265561e-05 -1.4368395e-05 -1.6667245e-05 -1.5811109e-05 -1.6177244e-05 -1.4397297e-05
-1.3479539e-05 -1.1817707e-05 -1.0908609e-05 -7.854967e-06 -5.612552e-06 -2.403577e-06 -8.363638e-07 -2.0807458e-07
-3.4059795e-09 4.709805e-08 5.154094e-08 -2.4343569e-08 4.0745796e-08 6.710266e-08 2.066133e-07 -4.370362e-09
5.970612e-08 1.5557458e-07 1.5607706e-07 8.339768e-09 1.9464588e-07 -5.675865e-09 -2.1127073e-08 -7.38601e-08
4.1197143e-08 -9.639186e-08 -2.3486704e-07 -3.123332e-07 -6.685416e-07 -5.842885e-07 -1.1080591e-06 -1.0498654e-06
-1.6514819e-06 -1.0333205e-06 -5.2118713e-07 1.2512945e-07 7.867698e-08 5.8274747e-08 -5.6277464e-08 -8.101462e-08
-1.7095108e-06 -3.4930322e-06 -6.235902e-06 -7.5348935e-06 -1.1065141e-05 -1.087857e-05 -1.1870857e-05 -1.2402581e-05
-1.2518802e-05 -1.2107174e-05 -1.2096381e-05 -1.2119147e-05 -1.23627715e-05 -1.2072781e-05 -1.1229007e-05 -9.034692e-06
-6.6239345e-06 -3.9342362e-06 -9.0858435e-07 -8.8306024e-08 1.0420486e-08 -8.519643e-07 -3.2802125e-06 -5.8158785e-06
-8.029709e-06 -8.751527e-06 -9.593817e-06 -8.792837e-06 -7.2045523e-06 -3.831154e-06 -1.4924768e-06 -2.1150447e-06
-2.9581734e-06 -9.117573e-06 -1.7569402e-05 -2.5685486e-05 -3.386699e-05 -4.1161256e-05 -4.446184e-05 -4.658532e-05
00000000: 2e30 2eb8 5a36 43b8 0796 3ab8 df34 2cb8
00000010: 4650 0db8 ae1a d7b7 9069 94b7 7e8a 19b7
00000020: eebd 40b6 05e8 f9b5 814d cdb5 40bd 84b6
00000030: 5597 f7b6 7c8c 14b7 a663 24b7 67c8 16b7
00000040: aece 07b7 ae04 c5b6 88af 6fb6 bc30 7cb5
00000050: 80b9 7332 52da bdb3 7981 75b5 2469 82b6
00000060: 8340 d3b6 88bb 14b7 e83d 3ab7 5db7 4db7
00000070: 7c68 4db7 e074 49b7 9283 46b7 0e77 49b7
00000080: 59aa 4cb7 0ba3 49b7 188c 46b7 f19a 2fb7
00000090: 08c6 38b7 de24 ffb6 044c d5b6 6daa 73b6
000000a0: 2a2e f2b5 0623 2eb4 b0bf 37b3 f938 7a33
000000b0: 47fa a833 ee3e 0334 1296 bcb4 0dc2 4ab5
000000c0: 6edb c6b5 8a9d 9db5 46a0 9ab5 eee5 32b5
000000d0: d973 1db5 ba21 9ab4 4ed4 65b4 10a8 5db3
000000e0: 005f 6433 919f 9eb3 606c adb2 0882 a1b1
000000f0: dcb0 5034 208a 0e32 5885 2734 ac08 2734
00000100: 4f96 7d33 6897 93b1 5c64 5d34 6c1e 9033
00000110: acdd 2e33 807b d1b2 5054 5d33 4e45 4a33
00000120: a00e 6ab1 dab3 f4b3 6b22 35b5 6ce5 20b6
00000130: 6a4f b9b6 261b 07b7 9914 2fb7 4c8a 4cb7
00000140: 0c32 64b7 5c23 74b7 5717 8bb7 ea7a 84b7
00000150: b6ed 88b7 8183 6ab7 1736 53b7 bdde 1db7
00000160: 75d2 fbb6 47e6 7eb6 391b cdb5 141d 17b5
00000170: 2c51 79b4 0386 22b5 39dd 06b6 8695 1eb6
00000180: 56b0 2cb6 fc64 50b6 ff40 49b6 6be3 11b6
00000190: 18de 80b5 e6c5 90b5 a492 a1b5 69fe 09b6
000001a0: 968e 34b6 032c f7b5 1f34 c9b5 24b2 47b5
000001b0: 7fe4 05b4 e84b 9bb5 71ff 16b6 b539 90b6
000001c0: d40b e0b6 0fa4 14b7 cd43 71b7 9a15 93b7
000001d0: c0c6 a6b7 add6 beb7 57d3 b8b7 77c7 b0b7
000001e0: ce25 8eb7 81eb 67b7 e06b 10b7 e1b8 84b6
000001f0: 4818 31b6 2427 c6b5 7600 ebb5 8d36 86b6
00000200: bc0b 62b6 6329 85b6 c41f e8b5 681e cbb5
00000210: 7ca7 54b6 552f 85b6 0a93 13b7 aace 6fb7
00000220: da95 78b7 14fd b7b7 9a0c bab7 7601 b9b7
00000230: 0d71 a7b7 7652 95b7 7c68 73b7 7a12 19b7
00000240: 920a e2b6 9d36 87b6 ecbe 1eb6 d473 38b5
00000250: 34ce 1fb4 25e1 4fb5 046d c8b5 da4e 0db6
00000260: 3ae1 30b6 68b4 eeb5 31e5 87b5 8203 a4b5
00000270: de3d 3bb5 b872 f4b5 09f4 2fb6 c623 6ab6
00000280: 6b1c 29b6 786b 10b6 190a 10b6 9d2e 32b5
00000290: 0758 56b4 e9f0 0fb5 de17 cab5 addf 67b6
000002a0: 4a87 eab6 aa27 1fb7 6e53 54b7 c90f 71b7
000002b0: a3d0 8bb7 19a2 84b7 5eb4 87b7 eb8b 71b7
000002c0: 2e26 62b7 aa44 46b7 1e04 37b7 d4c8 03b7
000002d0: 7453 bcb6 234d 21b6 7c82 60b5 1b6b 5fb4
000002e0: a00e 6ab1 db48 4a33 dd5d 5d33 131c d1b2
000002f0: 7a00 2f33 141a 9033 6ed9 5d34 1c2a 96b1
00000300: c937 8033 040c 2734 2396 2734 b046 0f32
00000310: daff 5034 7005 c3b1 ed7a b5b2 059d 9eb3
00000320: bdf0 3033 fcff ceb3 c32f 7cb4 c0ae a7b4
00000330: d475 33b5 00d8 1cb5 9fb8 94b5 1ae9 8cb5
00000340: 7ca8 ddb5 9fb0 8ab5 b5e7 0bb5 525b 0634
00000350: 21f5 a833 c349 7a33 bab5 71b3 42fa adb3
00000360: 5872 e5b5 d669 6ab6 fe3d d1b6 3ed4 fcb6
00000370: 6ba4 39b7 1a83 36b7 f128 47b7 ae14 50b7
00000380: d807 52b7 eb1f 4bb7 90f1 4ab7 5753 4bb7
00000390: b369 4fb7 338c 4ab7 3864 3cb7 b593 17b7
000003a0: 2a43 deb6 d502 84b6 71e5 73b5 c0a2 bdb3
000003b0: c805 3332 8ab2 64b5 9f21 5cb6 0426 c3b6
000003c0: 56b7 06b7 86d3 12b7 21f5 20b7 f384 13b7
000003d0: a2be f1b6 5d8d 80b6 1d51 c8b5 31f0 0db6
000003e0: 0885 46b6 aef7 18b7 0162 93b7 2977 d7b7
000003f0: 670c 0eb8 90a4 2cb8 8a7c 3ab8 9b64 43b8

exp_avg_sq f4 [1, 1, 256, 256]
1.9200423e-09 2.4219167e-09 2.148393e-09 1.7652833e-09 1.1729412e-09 7.04887e-10 3.7403747e-10 1.0925315e-10
1.9338841e-11 6.0971055e-12 6.256245e-12 2.2639245e-11 6.9049676e-11 9.599613e-11 1.142952e-10 9.870426e-11
8.366998e-11 4.6076004e-11 1.9208985e-11 2.925865e-12 3.1114556e-13 3.7895582e-13 2.8092886e-12 1.9360683e-11
4.81537e-11 9.6777156e-11 1.3829297e-10 1.691049e-10 1.7670401e-10 1.7628587e-10 1.7495552e-10 1.7603477e-10
1.8189739e-10 1.8144376e-10 1.7796858e-10 1.3933107e-10 1.3641065e-10 7.991614e-11 5.9424396e-11 2.5168907e-11
1.0177531e-11 3.3151218e-12 9.646538e-13 3.199706e-13 5.0556564e-13 9.44565e-13 2.0951147e-12 4.0408427e-12
5.4300397e-12 7.1432053e-12 6.7554287e-12 4.965684e-12 4.263044e-12 2.8707856e-12 1.7760942e-12 9.204185e-13
6.6342987e-13 9.0931944e-13 4.805384e-13 4.7087405e-13 5.294585e-13 7.494867e-13 8.0460736e-13 5.3489754e-13
4.2245927e-13 3.3030444e-13 4.394814e-13 4.909624e-13 3.652812e-13 3.106681e-13 2.5971095e-13 2.9102204e-13
3.0073283e-13 8.453791e-13 3.3254135e-12 1.4038215e-11 4.557824e-11 8.2873895e-11 1.3558113e-10 1.8323418e-10
2.448985e-10 2.7501085e-10 3.3531775e-10 3.2865288e-10 3.211304e-10 2.4516153e-10 1.8833371e-10 1.1852487e-10
7.1394946e-11 2.4252936e-11 5.1015147e-12 1.6548868e-12 2.1708993e-12 3.552514e-12 7.838123e-12 1.125344e-11
1.3499455e-11 1.4555912e-11 1.3518967e-11 9.506622e-12 6.298114e-12 5.4005333e-12 6.888848e-12 1.03349196e-11
1.14183845e-11 9.082856e-12 6.9547545e-12 4.5643246e-12 3.5016371e-12 5.22424e-12 1.16347765e-11 3.2308586e-11
7.5731484e-11 1.1017693e-10 2.4536914e-10 3.6443387e-10 4.762321e-10 6.227264e-10 5.7848104e-10 5.204225e-10
3.6779899e-10 2.4789132e-10 1.2801511e-10 5.922678e-11 5.7708047e-11 9.262976e-11 1.4352873e-10 2.398341e-10
3.715635e-10 2.3901403e-10 1.4340427e-10 9.280056e-11 6.101374e-11 5.935349e-11 1.3159249e-10 2.6133956e-10
3.003358e-10 5.579678e-10 5.848592e-10 5.9231653e-10 4.794549e-10 3.7383296e-10 2.4913074e-10 1.15032206e-10
7.65641e-11 2.987884e-11 1.2266133e-11 3.9149157e-12 3.5380956e-12 4.6344877e-12 6.9330566e-12 1.021085e-11
1.1118216e-11 9.099388e-12 6.2809497e-12 5.6949185e-12 5.704853e-12 7.88431e-12 1.1245889e-11 1.733103e-11
1.31863765e-11 1.02054e-11 8.449345e-12 3.6689362e-12 2.134166e-12 1.621202e-12 5.019081e-12 2.1430595e-11
6.392584e-11 1.2000488e-10 1.9008387e-10 2.5629587e-10 3.3255018e-10 3.292789e-10 3.2161726e-10 2.7045208e-10
2.4156774e-10 1.7446201e-10 1.4612092e-10 7.9744884e-11 4.6599988e-11 1.4074185e-11 3.686432e-12 9.55168e-13
3.0071543e-13 2.8977228e-13 2.5867877e-13 3.0815387e-13 3.6248386e-13 4.920422e-13 4.3015534e-13 3.3202705e-13
4.0801854e-13 5.347372e-13 8.031048e-13 7.4920555e-13 5.2574026e-13 4.8080013e-13 4.861999e-13 9.0923834e-13
6.787329e-13 9.6569e-13 1.8001491e-12 2.9110382e-12 4.4381642e-12 4.8036713e-12 6.6298312e-12 6.746624e-12
6.0022894e-12 4.822199e-12 2.3734964e-12 9.414636e-13 5.0659173e-13 3.2327046e-13 9.80789e-13 3.2136036e-12
9.782142e-12 2.4035307e-11 5.778868e-11 7.8846055e-11 1.3752353e-10 1.488467e-10 1.7883622e-10 1.9095231e-10
1.8982559e-10 1.784728e-10 1.8147087e-10 1.7904427e-10 1.7959868e-10 1.6442793e-10 1.4103407e-10 1.0005794e-10
5.2588968e-11 1.975974e-11 2.794113e-12 3.7868927e-13 3.1837667e-13 2.697331e-12 1.6979172e-11 4.5379995e-11
8.260638e-11 9.451672e-11 1.1034662e-10 9.487652e-11 6.6437675e-11 2.1584968e-11 6.1137553e-12 7.2234193e-12
1.987565e-11 1.0857098e-10 3.6968978e-10 7.070423e-10 1.1842138e-09 1.773393e-09 2.146277e-09 2.4261246e-09
00000000: bef1 0331 cf6e 2631 eea2 1331 629e f230
00000010: 3335 a130 03c2 4130 18a1 cd2f 0e40 f02e
00000020: 331b aa2d d885 d62c 3f1f dc2c 0c23 c72d
00000030: 83d7 972e 0419 d32e 7a56 fb2e 8f0d d92e
00000040: 03fe b72e f8a4 4a2e caf6 a82d b3e3 4d2c
00000050: cd28 af2a 4a55 d52a a5af 452c 624c aa2d
00000060: 3fc8 532e b2d0 d42e 030e 182f ccee 392f
00000070: c249 422f 10d4 412f 9a5d 402f 628d 412f
00000080: 90ff 472f e17f 472f b4ad 432f 3632 192f
00000090: 2ffc 152f cabc af2e f6ac 822e 5763 dd2d
000000a0: 860b 332d ed47 692c 51c3 872b a020 b42a
000000b0: d84d 0e2b 8aef 842b 3b6e 132c ad2c 8e2c
000000c0: 730d bf2c 4654 fb2c 7eaf ed2c e8b6 ae2c
000000d0: 16fe 952c 7a03 4a2c 8af6 f92b 9289 812b
000000e0: 29bd 3a2b 5ff3 7f2b 7142 072b 0d8a 042b
000000f0: 8107 152b 35f6 522b 127a 622b 6e8f 162b
00000100: ccd2 ed2a e3f1 b92a f267 f72a 9231 0a2b
00000110: 92a2 cd2a fee3 ae2a 4b34 922a b2d4 a32a
00000120: 2b4c a92a fcf3 6d2b 5301 6a2c 80f6 762d
00000130: 8974 482e db3d b62e b212 152f d677 492f
00000140: 66a2 862f 5630 972f c757 b82f c8ad b42f
00000150: 168b b02f 6bc7 862f 3a13 4f2f c951 022f
00000160: c8ff 9c2e c254 d52d 5c7e b32c 95e7 e82b
00000170: 72c3 182c 67fc 792c c5e3 092d fdf8 452d
00000180: 247c 6d2d 0009 802d 04d4 6d2d 053e 272d
00000190: 5e98 dd2c ae03 be2c 3a61 f22c 57d0 352d
000001a0: d5df 482d 8cc9 1f2d dcb2 f42c c897 a02c
000001b0: e367 762c c5cf b72c 60ae 4c2d 3c18 0e2e
000001c0: 0989 a62e 1948 f22e a3e4 862f 8259 c82f
000001d0: dbe7 0230 7a2c 2b30 fc02 1f30 7a0d 0f30
000001e0: 1b33 ca2f 9a47 882f 0dc1 0c2f b73d 822e
000001f0: 7ccd 7d2e ebb1 cb2e bfcf 1d2f a6d9 832f
00000200: ea44 cc2f 3c66 832f b7ac 1d2f 1212 cc2e
00000210: af2b 862e 0b85 822e feaf 102f 46ac 8f2f
00000220: 821c a52f 7e5f 1930 cfc3 2030 92d0 2230
00000230: a4ca 0330 5084 cd2f 09f6 882f 60f5 fc2e
00000240: c25d a82e 9568 032e c1c9 572d 6dbe 892c
00000250: aaf8 782c c10f a32c 6cef f32c 95a1 332d
00000260: fe97 432d 0014 202d c4fd dc2c 445f c82c
00000270: bfb8 c82c c7b3 0a2d fbd6 452d 0372 982d
00000280: 29fa 672d 0989 332d 78a4 142d d716 812c
00000290: b82d 162c f529 e42b dd97 b02c 6981 bc2d
000002a0: 0c93 8c2e 5ff2 032f daff 502f 70e6 8c2f
000002b0: 47d2 b62f e305 b52f 9bcf b02f bfae 942f
000002c0: a3cd 842f b1d2 3f2f 62a9 202f 615c af2e
000002d0: ecf2 4c2e 7f98 772d 6db4 812c 8e6d 862b
000002e0: a949 a92a 9620 a32a 8a9f 912a a779 ad2a
000002f0: 6e0f cc2a 617f 0a2b eb27 f22a 24ea ba2a
00000300: abb1 e52a e083 162b cd0d 622b f3e1 522b
00000310: 94fb 132b 4d55 072b 65da 082b 87ed 7f2b
00000320: dc0b 3f2b a6e8 872b 3559 fd2b 9ad8 4c2c
00000330: 6e27 9c2c a003 a92c 3644 e92c 3060 ed2c
00000340: d12f d32c 82aa a92c 1c05 272c cd7f 842b
00000350: c897 0e2b 2ffc b52a a608 8a2b 2323 622c
00000360: da16 2c2d b36a d32d 4528 7e2e 6262 ad2e
00000370: 6f35 172f 9fa8 232f eca1 442f 4cf4 512f
00000380: 27b7 502f a13b 442f 8287 472f 7bdc 442f
00000390: 8978 452f 59ca 342f 9011 1b2f 9d07 dc2e
000003a0: ea49 672e fbce ad2d 449e 442c e02e d52a
000003b0: ea3a b32a ccce 3d2c b259 952d 5595 472e
000003c0: 42a7 b52e 2fd8 cf2e a0a7 f22e bca2 d02e
000003d0: 1619 922e 07dd bd2d d01b d72c c726 fe2c
000003e0: fcd3 ae2d 07c0 ee2e 363d cb2f ae59 4230
000003f0: d2c1 a230 b8bb f330 b47d 1331 d6b8 2631

loss f8 []
96.32315259530021
00000000: a51b 3988 ae14 5840
