weights/e160.pth (torch, 788191 bytes, 4 tensors)

weights f4 [1, 1, 256, 256]
000000 7f a3 b8 40 24 13 b5 40 81 88 b5 40 9c 54 ba 40
       5.769958 5.6585865 5.672913 5.8228283
000010 60 04 ba 40 03 72 b9 40 df 19 ad 40 e5 6b ae 40
       5.813034 5.7951674 5.409408 5.4506707
000020 0d 0d 95 40 6e 27 9f 40 fc 0e 94 40 38 3b a5 40
       4.657843 4.973563 4.626829 5.163479
000030 95 a9 ab 40 e4 0c ab 40 94 82 aa 40 fa 41 ab 40
       5.364451 5.3453236 5.3284397 5.351804
000040 d8 5c aa 40 3d 0e a5 40 8f b8 a0 40 81 9e 93 40
       5.3238335 5.157988 5.022529 4.6130986
000050 3d 06 41 40 d1 f2 32 40 63 ee 90 40 d7 26 a5 40
       3.0160058 2.7960703 4.5291 5.160991
000060 0f 45 b0 40 ed 30 b0 40 ff 90 ad 40 35 dd ac 40
       5.50843 5.5059724 5.4239497 5.402003
000070 c0 2c af 40 c0 0b b2 40 0c 4c b0 40 af d9 ac 40
       5.4742126 5.5639343 5.509283 5.4015727
000080 91 c8 b1 40 06 93 b3 40 98 33 b0 40 26 f6 ae 40
       5.555733 5.611697 5.506298 5.4675474
000090 3c b2 ae 40 9d 7b a7 40 7c 14 a4 40 7a d2 9f 40
       5.459257 5.2338395 5.1275005 4.994443
0000a0 33 ad 95 40 19 d9 6e 40 7b 13 45 40 bc 31 00 40
       4.6773925 3.7320006 3.079314 2.0030355
0000b0 6b fb 01 40 2d e1 4e 40 a2 40 86 40 ed 47 8f 40
       2.0309703 3.2324936 4.1953897 4.47753
0000c0 1e 2d 98 40 e5 2f 8d 40 6f be 88 40 96 c1 83 40
       4.7555075 4.4120965 4.2732463 4.117381
0000d0 d9 c6 83 40 06 67 82 40 28 98 77 40 52 e8 5f 40
       4.1180234 4.075076 3.8686619 3.4985547
0000e0 67 bd 39 40 c2 bf f9 3f db 1b 15 40 56 7e 1e 40
       2.9021852 1.9511645 2.3298252 2.476461
0000f0 1e ff 1b 40 c9 62 10 40 c8 ef ff 3f a8 4e 17 40
       2.437446 2.2560294 1.999505 2.3641758
000100 3f cf 19 40 b0 9c 16 40 b6 9c 0b 40 23 0c ee 3f
       2.4032743 2.3533134 2.1814399 1.8597454
000110 86 7b fc 3f 17 e1 ed 3f 44 4a c2 3f 9e fd be 3f
       1.9725196 1.8584317 1.5178914 1.4921148
000120 d0 b0 0d 40 45 b4 5e 40 b2 74 8f 40 20 33 9c 40
       2.2139168 3.4797528 4.482995 4.881241
000130 82 1a a5 40 5e bc a4 40 2e 8b b5 40 88 bb a5 40
       5.159486 5.147994 5.6732397 5.179142
000140 9c 58 ac 40 52 9b af 40 d7 a2 ac 40 1e bb b0 40
       5.3858166 5.48771 5.394878 5.5228415
000150 e5 74 ae 40 fc f2 b4 40 2b 51 aa 40 af 14 ac 40
       5.4517694 5.654661 5.322408 5.377525
000160 1a 93 a4 40 47 68 9d 40 90 d6 94 40 59 80 64 40
       5.1429567 4.918979 4.6511917 3.5703337
000170 e0 be 4c 40 78 dd 84 40 71 e6 98 40 cc f3 98 40
       3.19915 4.1520348 4.77813 4.7797604
000180 c9 06 9c 40 1a cf 9d 40 70 49 97 40 a0 a7 8b 40
       4.8758283 4.931531 4.7277145 4.364212
000190 1b d8 7c 40 b6 6b 7e 40 66 b9 89 40 fa 9f 90 40
       3.95069 3.9753242 4.3038816 4.5195284
0001a0 97 38 98 40 e0 39 98 40 eb 75 91 40 ed ab 85 40
       4.756908 4.757065 4.5456443 4.177237
0001b0 d1 1a 66 40 d6 62 83 40 6b c5 96 40 26 b8 99 40
       3.5953867 4.105815 4.711599 4.803729
0001c0 46 ae 9e 40 6c b0 aa 40 da 0d a8 40 28 f1 ae 40
       4.9587736 5.334036 5.251691 5.466938
0001d0 cf 3d ae 40 5b 79 a6 40 5d 16 ad 40 0d 5d aa 40
       5.445045 5.202314 5.40898 5.3238587
0001e0 ed e4 a1 40 f5 ec a2 40 2b 06 a2 40 ac 2d 8f 40
       5.059195 5.0914254 5.063253 4.474325
0001f0 6f b9 80 40 67 16 24 40 d5 3a 1d 40 46 50 0a 40
       4.022636 2.5638673 2.4567158 2.1611495
000200 1d 0a cd 3f b9 66 0a 40 ef 52 1d 40 7b e5 23 40
       1.6018711 2.1625197 2.4581869 2.5608814
000210 ac 6d 7d 40 ea 1e 8f 40 af 25 a1 40 4b cb a0 40
       3.9598188 4.4725237 5.03585 5.024816
000220 7f 05 ab 40 b4 8d a5 40 49 3e ac 40 dc 52 ab 40
       5.344421 5.1735477 5.382603 5.3538647
000230 ad 8a ad 40 35 cb ac 40 6f cb a6 40 e2 ed a7 40
       5.423178 5.3998055 5.212333 5.2477884
000240 9e 1f 9e 40 bb 6a 9c 40 88 89 95 40 d3 8f 88 40
       4.9413595 4.8880286 4.6730385 4.2675567
000250 9c 8e 65 40 47 52 85 40 fa 87 91 40 04 2c 95 40
       3.5868292 4.1662936 4.5478487 4.661623
000260 93 ed 98 40 f5 ed 93 40 9b fb 8b 40 5a d1 7a 40
       4.7790008 4.6227975 4.3744636 3.9190278
000270 46 a8 81 40 67 36 90 40 0b 36 9c 40 f8 75 98 40
       4.051791 4.506641 4.881597 4.7644005
000280 4e c8 9c 40 85 b0 9b 40 1a e0 96 40 d8 11 84 40
       4.8994513 4.865298 4.714856 4.127178
000290 e9 b3 4d 40 38 50 65 40 a3 2f 95 40 3b 1f a2 40
       3.2141058 3.5830212 4.662065 5.0663123
0002a0 9a 25 ac 40 c4 ed aa 40 79 39 a9 40 c3 5c af 40
       5.37959 5.341524 5.2882657 5.4800735
0002b0 00 53 a9 40 c3 73 b0 40 05 27 b3 40 98 de b1 40
       5.291382 5.514131 5.598513 5.558422
0002c0 ac 24 ae 40 1d 76 ab 40 ab c8 ad 40 a3 af a7 40
       5.4419765 5.358168 5.4307456 5.24019
0002d0 26 c1 a3 40 d8 1c 9c 40 9e fa 8c 40 17 ba 5b 40
       5.1173277 4.878521 4.405593 3.433233
0002e0 d0 b0 0d 40 a8 fd be 3f 62 4a c2 3f c2 e1 ed 3f
       2.2139168 1.492116 1.517895 1.8584521
0002f0 05 7c fc 3f 02 0c ee 3f d9 9f 0b 40 19 9c 16 40
       1.9725348 1.8597414 2.1816313 2.3532774
000300 48 d4 19 40 c2 4e 17 40 b3 f0 ff 3f 25 63 10 40
       2.4035816 2.364182 1.999533 2.2560513
000310 58 01 1c 40 52 76 1e 40 6e 13 15 40 d5 bf f9 3f
       2.437582 2.4759717 2.329311 1.9511667
000320 31 5a 39 40 ae 63 5e 40 9f e3 76 40 5b fe 81 40
       2.8961298 3.474834 3.857643 4.0622993
000330 2c 63 82 40 d2 2f 85 40 18 7a 89 40 b3 30 8f 40
       4.074606 4.1620874 4.296154 4.4746947
000340 a5 14 95 40 70 c0 8a 40 78 31 83 40 66 f9 4e 40
       4.65877 4.335991 4.0997887 3.233972
000350 56 fb 01 40 dd 31 00 40 30 92 44 40 fa 82 71 40
       2.0309653 2.0030434 3.0714226 3.7736192
000360 11 36 97 40 ef 3b a2 40 71 06 a6 40 f0 ad a8 40
       4.72535 5.069816 5.1882863 5.2712326
000370 cc c8 ad 40 e6 26 a7 40 f1 91 af 40 2a e7 ac 40
       5.4307613 5.2234983 5.486565 5.4032183
000380 98 2a ac 40 3e fa aa 40 e7 81 ab 40 28 e9 af 40
       5.3801994 5.343047 5.359607 5.4972115
000390 76 19 ad 40 dd 85 b0 40 1e 56 ab 40 97 f1 ac 40
       5.409358 5.5163407 5.3542624 5.404491
0003a0 e3 61 aa 40 96 39 a4 40 a3 08 91 40 b3 f3 32 40
       5.324449 5.1320295 4.5323043 2.7961242
0003b0 a0 e2 40 40 b7 48 95 40 62 30 a6 40 35 1a a6 40
       3.013832 4.6651263 5.193406 5.190699
0003c0 21 7e ab 40 57 90 af 40 ea ed ad 40 ca 22 ac 40
       5.3591466 5.4863696 5.4352922 5.3792467
0003d0 df 9a ae 40 b5 9f a7 40 1b ba 94 40 6c 3e 9a 40
       5.456405 5.2382455 4.647718 4.82012
0003e0 be 8b 93 40 c5 20 af 40 cb 31 af 40 9b ac b8 40
       4.6108084 5.47275 5.4748282 5.77107
0003f0 81 b2 b6 40 91 90 b8 40 11 f8 b5 40 f9 34 b4 40
       5.70929 5.7676473 5.6865315 5.6314664

exp_avg f4 [1, 1, 256, 256]
000000 f9 4e 3a b8 ea 2a 4f b8 f1 4c 4c b8 e9 d4 30 b8
       -4.4419405e-05 -4.9392613e-05 -4.8709047e-05 -4.2159958e-05
000010 e8 ad 0b b8 3f c7 d8 b7 55 86 a2 b7 24 c7 23 b7
       -3.3302145e-05 -2.5841988e-05 -1.9374458e-05 -9.761923e-06
000020 67 7f 55 b6 f2 2f 09 b6 ea 0c d1 b5 19 63 92 b6
       -3.1813631e-06 -2.0442499e-06 -1.5575472e-06 -4.3626756e-06
000030 c1 55 01 b7 e0 e2 1a b7 1d 17 27 b7 cb 39 1f b7
       -7.708965e-06 -9.231939e-06 -9.959357e-06 -9.4905945e-06
000040 9e 1e 0f b7 05 89 cd b6 2b ff 7b b6 99 3f 9a b5
       -8.530593e-06 -6.1254273e-06 -3.7550442e-06 -1.1492403e-06
000050 b3 c4 a0 33 6c d5 71 b2 db 07 9c b5 bd a7 83 b6
       7.48636e-08 -1.4076573e-08 -1.1625192e-06 -3.9236315e-06
000060 cc 09 df b6 d6 54 1b b7 05 69 3e b7 78 6b 49 b7
       -6.6470584e-06 -9.258472e-06 -1.1349334e-05 -1.2005556e-05
000070 f3 b1 58 b7 5d 9c 4d b7 4e 28 4b b7 7a 68 49 b7
       -1.2916035e-05 -1.2255358e-05 -1.2109127e-05 -1.2004859e-05
000080 73 1f 4c b7 65 98 4e b7 30 3e 4c b7 9e 5b 35 b7
       -1.216667e-05 -1.2314039e-05 -1.2173827e-05 -1.0809772e-05
000090 50 c8 2d b7 70 81 09 b7 d1 52 d6 b6 59 11 7e b6
       -1.0358242e-05 -8.195973e-06 -6.387338e-06 -3.7859047e-06
0000a0 43 d2 18 b6 d1 61 c0 b4 db 66 8b 33 6c fe 39 b3
       -2.2772153e-06 -3.5833958e-07 6.491401e-08 -4.3305064e-08
0000b0 2c 3c e7 b2 dd cb db b3 10 66 e6 b4 1b a5 3a b5
       -2.6919302e-08 -1.0235065e-07 -4.29151e-07 -6.953066e-07
0000c0 95 cb a4 b5 9c 19 bc b5 92 1c 59 b5 7c 28 53 b5
       -1.2278202e-06 -1.4014545e-06 -8.0880375e-07 -7.866254e-07
0000d0 e9 90 43 b5 a0 65 0b b5 92 83 c8 b4 ee 82 98 b4
       -7.2854033e-07 -5.192942e-07 -3.7348633e-07 -2.840747e-07
0000e0 d9 98 60 b3 11 b6 35 b4 1c dc 90 b3 e3 e6 b8 b3
       -5.229308e-08 -1.6923174e-07 -6.74556e-08 -8.610166e-08
0000f0 4c 79 99 b3 ae ba 7c b3 6d d3 16 33 b4 cc 1d 34
       -7.1466815e-08 -5.8843106e-08 3.5116887e-08 1.4696235e-07
000100 14 60 30 b3 60 00 b8 33 23 17 3d b3 32 97 93 b3
       -4.1065576e-08 8.568236e-08 -4.4026034e-08 -6.872723e-08
000110 d7 6d 8b b3 ca 1e ac b3 40 6d 6e 32 3e d4 19 33
       -6.492672e-08 -8.0149746e-08 1.3878264e-08 3.581612e-08
000120 a8 47 ff b2 96 4f 42 b4 fe 44 7f b5 8e 26 31 b6
       -2.9718493e-08 -1.8096611e-07 -9.50953e-07 -2.6397497e-06
000130 64 3a c7 b6 07 52 07 b7 60 21 34 b7 69 43 50 b7
       -5.9374597e-06 -8.0657255e-06 -1.0736607e-05 -1.2413461e-05
000140 a5 d9 76 b7 b4 1b 7b b7 46 71 8e b7 59 41 8c b7
       -1.4713417e-05 -1.4967216e-05 -1.6980466e-05 -1.671973e-05
000150 b3 ee 87 b7 92 a0 77 b7 09 36 5e b7 a3 d1 29 b7
       -1.6204407e-05 -1.4759733e-05 -1.3244812e-05 -1.0121995e-05
000160 ce 04 fd b6 e5 66 83 b6 96 b3 b9 b5 3c 0f a6 b3
       -7.540547e-06 -3.9160827e-06 -1.383584e-06 -7.7327485e-08
000170 3e 8d 56 34 bb f1 6a b5 ad 3a f1 b5 9e a2 24 b6
       1.9981687e-07 -8.7523557e-07 -1.7972976e-06 -2.453256e-06
000180 6a 3a 44 b6 99 4a 51 b6 4c 1f 48 b6 12 eb 0c b6
       -2.9240277e-06 -3.1186848e-06 -2.982054e-06 -2.0998455e-06
000190 a7 90 7c b5 68 49 35 b5 cf 8c 7c b5 9f 86 ec b5
       -9.408781e-07 -6.7534575e-07 -9.408222e-07 -1.762255e-06
0001a0 a6 2d 01 b6 10 0d a6 b5 98 fc b8 b5 07 87 ed b4
       -1.9249069e-06 -1.2371765e-06 -1.3782583e-06 -4.4242935e-07
0001b0 2d ff 94 b4 12 10 a9 b5 0f 33 11 b6 dc d1 88 b6
       -2.7752813e-07 -1.2596158e-06 -2.1636404e-06 -4.0775467e-06
0001c0 cf 39 e2 b6 73 e0 12 b7 d0 b3 6f b7 45 55 88 b7
       -6.7420547e-06 -8.754537e-06 -1.4287376e-05 -1.625217e-05
0001d0 d3 f1 a8 b7 42 77 bd b7 02 4d b6 b7 12 39 a6 b7
       -2.0139769e-05 -2.258609e-05 -2.173195e-05 -1.9815318e-05
0001e0 9b cb 73 b7 1a 28 53 b7 3a e0 00 b7 dc ac 87 b6
       -1.4531334e-05 -1.2585917e-05 -7.681601e-06 -4.043437e-06
0001f0 b6 d9 0a b6 74 1a 8c b5 7b ab 6a b5 3a d2 63 35
       -2.0690327e-06 -1.0438512e-06 -8.742133e-07 8.487001e-07
000200 c3 72 ca b4 a0 74 6c 35 70 fb 64 b5 e5 ea 90 b5
       -3.7708932e-07 8.808656e-07 -8.530251e-07 -1.0797199e-06
000210 fc 57 2d b6 ca 1e 88 b6 4c 03 04 b7 5c e5 5a b7
       -2.5830223e-06 -4.0567e-06 -7.868581e-06 -1.3047214e-05
000220 50 cb 4e b7 68 c2 ad b7 1e 8b b7 b7 54 f8 b7 b7
       -1.2325894e-05 -2.0713735e-05 -2.1880081e-05 -2.1930937e-05
000230 d6 9c a9 b7 e9 88 8a b7 f8 e5 71 b7 76 5f 17 b7
       -2.0219402e-05 -1.6514636e-05 -1.4418263e-05 -9.022528e-06
000240 8d 1d e4 b6 70 74 7f b6 04 fb 18 b6 43 d2 57 b5
       -6.7983697e-06 -3.8065737e-06 -2.2795875e-06 -8.039971e-07
000250 5e 8a a1 b4 5a db fe b4 2c 35 b8 b5 61 42 cb b5
       -3.0089262e-07 -4.7470786e-07 -1.3724543e-06 -1.5143997e-06
000260 09 84 fa b5 69 72 c8 b5 49 50 47 b5 f2 0e 5b b5
       -1.8664879e-06 -1.4934459e-06 -7.425011e-07 -8.1605606e-07
000270 8e f1 33 b5 11 f4 e9 b5 d6 c9 2e b6 28 7e 6b b6
       -6.7034205e-07 -1.7430885e-06 -2.6045504e-06 -3.5091161e-06
000280 7e c6 40 b6 11 9e 16 b6 0a 0c 02 b6 00 fa 79 b5
       -2.8725767e-06 -2.2443749e-06 -1.9378517e-06 -9.3123526e-07
000290 48 58 7b 34 2c db 54 b3 1f 80 b6 b5 1e 7d 6f b6
       2.3408313e-07 -4.9559432e-08 -1.3597345e-06 -3.5686603e-06
0002a0 6e dc eb b6 ba 16 2b b7 6f 62 5f b7 9c 05 7e b7
       -7.029207e-06 -1.0197686e-05 -1.3314754e-05 -1.5140886e-05
0002b0 55 bd 8a b7 4d 6b 8c b7 e8 f9 8a b7 db a2 78 b7
       -1.6539047e-05 -1.6739266e-05 -1.6567254e-05 -1.481987e-05
0002c0 09 cd 74 b7 73 ea 49 b7 16 8b 3c b7 0a 0e 04 b7
       -1.4591272e-05 -1.2035121e-05 -1.1238057e-05 -7.871082e-06
0002d0 90 25 ca b6 ec 8a 31 b6 b0 16 94 b5 d6 f8 92 b4
       -6.024442e-06 -2.6455918e-06 -1.1033462e-06 -2.737567e-07
0002e0 a8 47 ff b2 1a d7 19 33 e8 90 6e 32 de 06 ac b3
       -2.9718493e-08 3.5818722e-08 1.3886371e-08 -8.010623e-08
0002f0 52 5c 8b b3 7a 9b 93 b3 21 68 3b b3 d5 d5 b7 33
       -6.489485e-08 -6.873502e-08 -4.3634035e-08 8.5604974e-08
000300 2e a1 2d b3 3a d0 1d 34 9f 12 17 33 f3 8c 7c b3
       -4.0426293e-08 1.4697517e-07 3.5174363e-08 -5.8801515e-08
000310 02 e7 98 b3 64 ed ba b3 da d4 92 b3 d2 b4 35 b4
       -7.1200716e-08 -8.704481e-08 -6.837372e-08 -1.692272e-07
000320 e3 39 88 b3 ae 92 af b4 8c 49 d3 b4 3c 08 12 b5
       -6.343523e-08 -3.2703014e-07 -3.9355325e-07 -5.440122e-07
000330 07 9d 5a b5 0f e2 3c b5 a7 c5 4c b5 03 70 aa b5
       -8.1439833e-07 -7.0364416e-07 -7.6283544e-07 -1.2698587e-06
000340 a8 d8 bc b5 1c 36 84 b5 e5 e6 21 b5 59 d7 d5 b3
       -1.4070147e-06 -9.850514e-07 -6.031317e-07 -9.957757e-08
000350 dc 50 e7 b2 82 ed 39 b3 f2 93 58 33 44 d4 95 b4
       -2.692871e-08 -4.328968e-08 5.0425975e-08 -2.7907856e-07
000360 58 91 12 b6 a5 68 74 b6 1e 67 d2 b6 a6 54 08 b7
       -2.1840297e-06 -3.6419744e-06 -6.270492e-06 -8.12594e-06
000370 ee a5 2e b7 66 a1 3c b7 2c d2 4c b7 76 98 54 b7
       -1.0409842e-05 -1.1243252e-05 -1.2208282e-05 -1.2671682e-05
000380 70 27 51 b7 a6 0a 4b b7 1e 8c 4f b7 38 78 4f b7
       -1.2466553e-05 -1.2102222e-05 -1.2370785e-05 -1.2366152e-05
000390 b6 a8 5a b7 4b 44 46 b7 c9 72 40 b7 26 31 1e b7
       -1.3033094e-05 -1.181762e-05 -1.1470817e-05 -9.428977e-06
0003a0 43 63 ea b6 d3 48 85 b6 79 42 9b b5 88 0b 70 b2
       -6.985299e-06 -3.9721867e-06 -1.1567746e-06 -1.39724605e-08
0003b0 b1 60 98 33 46 aa 8e b5 e8 b6 67 b6 47 9d cb b6
       7.0956396e-08 -1.062938e-06 -3.4528148e-06 -6.068181e-06
0003c0 16 12 0e b7 70 6e 1b b7 ec b1 23 b7 b0 d9 19 b7
       -8.4680705e-06 -9.264433e-06 -9.756983e-06 -9.170195e-06
0003d0 16 ce fc b6 e0 12 8e b6 3e 31 cc b5 72 7e 1a b6
       -7.534177e-06 -4.234127e-06 -1.5213516e-06 -2.302139e-06
0003e0 b2 89 5b b6 d4 2d 23 b7 f9 81 a1 b7 58 23 d9 b7
       -3.2713692e-06 -9.726227e-06 -1.9253219e-05 -2.5884874e-05
0003f0 89 5f 0c b8 ab 3d 31 b8 dd 32 4c b8 c5 59 4f b8
       -3.3467575e-05 -4.225752e-05 -4.868476e-05 -4.943625e-05

exp_avg_sq f4 [1, 1, 256, 256]
000000 ae a8 04 31 b5 51 27 31 92 e0 14 31 0f 7e f4 30
       1.9304411e-09 2.4348144e-09 2.1664488e-09 1.7789165e-09
000010 4a 4d a2 30 40 c1 42 30 3f 4c ce 2f 25 cf f0 2e
       1.1809018e-09 7.0851414e-10 3.7525358e-10 1.0950733e-10
000020 2d c2 a8 2d ab f7 ce 2c de 2a d3 2c 2b 5b c3 2d
       1.918562e-11 5.882369e-12 6.00174e-12 2.220942e-11
000030 a9 8b 96 2e f6 3e d2 2e 70 03 fa 2e 28 51 d8 2e
       6.846019e-11 9.5608785e-11 1.13692944e-10 9.836959e-11
000040 8e db b6 2e d2 a0 48 2e 87 3b a6 2d 0a ad 44 2c
       8.3154025e-11 4.5617572e-11 1.889845e-11 2.7949331e-12
000050 0e 8a ab 2a 84 68 ce 2a 83 8d 3a 2c 30 d8 a6 2d
       3.0471497e-13 3.6665473e-13 2.6510745e-12 1.8968022e-11
000060 52 a8 51 2e 3c 59 d3 2e 5d 33 17 2f 24 08 39 2f
       4.7670597e-11 9.61102e-11 1.3751618e-10 1.6828544e-10
000070 f0 45 41 2f e7 07 41 2f 7c b4 3e 2f 16 68 40 2f
       1.7578095e-10 1.7556055e-10 1.734452e-10 1.7499277e-10
000080 2d b0 46 2f 01 82 46 2f 89 88 42 2f 6d cf 17 2f
       1.8070585e-10 1.8054182e-10 1.7692704e-10 1.3807062e-10
000090 56 e3 14 2f a4 8a ae 2e 50 f9 80 2e e2 9a d9 2d
       1.3541288e-10 7.9372314e-11 5.865053e-11 2.4738826e-11
0000a0 01 aa 2e 2d ac 9c 60 2c 6a 2d 85 2b 23 be b8 2a
       9.928503e-12 3.1919285e-12 9.462823e-13 3.28169e-13
0000b0 49 98 13 2b ba dc 82 2b a9 24 12 2c fc 93 88 2c
       5.243623e-13 9.29832e-13 2.0768198e-12 3.881782e-12
0000c0 82 ba b7 2c 3d df f1 2c 85 17 e4 2c 2b da a9 2c
       5.2218794e-12 6.8744164e-12 6.482761e-12 4.8274904e-12
0000d0 0a 04 91 2c dd f2 43 2c a8 f1 ef 2b 91 f0 70 2b
       4.1215963e-12 2.7845983e-12 1.7049044e-12 8.559898e-13
0000e0 a0 83 36 2b 54 1e 7f 2b 98 67 07 2b df 69 05 2b
       6.4842055e-13 9.063629e-13 4.81054e-13 4.739802e-13
0000f0 4a fd 13 2b 17 7d 49 2b 25 f2 63 2b 8d fd 19 2b
       5.25764e-13 7.158314e-13 8.0982644e-13 5.470839e-13
000100 76 1a ed 2a 9c 46 b8 2a 67 5e f4 2a 5b eb 0a 2b
       4.2118018e-13 3.273396e-13 4.3408612e-13 4.935407e-13
000110 aa 9f d3 2a ce a8 ad 2a 03 3a 92 2a 6a 86 a0 2a
       3.7591919e-13 3.0848105e-13 2.5975064e-13 2.8514978e-13
000120 f5 09 ae 2a dc 87 63 2b c2 f5 62 2c 5a ed 70 2d
       3.0915518e-13 8.0835143e-13 3.2252955e-12 1.3695123e-11
000130 28 7d 44 2e c3 9b b3 2e b6 da 13 2f fb f4 47 2f
       4.46764e-11 8.1676464e-11 1.3447274e-10 1.8185979e-10
000140 d1 07 86 2f f4 a5 96 2f d4 5c b7 2f 49 82 b3 2f
       2.4380012e-10 2.7402758e-10 3.3353464e-10 3.2652483e-10
000150 15 c4 af 2f 2a 04 86 2f a5 78 4d 2f 61 33 01 2f
       3.197164e-10 2.4377417e-10 1.8687503e-10 1.1750735e-10
000160 0a 3b 9b 2e 56 5e d0 2d 80 90 aa 2c 96 7d da 2b
       7.0590714e-11 2.3688756e-11 4.8477333e-12 1.5524689e-12
000170 50 75 19 2c db bf 73 2c 7c 1e 04 2d 57 6d 3e 2d
       2.180773e-12 3.4638878e-12 7.5101e-12 1.0824528e-11
000180 7e 90 66 2d 85 88 78 2d 01 22 64 2d 51 f7 21 2d
       1.310607e-11 1.4127481e-11 1.296785e-11 9.206706e-12
000190 86 0d d8 2c e9 fe bd 2c d8 d9 eb 2c a0 90 30 2d
       6.1405906e-12 5.400004e-12 6.7032872e-12 1.0036555e-11
0001a0 1d 26 43 2d 82 46 19 2d 50 49 eb 2c 93 6d 9b 2c
       1.10929295e-11 8.712699e-12 6.687241e-12 4.41753e-12
0001b0 df 35 6e 2c 15 c3 ad 2c 80 b5 43 2d 5d ea 0a 2e
       3.3851739e-12 4.938614e-12 1.1124768e-11 3.1585724e-11
0001c0 3f 12 a3 2e bf 06 ef 2e ac fa 85 2f de ea c5 2f
       7.415623e-11 1.086966e-10 2.4370672e-10 3.6000974e-10
0001d0 a7 d9 01 30 5c f4 29 30 36 14 1d 30 a8 f4 0c 30
       4.723923e-10 6.18291e-10 5.714499e-10 5.127938e-10
0001e0 f1 0f c6 2f 28 d3 84 2f b6 ff 08 2f 0d 3b 79 2e
       3.6027317e-10 2.4160696e-10 1.2459975e-10 5.6668493e-11
0001f0 83 75 7a 2e d9 ed cf 2e 22 30 1f 2f f9 01 86 2f
       5.694779e-11 9.4555204e-11 1.4478066e-10 2.437586e-10
000200 53 cd d1 2f b8 a7 85 2f 54 16 1f 2f 6a 32 d0 2e
       3.816277e-10 2.431173e-10 1.4468898e-10 9.4677e-11
000210 88 dd 83 2e 2c c2 79 2e 89 d8 0c 2f 57 1f 8c 2f
       5.996542e-11 5.6788504e-11 1.2809855e-10 2.548812e-10
000220 be 6b a1 2f 09 3d 17 30 79 d3 1e 30 d3 9b 21 30
       2.9362285e-10 5.5020216e-10 5.7780586e-10 5.87929e-10
000230 7c bc 02 30 ee 11 cb 2f bd 0a 88 2f d2 a0 f9 2e
       4.7561577e-10 3.6938225e-10 2.4745886e-10 1.13517765e-10
000240 ba e1 a4 2e a7 7f 00 2e 32 69 4e 2d 09 05 83 2c
       7.4979536e-11 2.921721e-11 1.1733102e-11 3.723803e-12
000250 a4 6c 70 2c 92 ac 9d 2c f2 8e ea 2c 5f 4d 2c 2d
       3.416636e-12 4.4813675e-12 6.66655e-12 9.794248e-12
000260 4a 06 3e 2d 0a a2 1b 2d 88 c8 d7 2c fb 5e c7 2c
       1.0801646e-11 8.84671e-12 6.132931e-12 5.666465e-12
000270 14 be c4 2c 4f 89 06 2d 90 1f 3d 2d 4a 32 94 2d
       5.591758e-12 7.647507e-12 1.07504144e-11 1.6847985e-11
000280 dd 31 61 2d 7b 91 2c 2d 9d 87 0e 2d 45 43 7b 2c
       1.2800841e-11 9.809371e-12 8.101878e-12 3.5706587e-12
000290 3b 60 17 2c 76 71 d6 2b 0e ca a7 2c f2 f5 b7 2d
       2.151181e-12 1.5237106e-12 4.768858e-12 2.0913913e-11
0002a0 b6 df 8a 2e 4c d3 02 2f e7 65 4f 2f 2d 23 8c 2f
       6.3152525e-11 1.1898499e-10 1.8862743e-10 2.5490846e-10
0002b0 3e 10 b6 2f 81 da b3 2f 09 ce af 2f ce 22 94 2f
       3.3117148e-10 3.2715167e-10 3.197871e-10 2.6945773e-10
0002c0 b1 32 84 2f e6 51 3e 2f 7e 6f 1f 2f f8 bd ac 2e
       2.4046679e-10 1.7309496e-10 1.4500576e-10 7.8554e-11
0002d0 c6 f4 48 2e c6 8b 71 2d d8 ae 7a 2c c7 e7 7c 2b
       4.5692138e-11 1.37303e-11 3.5624195e-12 8.985004e-13
0002e0 f2 07 ae 2a fc f2 9f 2a 40 c0 91 2a 56 80 ac 2a
       3.0914122e-13 2.8412678e-13 2.5890574e-13 3.0642389e-13
0002f0 bd 55 d2 2a 09 2b 0b 2b 96 13 f0 2a 8f 11 b9 2a
       3.7362987e-13 4.9442443e-13 4.2646155e-13 3.2874785e-13
000300 83 75 e6 2a 24 f4 19 2b ad 99 63 2b 84 6c 49 2b
       4.0937747e-13 5.469533e-13 8.085987e-13 7.156014e-13
000310 92 22 13 2b 03 b1 07 2b a1 b3 08 2b 91 19 7f 2b
       5.2272867e-13 4.820729e-13 4.856619e-13 9.062968e-13
000320 ef fb 39 2b 06 9a 7b 2b 49 e0 f2 2b 36 7f 46 2c
       6.607483e-13 8.9386864e-13 1.7257386e-12 2.8208109e-12
000330 a5 bc 96 2c be 8d a4 2c 21 e3 df 2c e3 93 e4 2c
       4.2842e-12 4.676897e-12 6.3632576e-12 6.4965685e-12
000340 41 07 cb 2c 3a bc a2 2c 5e d8 23 2c fe 81 82 2b
       5.7704124e-12 4.6252143e-12 2.3283801e-12 9.273136e-13
000350 d9 d4 13 2b 92 43 ba 2a 39 01 87 2b a6 42 5a 2c
       5.2520277e-13 3.3087124e-13 9.592666e-13 3.101666e-12
000360 a8 f3 27 2d 5f cb cf 2d d5 c9 7a 2e e8 30 ac 2e
       9.5469535e-12 2.362349e-11 5.702268e-11 7.830342e-11
000370 6e 1c 16 2f b9 45 22 2f 84 7c 43 2f d3 f7 50 2f
       1.3652521e-10 1.4758585e-10 1.7779384e-10 1.9005535e-10
000380 e1 68 4f 2f b4 17 43 2f 85 e0 45 2f db 12 44 2f
       1.8863801e-10 1.7743568e-10 1.7996811e-10 1.7832795e-10
000390 1f 76 44 2f fb df 33 2f 6f 37 1a 2f 58 91 da 2e
       1.7868061e-10 1.6359529e-10 1.4025912e-10 9.9393105e-11
0003a0 a7 1b 65 2e 9d 52 aa 2d 68 88 39 2c 7d 49 ce 2a
       5.2093132e-11 1.936345e-11 2.6365802e-12 3.6643944e-13
0003b0 f3 ce ae 2a 1c 57 35 2c 86 d5 92 2d 8a 93 45 2e
       3.105221e-13 2.5770002e-12 1.6693102e-11 4.4923655e-11
0003c0 58 84 b4 2e 04 1d cf 2e fc 55 f1 2e e6 c8 cf 2e
       8.208961e-11 9.4184244e-11 1.0974685e-10 9.448957e-11
0003d0 5e d0 90 2e 57 2b ba 2d c2 4d ce 2c 6e e1 f5 2c
       6.585375e-11 2.1164999e-11 5.863505e-12 6.9883465e-12
0003e0 fc 69 ad 2d 8c 4e ef 2e 78 e5 cb 2f e1 59 43 30
       1.971489e-11 1.08824144e-10 3.7088532e-10 7.106831e-10
0003f0 ee dc a3 30 fa 9d f5 30 06 bb 14 31 36 9c 27 31
       1.1922603e-09 1.7870996e-09 2.1643145e-09 2.4390494e-09

loss f8 []
000000 3a b7 23 e8 c7 94 56 40
       90.32470134246697
