weights/e170.pth (torch, 788191 bytes, 4 tensors)

weights f4 [1, 1, 256, 256]
0	0x40b8b5f6	5.772212
1	0x40b525c2	5.660859
2	0x40b59b11	5.675179
3	0x40ba6726	5.8250914
4	0x40ba16de	5.8152914
5	0x40b98451	5.797402
6	0x40ad2bf6	5.4116163
7	0x40ae7d2d	5.4527802
8	0x409519f0	4.659416
9	0x409f360e	4.9753485
10	0x40941cc4	4.6285114
11	0x40a54bc6	5.1654997
12	0x40abbb31	5.3666005
13	0x40ab1e96	5.3474836
14	0x40aa9460	5.330612
15	0x40ab53ad	5.3539643
16	0x40aa6e73	5.3259826
17	0x40a51f7a	5.1600924
18	0x40a0c90c	5.024542
19	0x4093ab46	4.6146574
20	0x40410644	3.0160074
21	0x4032f2e6	2.7960753
22	0x4090fb16	4.53065
23	0x40a537de	5.1630697
24	0x40b056a7	5.5105777
25	0x40b042e4	5.5081654
26	0x40ada30e	5.426154
27	0x40acef4f	5.4042125
28	0x40af3ea3	5.476396
29	0x40b21d90	5.5661087
30	0x40b05d9f	5.5114284
31	0x40aceb2a	5.4037066
32	0x40b1da1a	5.5578737
33	0x40b3a488	5.6138344
34	0x40b04536	5.5084486
35	0x40af07d4	5.4697056
36	0x40aec3be	5.4613943
37	0x40a78cd0	5.235939
38	0x40a4251c	5.12953
39	0x409fe1c1	4.996308
40	0x4095b929	4.6788526
41	0x406ee167	3.7325075
42	0x404514ab	3.0793865
43	0x40003291	2.0030863
44	0x4001fb22	2.030953
45	0x404ee3b6	3.2326484
46	0x40864646	4.1960783
47	0x408f516f	4.4786906
48	0x409837e1	4.756821
49	0x408d39b6	4.413295
50	0x4088c76b	4.274343
51	0x4083c853	4.1182036
52	0x4083cdbe	4.118865
53	0x40826cf0	4.075798
54	0x4077a08a	3.8691735
55	0x405fec6d	3.4988053
56	0x4039bf16	2.902288
57	0x3ff9c06f	1.9511851
58	0x40151ba9	2.3298132
59	0x401e7e7a	2.4764695
60	0x401bff6d	2.437465
61	0x401063a6	2.256082
62	0x3ffff0d4	1.999537
63	0x40174e64	2.3641596
64	0x4019cfd2	2.4033093
65	0x40169c87	2.3533037
66	0x400b9c9e	2.1814342
67	0x3fee0b88	1.8597269
68	0x3ffc7b16	1.9725063
69	0x3fede20b	1.8584608
70	0x3fc248fe	1.5178525
71	0x3fbefc6a	1.4920781
72	0x400db101	2.2139285
73	0x405eb77b	3.4799488
74	0x408f7ddf	4.484115
75	0x409c41d6	4.8830366
76	0x40a52b38	5.1615257
77	0x40a4cd56	5.1500654
78	0x40b59c5e	5.675338
79	0x40a5ccca	5.1812487
80	0x40ac69fc	5.3879375
81	0x40afaca4	5.4898243
82	0x40acb477	5.3970294
83	0x40b0cc8d	5.5249696
84	0x40ae8689	5.4539227
85	0x40b5047b	5.656797
86	0x40aa62d0	5.324562
87	0x40ac262a	5.3796587
88	0x40a4a450	5.1450577
89	0x409d7824	4.9209156
90	0x4094e366	4.6527586
91	0x40648676	3.5707068
92	0x404cc100	3.1992798
93	0x4084e48d	4.1528993
94	0x4098f328	4.779682
95	0x40990123	4.7813888
96	0x409c1537	4.8775897
97	0x409dde71	4.9334035
98	0x40975872	4.7295465
99	0x408bb49e	4.365798
100	0x407ce5bd	3.951522
101	0x407e7542	3.9759068
102	0x4089c250	4.30497
103	0x4090ac67	4.521045
104	0x40984659	4.7585874
105	0x40984522	4.758439
106	0x4091812f	4.5470195
107	0x4085b259	4.178021
108	0x40662094	3.5957384
109	0x40836d71	4.1071095
110	0x4096d2db	4.713239
111	0x4099c6ca	4.8055162
112	0x409ebddf	4.9606776
113	0x40aac072	5.335992
114	0x40a81f1f	5.253799
115	0x40af025b	5.4690375
116	0x40ae4fb4	5.4472294
117	0x40a68b2f	5.20449
118	0x40ad27f5	5.4111276
119	0x40aa6e8c	5.3259945
120	0x40a1f574	5.0612125
121	0x40a2fd58	5.0934258
122	0x40a21518	5.065075
123	0x408f371e	4.475478
124	0x4080be1c	4.0232067
125	0x402416de	2.5638957
126	0x401d3b6b	2.4567516
127	0x400a5031	2.1611445
128	0x3fcd0a73	1.6018814
129	0x400a6694	2.1625109
130	0x401d5371	2.4582179
131	0x4023e612	2.5609174
132	0x407d7953	3.96053
133	0x408f2864	4.4736805
134	0x40a134b1	5.037682
135	0x40a0dbca	5.0268297
136	0x40ab1580	5.3463745
137	0x40a59f47	5.175693
138	0x40ac4fe5	5.3847528
139	0x40ab64a2	5.3560343
140	0x40ad9c94	5.4253635
141	0x40acdc73	5.4019103
142	0x40a6dcba	5.214444
143	0x40a7fe0b	5.249761
144	0x409e2f3a	4.943265
145	0x409c791b	4.8897834
146	0x4095973e	4.674712
147	0x40889782	4.2684946
148	0x406594cb	3.5872066
149	0x408558f3	4.167108
150	0x40919339	4.5492215
151	0x40953839	4.663113
152	0x4098fb39	4.780667
153	0x4093f978	4.6242027
154	0x408c037a	4.3754244
155	0x407adce7	3.9197328
156	0x4081ad53	4.0524077
157	0x40904234	4.5080814
158	0x409c444a	4.883336
159	0x409885d5	4.766337
160	0x409cd6a4	4.9012012
161	0x409bbd49	4.866856
162	0x4096ed3f	4.7164607
163	0x40841955	4.1280923
164	0x404db52e	3.2141833
165	0x4065558c	3.5833464
166	0x40953c5d	4.6636186
167	0x40a22ea7	5.068195
168	0x40ac369a	5.381665
169	0x40aaff41	5.343659
170	0x40a94b1f	5.29042
171	0x40af6e5a	5.4822206
172	0x40a964ae	5.29354
173	0x40b08533	5.5162597
174	0x40b33896	5.6006575
175	0x40b1efe2	5.5605326
176	0x40ae3605	5.444094
177	0x40ab8748	5.360264
178	0x40add9f4	5.4328556
179	0x40a7c087	5.242252
180	0x40a3d1ed	5.1193757
181	0x409c2b91	4.880318
182	0x408d04e8	4.406849
183	0x405bc0f8	3.4336529
184	0x400db101	2.2139285
185	0x3fbefc74	1.4920793
186	0x3fc2491d	1.5178562
187	0x3fede2b5	1.858481
188	0x3ffc7b95	1.9725214
189	0x3fee0b65	1.8597227
190	0x400b9fba	2.181624
191	0x40169bf3	2.3532684
192	0x4019d4da	2.4036164
193	0x40174e7e	2.3641658
194	0x3ffff1bd	1.9995648
195	0x40106402	2.256104
196	0x401c01a1	2.4375994
197	0x401e767f	2.4759824
198	0x4015134c	2.3293028
199	0x3ff9c082	1.9511874
200	0x40395c61	2.8962634
201	0x405e6986	3.4751906
202	0x4076ec89	3.858187
203	0x40820485	4.0630517
204	0x40826ab2	4.0755243
205	0x408535ea	4.1628313
206	0x408982d7	4.2972217
207	0x408f39d4	4.475809
208	0x40952041	4.6601872
209	0x408acb9a	4.3373537
210	0x408338f9	4.1007047
211	0x404efbcd	3.2341187
212	0x4001fb0e	2.0309482
213	0x400032b1	2.003094
214	0x404493e7	3.0715272
215	0x407189a9	3.774027
216	0x409741ac	4.7267666
217	0x40a24b02	5.071656
218	0x40a61702	5.1903086
219	0x40a8bf1c	5.273329
220	0x40adda56	5.4329023
221	0x40a738a5	5.2256646
222	0x40afa392	5.488717
223	0x40acf8c5	5.4053674
224	0x40ac3c2e	5.382346
225	0x40ab0bbc	5.3451824
226	0x40ab9384	5.3617573
227	0x40affafa	5.499387
228	0x40ad2b5f	5.4115443
229	0x40b097f1	5.5185475
230	0x40ab682e	5.3564672
231	0x40ad0395	5.4066873
232	0x40aa7393	5.326608
233	0x40a44aa5	5.134112
234	0x40911549	4.5338483
235	0x4032f3c6	2.7961287
236	0x4040e2e6	3.0138488
237	0x40955500	4.666626
238	0x40a64097	5.1953845
239	0x40a62b6d	5.192801
240	0x40ab8fb9	5.3612943
241	0x40afa1fc	5.4885235
242	0x40adffa8	5.437458
243	0x40ac347b	5.3814063
244	0x40aeac70	5.4585495
245	0x40a7b01b	5.2402472
246	0x4094c7c4	4.6493855
247	0x409a4daa	4.8219805
248	0x409398c6	4.612399
249	0x40af3205	5.474856
250	0x40af43dd	5.477034
251	0x40b8bee9	5.7733045
252	0x40b6c500	5.711548
253	0x40b8a31b	5.7699103
254	0x40b60aa1	5.6887975
255	0x40b44797	5.633739

exp_avg f4 [1, 1, 256, 256]
0	0xb83ad4fb	-4.454421e-05
1	0xb84f70f0	-4.9457827e-05
2	0xb845047e	-4.6972644e-05
3	0xb836db48	-4.3596403e-05
4	0xb80e4e44	-3.392833e-05
5	0xb7e2b545	-2.702571e-05
6	0xb79f335e	-1.8978197e-05
7	0xb72da45f	-1.0349874e-05
8	0xb6511181	-3.1153616e-06
9	0xb608ea0a	-2.0401808e-06
10	0xb5c6f113	-1.4822311e-06
11	0xb687bf6a	-4.045597e-06
12	0xb703019d	-7.808584e-06
13	0xb717dcdb	-9.051723e-06
14	0xb72a630b	-1.015585e-05
15	0xb72335e4	-9.7281045e-06
16	0xb7110412	-8.643621e-06
17	0xb6cee766	-6.1662167e-06
18	0xb688ca6b	-4.0766804e-06
19	0xb58e5122	-1.0603437e-06
20	0x32b59abe	2.1141542e-08
21	0xb45efaf0	-2.0766652e-07
22	0xb5b628c3	-1.357192e-06
23	0xb6885456	-4.062934e-06
24	0xb6d1cbb5	-6.2524e-06
25	0xb71d658f	-9.381575e-06
26	0xb737281e	-1.09169905e-05
27	0xb74d1bcc	-1.2225424e-05
28	0xb74e62fb	-1.23016025e-05
29	0xb74bd836	-1.2150083e-05
30	0xb7450ff5	-1.174583e-05
31	0xb746c7e5	-1.1848261e-05
32	0xb744c0c8	-1.1727396e-05
33	0xb74fe97f	-1.23925265e-05
34	0xb74758d0	-1.1882003e-05
35	0xb73077ce	-1.0518312e-05
36	0xb7372946	-1.091726e-05
37	0xb6feeab9	-7.597115e-06
38	0xb6e46ab6	-6.8073523e-06
39	0xb681da19	-3.8698895e-06
40	0xb60839f4	-2.0299312e-06
41	0xb4a889d5	-3.1392725e-07
42	0x3403d7fd	1.2278902e-07
43	0x33553d87	4.9648886e-08
44	0xb30c93a7	-3.273058e-08
45	0xb4a1a47c	-3.0108265e-07
46	0xb51fbb9e	-5.9505135e-07
47	0xb595c3ff	-1.1158407e-06
48	0xb5a4eac6	-1.228728e-06
49	0xb5c1ce68	-1.4439693e-06
50	0xb59b5da2	-1.1575651e-06
51	0xb5394a3f	-6.902591e-07
52	0xb56f86f2	-8.923081e-07
53	0xb4943d48	-2.7611736e-07
54	0xb45ce2db	-2.0571626e-07
55	0xb398440e	-7.0904306e-08
56	0xb31c5f42	-3.6408217e-08
57	0x326f20d6	1.3919097e-08
58	0xb32e7743	-4.0621e-08
59	0xb3202470	-3.7286043e-08
60	0xb2721de8	-1.4093054e-08
61	0x33b89b0c	8.5963705e-08
62	0xb2034d08	-7.6427185e-09
63	0xb2154518	-8.688652e-09
64	0x338e4dce	6.626543e-08
65	0xb2951df2	-1.73595e-08
66	0xb3a0e960	-7.493031e-08
67	0xb4158868	-1.392633e-07
68	0xb40e428f	-1.3248994e-07
69	0xb0ccd8c0	-1.4904558e-09
70	0xb41b94f3	-1.4489687e-07
71	0x32642eda	1.32819995e-08
72	0xb39aa357	-7.200895e-08
73	0x330f51d0	3.336919e-08
74	0xb537b2e7	-6.843315e-07
75	0xb631bd26	-2.6485154e-06
76	0xb6c18f0d	-5.7685015e-06
77	0xb703ba21	-7.851545e-06
78	0xb72a3cc9	-1.0146942e-05
79	0xb756aa62	-1.2795064e-05
80	0xb75e277a	-1.32414225e-05
81	0xb775a576	-1.4641662e-05
82	0xb78c9896	-1.6760354e-05
83	0xb78ead9d	-1.7008564e-05
84	0xb789c1d2	-1.6421927e-05
85	0xb76f6848	-1.426979e-05
86	0xb759c834	-1.2980821e-05
87	0xb71dcdd2	-9.4058505e-06
88	0xb7000269	-7.629956e-06
89	0xb68af09a	-4.14073e-06
90	0xb5c9f6d9	-1.5047509e-06
91	0xb399907c	-7.150899e-08
92	0xb49da2f5	-2.9362096e-07
93	0xb55dcf55	-8.2630623e-07
94	0xb6269d14	-2.482736e-06
95	0xb62de973	-2.5914894e-06
96	0xb659f8db	-3.2480373e-06
97	0xb6542c30	-3.1616182e-06
98	0xb654108a	-3.1600089e-06
99	0xb6244e40	-2.4483452e-06
100	0xb5b1fc8e	-1.3261031e-06
101	0xb5578482	-8.0286566e-07
102	0xb5bc5138	-1.4030729e-06
103	0xb60b2926	-2.0736566e-06
104	0xb6398144	-2.764239e-06
105	0xb60c90a5	-2.094582e-06
106	0xb5f20520	-1.8031897e-06
107	0xb58142f0	-9.63073e-07
108	0xb49233fe	-2.7232448e-07
109	0xb5c0fb69	-1.4378285e-06
110	0xb627a273	-2.4979497e-06
111	0xb692bfce	-4.373468e-06
112	0xb6e30f49	-6.7669066e-06
113	0xb711be7d	-8.687025e-06
114	0xb75be757	-1.310728e-05
115	0xb7852e6a	-1.5876449e-05
116	0xb79c1d46	-1.861028e-05
117	0xb7b286f3	-2.1282094e-05
118	0xb7ab0308	-2.03862e-05
119	0xb7aaebbc	-2.0375352e-05
120	0xb776f52e	-1.4719828e-05
121	0xb742fd30	-1.1622251e-05
122	0xb703a857	-7.847403e-06
123	0xb601784f	-1.9292527e-06
124	0xb53661bb	-6.79425e-07
125	0x35867934	1.0019053e-06
126	0x35ce5df3	1.5375539e-06
127	0x36052fa2	1.984627e-06
128	0x366d43ed	3.535529e-06
129	0x360760f5	2.0173004e-06
130	0x35d14288	1.5591077e-06
131	0x35818b64	9.651817e-07
132	0xb5a065fe	-1.1950613e-06
133	0xb60260ae	-1.9427785e-06
134	0xb7069d38	-8.023628e-06
135	0xb74b0e6c	-1.2103101e-05
136	0xb753db7e	-1.2627685e-05
137	0xb7b1f189	-2.1212518e-05
138	0xb7ac35cd	-2.052905e-05
139	0xb7ace6c2	-2.0611453e-05
140	0xb79cc830	-1.8689869e-05
141	0xb7878a1b	-1.6157564e-05
142	0xb75e169e	-1.3237497e-05
143	0xb7161afd	-8.94698e-06
144	0xb6e4fe20	-6.8245135e-06
145	0xb68a270c	-4.117266e-06
146	0xb62f3bb1	-2.6111777e-06
147	0xb584c9d0	-9.893502e-07
148	0xb49eaf1e	-2.9557208e-07
149	0xb5854be8	-9.931364e-07
150	0xb5f14249	-1.7975191e-06
151	0xb61d8f39	-2.347819e-06
152	0xb636087d	-2.7125054e-06
153	0xb5f28524	-1.8069154e-06
154	0xb5a24d13	-1.2092372e-06
155	0xb57cfe32	-9.424722e-07
156	0xb5908a69	-1.0769119e-06
157	0xb60ce9bb	-2.0997675e-06
158	0xb63addf6	-2.7845358e-06
159	0xb66fd36a	-3.5736834e-06
160	0xb6567a9c	-3.1959853e-06
161	0xb61ff761	-2.383684e-06
162	0xb62f59ab	-2.6129226e-06
163	0xb56d0cfb	-8.830827e-07
164	0xb48c1547	-2.6092513e-07
165	0xb334fa80	-4.2137344e-08
166	0xb5c6d90b	-1.4815317e-06
167	0xb67fcc40	-3.811685e-06
168	0xb6efb543	-7.1438567e-06
169	0xb71f09de	-9.479436e-06
170	0xb75aeee6	-1.3049435e-05
171	0xb775da9e	-1.4654039e-05
172	0xb78c9b88	-1.6761725e-05
173	0xb78ed5ba	-1.7027243e-05
174	0xb7892946	-1.6350892e-05
175	0xb7732bd6	-1.4494135e-05
176	0xb75c20fa	-1.31207e-05
177	0xb75064cb	-1.2421234e-05
178	0xb732b5a0	-1.0651915e-05
179	0xb70077db	-7.657301e-06
180	0xb6c45c03	-5.8519668e-06
181	0xb6322119	-2.6543332e-06
182	0xb561dbde	-8.413898e-07
183	0xb3898e67	-6.4054625e-08
184	0xb39aa357	-7.200895e-08
185	0x326439ca	1.3284486e-08
186	0xb41b92c7	-1.4488897e-07
187	0xb0c6dd00	-1.4469208e-09
188	0xb40e398e	-1.3245719e-07
189	0xb4158a8c	-1.392711e-07
190	0xb3a013fa	-7.454214e-08
191	0xb295c285	-1.743434e-08
192	0x338fbe36	6.6935556e-08
193	0xb2151204	-8.677038e-09
194	0xb20254a8	-7.5862445e-09
195	0x33b8b2ca	8.600689e-08
196	0xb26da98c	-1.3833766e-08
197	0xb32436e8	-3.8234163e-08
198	0xb3326c9c	-4.1542634e-08
199	0x326f3545	1.3923743e-08
200	0xb34c6308	-4.758752e-08
201	0xb3f79e7e	-1.15306634e-07
202	0xb4735604	-2.2662431e-07
203	0xb4a1b7d6	-3.0122345e-07
204	0xb5827db2	-9.722337e-07
205	0xb5246ea7	-6.125578e-07
206	0xb59575ee	-1.1135687e-06
207	0xb5b0acc0	-1.3163299e-06
208	0xb5bbd5cf	-1.3994812e-06
209	0xb5ba0005	-1.3858086e-06
210	0xb54dbcee	-7.664338e-07
211	0xb4a027ba	-2.9831227e-07
212	0xb30c9da8	-3.2739678e-08
213	0x33554eb3	4.9664504e-08
214	0x33e8d604	1.0842271e-07
215	0xb47917d4	-2.3198601e-07
216	0xb6025e94	-1.9426561e-06
217	0xb67a76f7	-3.732215e-06
218	0xb6e07654	-6.6894954e-06
219	0xb6fcbf5c	-7.5324624e-06
220	0xb738039a	-1.0968093e-05
221	0xb737d380	-1.0956894e-05
222	0xb747f063	-1.1917294e-05
223	0xb75649f8	-1.2772616e-05
224	0xb74a29fa	-1.2049912e-05
225	0xb7486d61	-1.1946396e-05
226	0xb7497ce2	-1.200961e-05
227	0xb74db938	-1.2262077e-05
228	0xb750754c	-1.2425076e-05
229	0xb74a02b3	-1.2040767e-05
230	0xb7393338	-1.1038785e-05
231	0xb720617b	-9.55944e-06
232	0xb6dd112e	-6.588313e-06
233	0xb689f254	-4.111129e-06
234	0xb5b56fcd	-1.3518089e-06
235	0xb45ee0e4	-2.0757176e-07
236	0x329502cd	1.7347157e-08
237	0xb5826af9	-9.716888e-07
238	0xb67e0bcb	-3.7855814e-06
239	0xb6cd0cda	-6.110972e-06
240	0xb70fee0d	-8.57889e-06
241	0xb71f3f80	-9.491923e-06
242	0xb726e276	-9.947098e-06
243	0xb716d7bf	-8.990929e-06
244	0xb7003e87	-7.643953e-06
245	0xb683755d	-3.917767e-06
246	0xb5c20266	-1.4454824e-06
247	0xb619ee36	-2.2937434e-06
248	0xb656c940	-3.2005628e-06
249	0xb72d0ec2	-1.031504e-05
250	0xb79e3517	-1.885979e-05
251	0xb7e31354	-2.7069509e-05
252	0xb80f017c	-3.409524e-05
253	0xb83745af	-4.3695498e-05
254	0xb844eb0f	-4.6948957e-05
255	0xb84f9fdd	-4.950153e-05

exp_avg_sq f4 [1, 1, 256, 256]
0	0x31054252	1.9391746e-09
1	0x3127efeb	2.4438076e-09
2	0x311577d8	2.1750477e-09
3	0x30f53266	1.784042e-09
4	0x30a2f414	1.1856423e-09
5	0x3043567e	7.10635e-10
6	0x2fce9dce	3.758331e-10
7	0x2ef04e5b	1.0927855e-10
8	0x2da76798	1.9031707e-11
9	0x2cca7ae4	5.754829e-12
10	0x2ccadfba	5.766024e-12
11	0x2dbeee8d	2.1706437e-11
12	0x2e957791	6.796975e-11
13	0x2ed0eb15	9.500504e-11
14	0x2ef91740	1.1327339e-10
15	0x2ed71012	9.779923e-11
16	0x2eb60205	8.2767605e-11
17	0x2e465b36	4.5101e-11
18	0x2da396fb	1.8598003e-11
19	0x2c3c3132	2.6743716e-12
20	0x2aad9af8	3.0838504e-13
21	0x2acd7766	3.6498165e-13
22	0x2c30fe94	2.5152424e-12
23	0x2da40812	1.8648225e-11
24	0x2e501ab9	4.731746e-11
25	0x2ed1f339	9.547425e-11
26	0x2f16b45f	1.3706501e-10
27	0x2f396180	1.6860291e-10
28	0x2f40dad1	1.7540037e-10
29	0x2f406f9b	1.7501949e-10
30	0x2f3df078	1.7274882e-10
31	0x2f40251f	1.7475486e-10
32	0x2f45fdc8	1.8007207e-10
33	0x2f45b6ab	1.7981942e-10
34	0x2f4224c3	1.7657258e-10
35	0x2f173d1d	1.3755082e-10
36	0x2f13f18b	1.3455385e-10
37	0x2ead1c9e	7.8722126e-11
38	0x2e7eb186	5.7910586e-11
39	0x2dd51cd8	2.4228106e-11
40	0x2d2c911c	9.809289e-12
41	0x2c582823	3.0717727e-12
42	0x2b85f296	9.51755e-13
43	0x2ab39fa7	3.1907568e-13
44	0x2b13720b	5.238316e-13
45	0x2b831e9e	9.316608e-13
46	0x2c0d4e9d	2.0080944e-12
47	0x2c867c79	3.8223283e-12
48	0x2cb138e7	5.03696e-12
49	0x2ce88477	6.608543e-12
50	0x2cdcd10f	6.2759862e-12
51	0x2ca5fccd	4.7176486e-12
52	0x2c8cf57c	4.0062936e-12
53	0x2c406a0a	2.7343705e-12
54	0x2be86064	1.6511345e-12
55	0x2b6f8aad	8.510231e-13
56	0x2b31d84c	6.3183204e-13
57	0x2b7cbd76	8.9791315e-13
58	0x2b063dd1	4.769215e-13
59	0x2b069478	4.7812405e-13
60	0x2b0feae9	5.112981e-13
61	0x2b45bead	7.0253075e-13
62	0x2b5e6cc4	7.9021186e-13
63	0x2b167f5f	5.346747e-13
64	0x2ae9028a	4.1390876e-13
65	0x2ab67e6f	3.2417425e-13
66	0x2af52988	4.354956e-13
67	0x2b0a4a23	4.9130334e-13
68	0x2ace2c49	3.662368e-13
69	0x2aac0945	3.055977e-13
70	0x2a93d972	2.6263329e-13
71	0x2aa0d7cd	2.857145e-13
72	0x2aad5789	3.0791713e-13
73	0x2b61528d	8.005062e-13
74	0x2c5b89c7	3.1198254e-12
75	0x2d6ad01f	1.3347572e-11
76	0x2e415dfc	4.3966594e-11
77	0x2eb194c8	8.075457e-11
78	0x2f1313f8	1.3376666e-10
79	0x2f476d2d	1.8137732e-10
80	0x2f856856	2.4266694e-10
81	0x2f96311e	2.731974e-10
82	0x2fb7a8c0	3.340741e-10
83	0x2fb3090d	3.256634e-10
84	0x2faef983	3.1827704e-10
85	0x2f856ff4	2.4272107e-10
86	0x2f4c9e13	1.8609851e-10
87	0x2f003bb5	1.1662744e-10
88	0x2e9980b8	6.9804995e-11
89	0x2dcc1f50	2.320602e-11
90	0x2ca3d81a	4.6567307e-12
91	0x2bd3a082	1.5037002e-12
92	0x2c14ad77	2.1128357e-12
93	0x2c68a6d1	3.3061785e-12
94	0x2d00b96e	7.317131e-12
95	0x2d3741d1	1.041696e-11
96	0x2d6169f0	1.2813292e-11
97	0x2d72dad7	1.38047e-11
98	0x2d5ebfdd	1.2661841e-11
99	0x2d1c11e6	8.871548e-12
100	0x2cd19086	5.9561826e-12
101	0x2cbbfe77	5.343111e-12
102	0x2ce5f034	6.5352394e-12
103	0x2d2aa37d	9.699683e-12
104	0x2d3d1f31	1.0750332e-11
105	0x2d11a620	8.279183e-12
106	0x2ce0a000	6.3842265e-12
107	0x2c964ac4	4.271557e-12
108	0x2c68b01e	3.3066948e-12
109	0x2ca4e0a7	4.6861018e-12
110	0x2d3cac2e	1.0724794e-11
111	0x2e07ffc8	3.0922626e-11
112	0x2ea03188	7.284756e-11
113	0x2eec0121	1.0732238e-10
114	0x2f84f867	2.418716e-10
115	0x2fc435ad	3.569033e-10
116	0x30014d8e	4.704014e-10
117	0x3028eef4	6.1457617e-10
118	0x301bd3d4	5.66897e-10
119	0x300bb67c	5.082723e-10
120	0x2fc2348a	3.5325726e-10
121	0x2f8299ed	2.3756233e-10
122	0x2f05885f	1.2144728e-10
123	0x2e734258	5.5310728e-11
124	0x2e770836	5.616859e-11
125	0x2ecd11bd	9.3254716e-11
126	0x2f1d84ed	1.4326292e-10
127	0x2f83121b	2.3841626e-10
128	0x2fd015d5	3.7850492e-10
129	0x2f82cb72	2.379142e-10
130	0x2f1d72b6	1.431982e-10
131	0x2ecd40ea	9.333852e-11
132	0x2e818c33	5.891145e-11
133	0x2e73c1f5	5.542407e-11
134	0x2f0950df	1.2488809e-10
135	0x2f89d1e0	2.506928e-10
136	0x2f9de43a	2.8720298e-10
137	0x3015f6e0	5.4556715e-10
138	0x301d9336	5.7325467e-10
139	0x30209408	5.8418026e-10
140	0x3002308f	4.736273e-10
141	0x2fc959d3	3.662551e-10
142	0x2f870713	2.4561383e-10
143	0x2ef68e5b	1.1212072e-10
144	0x2ea1fd70	7.366452e-11
145	0x2dfb74de	2.8587296e-11
146	0x2d47172d	1.1316986e-11
147	0x2c79b6b9	3.548646e-12
148	0x2c6a958d	3.3336417e-12
149	0x2c985b9f	4.330272e-12
150	0x2cdfed1e	6.3643665e-12
151	0x2d241e67	9.329071e-12
152	0x2d382131	1.0466559e-11
153	0x2d166865	8.549693e-12
154	0x2cd2fab9	5.996395e-12
155	0x2cc47df2	5.584638e-12
156	0x2cbfd89b	5.4525945e-12
157	0x2d018107	7.361451e-12
158	0x2d38a299	1.0495293e-11
159	0x2d90f56a	1.647989e-11
160	0x2d5c281a	1.25144565e-11
161	0x2d25d434	9.426283e-12
162	0x2d0ad486	7.8915815e-12
163	0x2c6faf09	3.4061107e-12
164	0x2c12f7d0	2.0885411e-12
165	0x2bd030ec	1.4792867e-12
166	0x2ca12a46	4.5805885e-12
167	0x2db3ecfb	2.0455184e-11
168	0x2e892f08	6.238393e-11
169	0x2f01dc3b	1.1810723e-10
170	0x2f4e8d45	1.878578e-10
171	0x2f8b9518	2.538989e-10
172	0x2fb54b5e	3.297726e-10
173	0x2fb36190	3.2629233e-10
174	0x2fb00fdf	3.202549e-10
175	0x2f93acdd	2.686197e-10
176	0x2f83919e	2.3932228e-10
177	0x2f3dc078	1.7257828e-10
178	0x2f1eabf5	1.4431108e-10
179	0x2eaab621	7.7630576e-11
180	0x2e45d22f	4.4979295e-11
181	0x2d6b6c42	1.33822415e-11
182	0x2c721d61	3.4406577e-12
183	0x2b75f849	8.738605e-13
184	0x2aad55e3	3.079057e-13
185	0x2aa05f23	2.8487724e-13
186	0x2a9375cc	2.6194184e-13
187	0x2aab16ae	3.039144e-13
188	0x2acd1e43	3.6436313e-13
189	0x2b0a7e40	4.9202656e-13
190	0x2af1a78c	4.292646e-13
191	0x2ab7245b	3.2532557e-13
192	0x2ae39478	4.042632e-13
193	0x2b1677bb	5.3456865e-13
194	0x2b5e2465	7.892075e-13
195	0x2b45b121	7.0234275e-13
196	0x2b0f3866	5.0882074e-13
197	0x2b086fbe	4.847198e-13
198	0x2b074bb8	4.8066716e-13
199	0x2b7cb990	8.9785904e-13
200	0x2b34a99d	6.418423e-13
201	0x2b783b93	8.8189975e-13
202	0x2beaf3f5	1.6694412e-12
203	0x2c42bd3a	2.76741e-12
204	0x2c925ec4	4.1600907e-12
205	0x2ca10280	4.5761728e-12
206	0x2cd8c740	6.1612104e-12
207	0x2cdba3c9	6.242538e-12
208	0x2cc3e99d	5.5681696e-12
209	0x2c9f759a	4.532108e-12
210	0x2c1d9f9d	2.2399645e-12
211	0x2b82d51c	9.296205e-13
212	0x2b13a3a5	5.2451993e-13
213	0x2ab4de8a	3.212884e-13
214	0x2b8761e5	9.619498e-13
215	0x2c52764f	2.990847e-12
216	0x2d2609df	9.438199e-12
217	0x2dcb5b85	2.3119071e-11
218	0x2e778e3a	5.628762e-11
219	0x2eaac246	7.765215e-11
220	0x2f152b3d	1.3566832e-10
221	0x2f21bcc0	1.4709922e-10
222	0x2f43191d	1.7744069e-10
223	0x2f503a57	1.8938216e-10
224	0x2f4ebcb2	1.8802629e-10
225	0x2f42d738	1.7720658e-10
226	0x2f45217c	1.7928942e-10
227	0x2f437de9	1.7779879e-10
228	0x2f440e31	1.7831138e-10
229	0x2f343286	1.6388854e-10
230	0x2f19baf3	1.3981687e-10
231	0x2ed92e32	9.8762235e-11
232	0x2e638425	5.1731192e-11
233	0x2da77d75	1.9041416e-11
234	0x2c30041d	2.5013388e-12
235	0x2acd5e7b	3.6480874e-13
236	0x2ab036c3	3.130188e-13
237	0x2c2d74b7	2.4649568e-12
238	0x2d9051c8	1.6407223e-11
239	0x2e434e3e	4.440736e-11
240	0x2eb3aa67	8.170247e-11
241	0x2ecdd94f	9.3609225e-11
242	0x2ef0642c	1.09317305e-10
243	0x2ece74d7	9.3885504e-11
244	0x2e8fbd4d	6.536514e-11
245	0x2db5c7cd	2.0666047e-11
246	0x2cc6181a	5.6301743e-12
247	0x2cf09559	6.837791e-12
248	0x2dabfc2a	1.9552433e-11
249	0x2eeecd91	1.0859503e-10
250	0x2fcc3495	3.7144746e-10
251	0x3043f009	7.1281697e-10
252	0x30a48629	1.1970701e-09
253	0x30f65380	1.7922588e-09
254	0x3115520e	2.1728996e-09
255	0x31283ada	2.448067e-09

loss f8 []
0	0x40595a69a8338399	101.41269879370374
