weights/e180.pth (torch, 788191 bytes, 4 tensors)

weights f4 [1, 1, 256, 256]
5.7737136 5.662371 5.6766863 5.8266044 5.816798 5.798895 5.413086 5.4542027
4.6604824 4.9765515 4.6296253 5.166843 5.368036 5.3489227 5.3320503 5.3554006
5.32741 5.161488 5.0258865 4.6156917 3.0160284 2.7961192 4.5317297 5.1644635
5.512001 5.5096273 5.427612 5.405674 5.47784 5.5675488 5.5128417 5.405117
5.559285 5.615253 5.509867 5.4711285 5.4628215 5.23733 5.130877 4.997543
4.679803 3.7328157 3.0794086 2.0030882 2.0309746 3.2327783 4.1965313 4.479467
4.7576985 4.414094 4.275088 4.1187215 4.1194134 4.076249 3.8695085 3.4989617
2.9023523 1.9511836 2.3298323 2.4764583 2.4374573 2.2560709 1.9995244 2.364153
2.403297 2.353326 2.1814425 1.8597479 1.9725327 1.8584732 1.5178896 1.4920844
2.2139225 3.4800353 4.4848213 4.884226 5.162882 5.1514435 5.6767263 5.1826487
5.3893304 5.491217 5.39845 5.5263853 5.4553485 5.6582136 5.325993 5.381069
5.1464524 4.9222064 4.6538186 3.5709527 3.199387 4.1534843 4.780767 4.782492
4.8787804 4.9346523 4.730779 4.366892 3.9521163 3.9763093 4.3057284 4.5220776
4.759755 4.759412 4.5479746 4.178585 3.5959806 4.1079965 4.714352 4.8067265
4.961939 5.3372965 5.255194 5.4704323 5.4486694 5.2059298 5.4125514 5.327426
5.062559 5.0947504 5.0662966 4.476231 4.0235853 2.5639079 2.4567773 2.161143
1.6018766 2.162508 2.45824 2.5609338 3.9610066 4.4744353 5.0389137 5.0281706
5.347681 5.177132 5.386177 5.3574677 5.4268036 5.40331 5.2158422 5.251075
4.9445295 4.890961 4.6758413 4.269138 3.587468 4.167689 4.5501747 4.664161
4.7818236 4.62516 4.3760943 3.9202197 4.0528607 4.5090814 4.8845077 4.7676253
4.9023876 4.867916 4.7175827 4.128718 3.2142546 3.5835583 4.664673 5.069453
5.383043 5.3450704 5.291852 5.4836426 5.2949686 5.517676 5.6020737 5.5619235
5.445485 5.3616576 5.434254 5.2436237 5.120737 4.8815084 4.4076486 3.4338942
2.2139225 1.492086 1.517893 1.8584934 1.9725482 1.8597438 2.181631 2.353291
2.4036021 2.364159 1.9995521 2.2560923 2.4375908 2.4759738 2.3293235 1.9511858
2.8963485 3.4754174 3.8585463 4.0635242 4.0761275 4.1633005 4.2979507 4.476551
4.661136 4.338265 4.101309 3.234245 2.03097 2.003096 3.0715704 3.774267
4.727686 5.072874 5.1916504 5.2747183 5.4343305 5.2270927 5.4901366 5.40679
5.383764 5.3465943 5.3631754 5.5008297 5.412989 5.520007 5.3579264 5.408153
5.328038 5.1355095 4.5349264 2.796172 3.013879 4.6676164 5.1967053 5.194192
5.3627205 5.489956 5.438893 5.382844 5.459981 5.2415814 4.6504846 4.8232317
4.613481 5.4762783 5.478502 5.7747974 5.713055 5.7714233 5.6903048 5.635251
00000000: 43c2 b840 2532 b540 6aa7 b540 8b73 ba40
00000010: 3623 ba40 8c90 b940 0038 ad40 d488 ae40
00000020: ac22 9540 e93f 9f40 e425 9440 c756 a540
00000030: f3c6 ab40 602a ab40 28a0 aa40 715f ab40
00000040: 257a aa40 e92a a540 10d4 a040 bfb3 9340
00000050: 9c06 4140 9ef3 3240 ee03 9140 4943 a540
00000060: 5062 b040 de4e b040 ffae ad40 48fb ac40
00000070: 774a af40 5c29 b240 3369 b040 b8f6 ac40
00000080: aae5 b140 27b0 b340 d550 b040 7c13 af40
00000090: 6fcf ae40 3598 a740 2530 a440 dfeb 9f40
000000a0: f2c0 9540 74e6 6e40 0815 4540 9932 0040
000000b0: 7dfb 0140 d7e5 4e40 fc49 8640 cb57 8f40
000000c0: 113f 9840 4240 8d40 85cd 8840 91cc 8340
000000d0: 3cd2 8340 a270 8240 07a6 7740 fdee 5f40
000000e0: 24c0 3940 62c0 f93f f91b 1540 4b7e 1e40
000000f0: 4dff 1b40 7763 1040 6af0 ff3f 484e 1740
00000100: 9ecf 1940 e59c 1640 c19c 0b40 380c ee3f
00000110: f47b fc3f 73e2 ed3f 354a c23f 9ffc be3f
00000120: e8b0 0d40 e6b8 5e40 a883 8f40 944b 9c40
00000130: 5436 a540 a0d8 a440 bea7 b540 42d8 a540
00000140: 6575 ac40 0db8 af40 1ac0 ac40 26d8 b040
00000150: 3792 ae40 1610 b540 896e aa40 b831 ac40
00000160: bdaf a440 b782 9d40 15ec 9440 7d8a 6440
00000170: c2c2 4c40 58e9 8440 0bfc 9840 2d0a 9940
00000180: f81e 9c40 ace8 9d40 8b62 9740 94bd 8b40
00000190: 79ef 7c40 da7b 7e40 87c8 8940 dcb4 9040
000001a0: ea4f 9840 1a4d 9840 0289 9140 f8b6 8540
000001b0: 8c24 6640 b574 8340 f9db 9640 b4d0 9940
000001c0: 34c8 9e40 22cb aa40 8d2a a840 c80d af40
000001d0: 805b ae40 fa96 a640 9f33 ad40 467a aa40
000001e0: 7c00 a240 3208 a340 1a1f a240 493d 8f40
000001f0: 36c1 8040 1117 2440 d73b 1d40 2b50 0a40
00000200: 4b0a cd3f 8866 0a40 ce53 1d40 57e6 2340
00000210: 2281 7d40 932e 8f40 c83e a140 c6e6 a040
00000220: 3420 ab40 11ab a540 905b ac40 6070 ab40
00000230: 60a8 ad40 eae7 ac40 2ee8 a640 ce08 a840
00000240: 9639 9e40 c182 9c40 7ea0 9540 c79c 8840
00000250: 1399 6540 b55d 8540 089b 9140 cf40 9540
00000260: b304 9940 5001 9440 f708 8c40 e1e4 7a40
00000270: 09b1 8140 654a 9040 e34d 9c40 6390 9840
00000280: 5ce0 9c40 f8c5 9b40 70f6 9640 751e 8440
00000290: 59b6 4d40 0559 6540 0045 9540 f538 a240
000002a0: e341 ac40 d10a ab40 da56 a940 007a af40
000002b0: 6270 a940 cd90 b040 3044 b340 47fb b140
000002c0: 6a41 ae40 b392 ab40 69e5 ad40 c4cb a740
000002d0: 14dd a340 5135 9c40 750b 8d40 ecc4 5b40
000002e0: e8b0 0d40 adfc be3f 514a c23f 1de3 ed3f
000002f0: 767c fc3f 160c ee3f d89f 0b40 529c 1640
00000300: 9ed4 1940 624e 1740 53f1 ff3f d163 1040
00000310: 7d01 1c40 5b76 1e40 a313 1540 75c0 f93f
00000320: c65d 3940 3d6d 5e40 6cf2 7640 6408 8240
00000330: a36f 8240 c239 8540 d088 8940 e83f 8f40
00000340: 0728 9540 11d3 8a40 ec3d 8340 dffd 4e40
00000350: 6afb 0140 ba32 0040 9c94 4440 978d 7140
00000360: 3449 9740 fc54 a240 0022 a640 7eca a840
00000370: 09e6 ad40 5844 a740 33af af40 6c04 ad40
00000380: cb47 ac40 4d17 ab40 229f ab40 cc06 b040
00000390: 3537 ad40 e6a3 b040 2274 ab40 970f ad40
000003a0: 4a7f aa40 1856 a440 1e1e 9140 7bf4 3240
000003b0: 65e3 4040 1d5d 9540 694b a640 d236 a640
000003c0: 689b ab40 b8ad af40 690b ae40 4240 ac40
000003d0: 2ab8 ae40 09bb a740 c5d0 9440 ea57 9a40
000003e0: a3a1 9340 ac3d af40 e34f af40 24cb b840
000003f0: 59d1 b640 80af b840 fa16 b640 fa53 b440

exp_avg f4 [1, 1, 256, 256]
-4.3484924e-05 -4.8391066e-05 -4.713955e-05 -4.0307954e-05 -3.3003453e-05 -2.5572348e-05 -1.9009836e-05 -1.005371e-05
-3.13292e-06 -2.0698146e-06 -1.7224988e-06 -3.8775156e-06 -7.745932e-06 -8.963644e-06 -9.726036e-06 -9.531562e-06
-8.357514e-06 -6.4532537e-06 -3.7503598e-06 -1.1982564e-06 -1.2651917e-07 9.633315e-08 -1.0547727e-06 -3.8193425e-06
-6.3453094e-06 -9.0913645e-06 -1.1334933e-05 -1.24484395e-05 -1.2460999e-05 -1.23939135e-05 -1.1405454e-05 -1.2001918e-05
-1.1911337e-05 -1.2279504e-05 -1.2328229e-05 -1.0495467e-05 -1.0653385e-05 -8.10372e-06 -6.3860075e-06 -4.129722e-06
-2.0615e-06 -4.2612706e-07 3.435853e-08 1.5444579e-07 1.204932e-07 9.408389e-08 -3.5455815e-07 -1.0134352e-06
-1.0948199e-06 -1.2910907e-06 -1.0895425e-06 -6.064018e-07 -5.990926e-07 -5.1596146e-07 -2.9256404e-07 1.7054654e-07
-3.9524323e-08 1.5866368e-08 9.862375e-08 -8.7945196e-08 -4.1049738e-08 7.513434e-08 -5.6457402e-08 -7.994667e-08
1.9477834e-07 1.0363978e-07 7.763619e-08 -6.5787205e-08 5.4839788e-08 6.957925e-09 1.1920339e-07 2.0240487e-08
-2.1473479e-08 -8.310153e-09 -8.7514013e-07 -2.6439538e-06 -5.5490423e-06 -7.880231e-06 -9.925452e-06 -1.1993837e-05
-1.4039943e-05 -1.5724514e-05 -1.6455575e-05 -1.7175436e-05 -1.643701e-05 -1.3962854e-05 -1.3110581e-05 -1.0444702e-05
-7.4902373e-06 -3.7052557e-06 -1.5268542e-06 -2.7207494e-07 -2.99926e-07 -6.270505e-07 -1.552364e-06 -2.1821022e-06
-2.9337998e-06 -3.1836782e-06 -2.647636e-06 -2.1063593e-06 -8.224034e-07 -7.9325235e-07 -1.0335024e-06 -2.1087576e-06
-2.5456789e-06 -1.7914521e-06 -1.388888e-06 -5.858041e-07 -1.6046354e-07 -1.2409241e-06 -2.4972514e-06 -3.7237664e-06
-7.1497366e-06 -8.5577e-06 -1.3445149e-05 -1.685788e-05 -2.0511567e-05 -2.3788905e-05 -2.1617554e-05 -2.0800097e-05
-1.5958736e-05 -1.3887744e-05 -9.974656e-06 -4.6686528e-06 -2.6677533e-06 -2.177996e-06 -1.2330676e-06 -1.2057816e-06
-1.2934481e-06 -1.1752554e-06 -1.2121108e-06 -2.2140257e-06 -3.1576044e-06 -4.6814957e-06 -1.015396e-05 -1.4339773e-05
-1.3907104e-05 -2.164458e-05 -2.176118e-05 -2.3120763e-05 -2.0591775e-05 -1.7123528e-05 -1.3576311e-05 -8.825988e-06
-7.204832e-06 -3.448154e-06 -2.6095315e-06 -7.764745e-07 -1.8448937e-07 -6.16239e-07 -1.3831755e-06 -2.052004e-06
-2.4909589e-06 -1.8444472e-06 -8.3566977e-07 -9.3489456e-07 -5.601278e-07 -1.7408106e-06 -2.2575891e-06 -3.5677665e-06
-2.8842514e-06 -1.9792726e-06 -1.6966217e-06 -6.849394e-07 -2.686167e-07 -2.4433314e-07 -1.5042096e-06 -3.3578574e-06
-7.016062e-06 -1.0517767e-05 -1.3186932e-05 -1.435383e-05 -1.6786156e-05 -1.7194154e-05 -1.6050988e-05 -1.5570891e-05
-1.3926029e-05 -1.1612452e-05 -1.042241e-05 -7.6853885e-06 -5.6344625e-06 -2.6497858e-06 -1.0284787e-06 -1.0534986e-07
-2.1473479e-08 2.0243972e-08 1.1921095e-07 7.0015282e-09 5.487341e-08 -6.5795156e-08 7.803332e-08 1.03563465e-07
1.9545902e-07 -7.993495e-08 -5.6399866e-08 7.517784e-08 -4.078443e-08 -8.88786e-08 9.766116e-08 1.5870945e-08
-5.1041454e-08 1.2260212e-07 -3.1321514e-07 -5.4061104e-07 -6.836225e-07 -5.232386e-07 -1.0456291e-06 -1.1603718e-06
-1.2753142e-06 -1.2906353e-06 -5.346085e-07 9.697754e-08 1.2048423e-07 1.5446241e-07 1.9844741e-08 -3.475414e-07
-1.9730855e-06 -3.993758e-06 -6.2665276e-06 -8.037778e-06 -1.0704399e-05 -1.0927042e-05 -1.2363204e-05 -1.2651806e-05
-1.2206051e-05 -1.21021985e-05 -1.1669043e-05 -1.2505263e-05 -1.2580881e-05 -1.2248089e-05 -1.1461281e-05 -9.268646e-06
-6.673639e-06 -3.8670632e-06 -1.0490706e-06 9.643662e-08 -1.3014332e-07 -1.1134273e-06 -3.451205e-06 -6.3985267e-06
-8.294637e-06 -9.300106e-06 -9.527715e-06 -8.900219e-06 -7.5694234e-06 -3.7478344e-06 -1.6859891e-06 -2.3161092e-06
-3.2177722e-06 -1.00177585e-05 -1.8890049e-05 -2.5613483e-05 -3.3169454e-05 -4.0408388e-05 -4.711558e-05 -4.8433834e-05
00000000: 9563 36b8 83f7 4ab8 b5b7 45b8 5610 29b8
00000010: 306d 0ab8 3384 d6b7 5077 9fb7 5bac 28b7
00000020: 283f 52b6 25e7 0ab6 9c30 e7b5 9b1b 82b6
00000030: 86f4 01b7 8f62 16b7 022d 23b7 bfe9 1fb7
00000040: 4037 0cb7 0789 d8b6 b1ae 7bb6 c7d3 a0b5
00000050: 53d9 07b4 b6df ce33 b791 8db5 e727 80b6
00000060: cbe9 d4b6 1d87 18b7 2b2b 3eb7 a4d9 50b7
00000070: 950f 51b7 74ef 4fb7 0d5a 3fb7 d85b 49b7
00000080: ced6 47b7 1104 4eb7 57d5 4eb7 b015 30b7
00000090: f1bb 32b7 36f5 07b7 6347 d6b6 0b92 8ab6
000000a0: 4d58 0ab6 75c6 e4b4 9a91 1333 bcd5 2534
000000b0: eb60 0134 2a0b ca33 1a5a beb4 5e05 88b5
000000c0: baf1 92b5 8a49 adb5 653c 92b5 9dc7 22b5
000000d0: 54d1 20b5 9a80 0ab5 b211 9db4 7a1f 3734
000000e0: 74c1 29b3 834a 8832 fbca d333 62dc bcb3
000000f0: aa4e 30b3 8a59 a133 927b 72b3 26af abb3
00000100: 4324 5134 9290 de33 f2b8 a633 e646 8db3
00000110: fc88 6b33 8e12 ef31 c2fc ff33 4ddd ad32
00000120: ae74 b8b2 70c4 0eb2 2ceb 6ab5 c86e 31b6
00000130: e931 bab6 5635 04b7 7e85 26b7 2339 49b7
00000140: 198d 6bb7 23e8 83b7 140a 8ab7 f813 90b7
00000150: 36e2 89b7 0042 6ab7 84f5 5bb7 a73b 2fb7
00000160: a654 fbb6 cfa7 78b6 50ee ccb5 b211 92b4
00000170: 8405 a1b4 9552 28b5 d25a d0b5 3b70 12b6
00000180: 4ce2 44b6 2da7 55b6 0aae 31b6 fa5a 0db6
00000190: 22c3 5cb5 e3ef 54b5 dfb6 8ab5 2e84 0db6
000001a0: 6ed6 2ab6 d371 f0b5 d469 bab5 2740 1db5
000001b0: e24b 2cb4 d48d a6b5 7496 27b6 d2e5 79b6
000001c0: c5e7 efb6 0b93 0fb7 7a92 61b7 066a 8db7
000001d0: 4110 acb7 498e c7b7 5857 b5b7 de7b aeb7
000001e0: 20df 85b7 68ff 68b7 d258 27b7 6ca7 9cb6
000001f0: a707 33b6 b029 12b6 e17f a5b5 57d6 a1b5
00000200: 8a9a adb5 78bd 9db5 cfaf a2b5 ac94 14b6
00000210: 3be7 53b6 be15 9db6 ed5a 2ab7 db94 70b7
00000220: 8f52 69b7 6291 b5b7 c78b b6b7 76f3 c1b7
00000230: 80bc acb7 7fa4 8fb7 d0c5 63b7 5413 14b7
00000240: 09c1 f1b6 d666 67b6 691f 2fb6 ec6e 50b5
00000250: 0d18 46b4 9f6b 25b5 8ca5 b9b5 29b5 09b6
00000260: 592a 27b6 b98e f7b5 ca52 60b5 77f5 7ab5
00000270: b05b 16b5 cca5 e9b5 1681 17b6 c36d 6fb6
00000280: 108f 41b6 a5d3 04b6 7ab7 e3b5 addc 37b5
00000290: 6636 90b4 e42c 83b4 40e4 c9b5 8d57 61b6
000002a0: 846b ebb6 7775 30b7 713d 5db7 3bd1 70b7
000002b0: ffcf 8cb7 2a3c 90b7 3ca5 86b7 3c9e 82b7
000002c0: d7a3 69b7 1ad3 42b7 e9db 2eb7 7ef0 00b7
000002d0: aa0f bdb6 f9d2 31b6 420a 8ab5 b33c e2b3
000002e0: ae74 b8b2 f7e4 ad32 7500 0034 1892 f031
000002f0: f4ad 6b33 454b 8db3 4593 a733 9e66 de33
00000300: 5edf 5134 b4a8 abb3 4f3c 72b3 7471 a133
00000310: f42a 2fb3 87dd beb3 cab9 d133 9454 8832
00000320: ac38 5bb3 9da4 0334 f627 a8b4 821e 11b5
00000330: 2e82 37b5 af74 0cb5 8b57 8cb5 12be 9bb5
00000340: 762b abb5 e439 adb5 0482 0fb5 f741 d033
00000350: 745e 0134 4eda 2534 0c77 aa32 ba95 bab4
00000360: 5a69 04b6 1f02 86b6 1045 d2b6 fed9 06b7
00000370: 0b97 33b7 4a53 37b7 8f6b 4fb7 1843 54b7
00000380: 97c8 4cb7 8c0a 4bb7 28c6 43b7 b2cd 51b7
00000390: 7912 53b7 247d 4db7 d449 40b7 8880 1bb7
000003a0: 1fee dfb6 d2c1 81b6 cbcd 8cb5 9818 cf33
000003b0: 86bd 0bb4 1271 95b5 409b 67b6 edb2 d6b6
000003c0: 3229 0bb7 a707 1cb7 39d9 1fb7 2652 15b7
000003d0: dafc fdb6 4e83 7bb6 254a e2b5 746e 1bb6
000003e0: e8f0 57b6 f211 28b7 1276 9eb7 89dc d6b7
000003f0: 6e1f 0bb8 2d7c 29b8 f89d 45b8 6f25 4bb8

exp_avg_sq f4 [1, 1, 256, 256]
1.9448634e-09 2.4500812e-09 2.1839843e-09 1.7887707e-09 1.1887579e-09 7.1014034e-10 3.766172e-10 1.0878585e-10
1.8762504e-11 5.5834577e-12 5.592412e-12 2.1396504e-11 6.757271e-11 9.450067e-11 1.130824e-10 9.756128e-11
8.214997e-11 4.4739972e-11 1.8309375e-11 2.5871588e-12 3.0409358e-13 3.5119967e-13 2.411073e-12 1.8374791e-11
4.6840122e-11 9.5040954e-11 1.364508e-10 1.6800468e-10 1.7470603e-10 1.7456081e-10 1.7210856e-10 1.735023e-10
1.7956074e-10 1.7918557e-10 1.7577259e-10 1.37127e-10 1.3408828e-10 7.813585e-11 5.733977e-11 2.3857812e-11
9.467588e-12 2.9467626e-12 9.209689e-13 3.26179e-13 5.21088e-13 8.9664224e-13 2.044929e-12 3.755315e-12
4.842073e-12 6.4800314e-12 6.127326e-12 4.572219e-12 3.8548526e-12 2.6364648e-12 1.5973545e-12 8.2752815e-13
6.0989305e-13 8.7013757e-13 4.668304e-13 4.714728e-13 4.9633225e-13 7.1774975e-13 7.7691e-13 5.361391e-13
4.086498e-13 3.2137544e-13 4.279499e-13 4.753113e-13 3.6526533e-13 3.018085e-13 2.5845144e-13 2.835125e-13
3.064295e-13 7.890056e-13 2.9887664e-12 1.29935255e-11 4.324905e-11 7.98902e-11 1.3245831e-10 1.8039713e-10
2.4184615e-10 2.710608e-10 3.3238262e-10 3.2405753e-10 3.169315e-10 2.40986e-10 1.8504183e-10 1.1572432e-10
6.911102e-11 2.2601178e-11 4.479539e-12 1.4385926e-12 2.0561077e-12 3.2161246e-12 7.0407347e-12 1.00792924e-11
1.2468488e-11 1.3475475e-11 1.2274906e-11 8.604602e-12 5.7384527e-12 5.1470057e-12 6.2372984e-12 9.411966e-12
1.0438039e-11 7.999839e-12 6.1626563e-12 4.0905157e-12 3.2491024e-12 4.511488e-12 1.0343206e-11 3.0303926e-11
7.132214e-11 1.0571576e-10 2.3935307e-10 3.5398656e-10 4.677265e-10 6.112146e-10 5.629126e-10 5.030747e-10
3.484274e-10 2.325943e-10 1.1909182e-10 5.526442e-11 5.643776e-11 9.342931e-11 1.4184114e-10 2.3375765e-10
3.7619152e-10 2.3337146e-10 1.4179606e-10 9.348316e-11 5.896781e-11 5.5373008e-11 1.2249249e-10 2.4559546e-10
2.8287148e-10 5.403585e-10 5.6926525e-10 5.807684e-10 4.7095305e-10 3.6332798e-10 2.4309058e-10 1.1049602e-10
7.213369e-11 2.8009735e-11 1.0919184e-11 3.4505573e-12 3.2724524e-12 4.145352e-12 6.1435843e-12 9.018633e-12
1.0160026e-11 8.2965865e-12 5.723463e-12 5.3716216e-12 5.267812e-12 7.131848e-12 1.0150176e-11 1.6110007e-11
1.21741775e-11 9.115321e-12 7.60089e-12 3.3090238e-12 2.0360612e-12 1.4177327e-12 4.4058685e-12 1.9879166e-11
6.171522e-11 1.1720443e-10 1.8680182e-10 2.521884e-10 3.284517e-10 3.2468875e-10 3.185589e-10 2.66474e-10
2.3850336e-10 1.7159271e-10 1.4299328e-10 7.677494e-11 4.4257775e-11 1.3027636e-11 3.2941555e-12 8.4860835e-13
3.0642028e-13 2.8282707e-13 2.578853e-13 3.0043128e-13 3.6373213e-13 4.75903e-13 4.2285896e-13 3.2231623e-13
4.0077376e-13 5.360526e-13 7.7608867e-13 7.1759715e-13 4.943096e-13 4.7684263e-13 4.698731e-13 8.7009317e-13
6.179415e-13 8.5321827e-13 1.6138208e-12 2.666993e-12 4.0010534e-12 4.438084e-12 6.0170558e-12 6.1282255e-12
5.3579936e-12 4.4398543e-12 2.2548595e-12 8.9498884e-13 5.2165135e-13 3.2799084e-13 9.290928e-13 2.872711e-12
9.104097e-12 2.2757655e-11 5.5726337e-11 7.7066874e-11 1.3520299e-10 1.466838e-10 1.7664274e-10 1.8874487e-10
1.8752175e-10 1.7595722e-10 1.7865487e-10 1.7734535e-10 1.7762011e-10 1.632841e-10 1.3920509e-10 9.833231e-11
5.1250365e-11 1.8765366e-11 2.3976632e-12 3.5106087e-13 3.077854e-13 2.3856073e-12 1.6138825e-11 4.404817e-11
8.108633e-11 9.337302e-11 1.0912872e-10 9.338214e-11 6.497057e-11 2.0363525e-11 5.4592897e-12 6.651175e-12
1.9278523e-11 1.0810159e-10 3.7221085e-10 7.12329e-10 1.2002446e-09 1.7970231e-09 2.1818298e-09 2.4543618e-09
00000000: 66a6 0531 495e 2831 0f15 1631 c6d8 f530
00000010: b361 a330 af33 4330 290c cf2f fd38 ef2e
00000020: 6709 a52d 5173 c42c f8c3 c42c a534 bc2d
00000030: 0e98 942e 26cf cf2e bbab f82e 1e8a d62e
00000040: 52a6 b42e bbc4 442e 0c0d a12d 1c0e 362c
00000050: 8130 ab2a 35b5 c52a 08aa 292c 5aa0 a12d
00000060: 4a01 4e2e 4dff d02e 7c07 162f 1db9 382f
00000070: 6017 402f 80ee 3f2f 413c 3d2f 8ec4 3e2f
00000080: db6d 452f 4104 452f 9643 412f d2c5 162f
00000090: 7f6e 132f 93d2 ab2e d72e 7c2e 04db d12d
000000a0: 3a8e 262d 285c 4f2c 679d 812b 599f b72a
000000b0: 59ac 122b e261 7c2b 2ae6 0f2c df20 842c
000000c0: 845d aa2c effe e32c 0c96 d72c e3de a02c
000000d0: 6da1 872c 5486 392c c3ce e02b b0ed 682b
000000e0: 6dab 2b2b 05ec 742b ad66 032b 32b5 042b
000000f0: 82b4 0b2b 5207 4a2b 44ae 5a2b e5e8 162b
00000100: a50c e62a 15eb b42a 15ea f02a cac9 052b
00000110: 48a0 cd2a 30e7 a92a c77e 912a 759a 9f2a
00000120: 2581 ac2a d815 5e2b d450 522c a395 642d
00000130: 1a36 3e2e 2fae af2e b3a3 112f 4759 462f
00000140: d2f4 842f 6b04 952f b2ba b62f 0b27 b22f
00000150: 253c ae2f c47b 842f a574 4b2f 007b fe2e
00000160: 0cfa 972e 54cd c62d 1a9c 9d2c c376 ca2b
00000170: 8baf 102c 8d50 622c 4db9 f72c 1951 312d
00000180: 1459 5b2d 2510 6d2d 43f1 572d af5f 172d
00000190: 63e7 c92c 1b18 b52c 9774 db2c ba93 252d
000001a0: c0a0 372d 12bc 0c2d 46d4 d82c 17ec 8f2c
000001b0: a0a2 642c dfbb 9e2c a9f5 352d 3047 052e
000001c0: ccd6 9c2e af78 e82e f395 832f 2e9b c22f
000001d0: 5491 0030 6702 2830 74bb 1a30 bc48 0a30
000001e0: cc8c bf2f 7abd 7f2f 5ef1 022f 350e 732e
000001f0: 4537 782e 0774 cd2e bbf4 1b2f 7782 802f
00000200: 40d0 ce2f 1d4c 802f 0be8 1b2f 5792 cd2e
00000210: edab 812e 7788 732e 92ae 062f 7d04 872f
00000220: 9f82 9b2f 5988 1430 7b7a 1c30 f1a3 1f30
00000230: 6074 0130 debd c72f f5a3 852f bbfb f22e
00000240: a89f 9e2e 5160 f62d a217 402d b7cf 722c
00000250: 4347 662c 03da 912c 7d28 d82c 50a8 1e2d
00000260: b0bc 322d 81f4 112d 5f60 c92c 44ff bc2c
00000270: 3b58 b92c faed fa2c 5490 322d 83b4 8d2d
00000280: 9f2b 562d c25b 202d 5eb7 052d 13da 682c
00000290: 6b46 0f2c 3487 c72b 8904 9b2c e7db ae2d
000002a0: 95b6 872e 1dde 002f 0a64 4d2f 5da4 8a2f
000002b0: 7891 b42f e17f b22f 2e21 af2f e27e 922f
000002c0: 5d1e 832f 0eab 3c2f 0839 1d2f 73d4 a82e
000002d0: d3a5 422e 422f 652d 3bce 672c addc 6e2b
000002e0: d17f ac2a ad37 9f2a 302d 912a b620 a92a
000002f0: 53c3 cc2a 6df4 052b 660c ee2a aa72 b52a
00000300: 969d e12a a9e2 162b 1573 5a2b 53fc 492b
00000310: c322 0b2b 2238 062b ed41 042b d2e8 742b
00000320: 61ef 2d2b db28 702b 0620 e32b 46ac 3b2c
00000330: 49c6 8c2c b526 9c2c d2b4 d32c 269e d72c
00000340: 8484 bc2c a736 9c2c f0ab 1e2c beea 7b2b
00000350: f1d4 122b 76a4 b82a 19c2 822b 2926 4a2c
00000360: 3529 202d af2d c82d 4716 752e cb78 a92e
00000370: 42a8 142f d247 212f 8338 422f f586 4f2f
00000380: ae2e 4e2f 8e77 412f e06e 442f 47fe 422f
00000390: 9e4b 432f 6388 332f c00e 192f 2b3c d82e
000003a0: c866 612e d90f a52d 76b8 282c 34a1 c52a
000003b0: 8d44 ad2a 48df 272c 67f5 8d2d d5b9 412e
000003c0: 8c4f b22e 5654 cd2e 02fa ef2e 7959 cd2e
000003d0: 2edf 8e2e 951e b32d e914 c02c 7504 ea2c
000003e0: 6093 a92d c9b7 ed2e 05a0 cc2f b2cd 4330
000003f0: daf5 a430 21fb f630 28ef 1531 97a9 2831

loss f8 []
104.78596532908188
00000000: 940c 8641 4d32 5a40
