weights/e190.pth (torch, 788191 bytes, 4 tensors)

weights f4 [1, 1, 256, 256]
0	0x40b8ca72	5.7747126
1	0x40b53a6b	5.663381
2	0x40b5afae	5.6776953
3	0x40ba7bc9	5.8276105
4	0x40ba2b72	5.8178034
5	0x40b998b5	5.799891
6	0x40ad400e	5.414069
7	0x40ae90a4	5.4551563
8	0x40952887	4.661197
9	0x409f4694	4.9773655
10	0x40942c1b	4.630384
11	0x40a55e28	5.1677437
12	0x40abced1	5.368996
13	0x40ab3246	5.349887
14	0x40aaa814	5.3330173
15	0x40ab6757	5.3563647
16	0x40aa8209	5.3283734
17	0x40a532a5	5.162432
18	0x40a0db7e	5.0267935
19	0x4093b996	4.6164045
20	0x404106f4	3.0160494
21	0x4032f3a4	2.7961206
22	0x409109d9	4.532452
23	0x40a54af2	5.1653986
24	0x40b06a1c	5.512953
25	0x40b056e5	5.5106072
26	0x40adb70b	5.428594
27	0x40ad0355	5.4066567
28	0x40af5265	5.478808
29	0x40b23142	5.568513
30	0x40b070f1	5.513787
31	0x40acfe6d	5.406058
32	0x40b1ed70	5.560234
33	0x40b3b7f4	5.616205
34	0x40b058a9	5.510823
35	0x40af1b4b	5.4720817
36	0x40aed745	5.463778
37	0x40a79fdb	5.2382636
38	0x40a4378e	5.1317816
39	0x409ff2b6	4.998378
40	0x4095c645	4.680453
41	0x406eea0d	3.7330353
42	0x4045156d	3.0794327
43	0x40003283	2.003083
44	0x4001fb7a	2.030974
45	0x404ee71d	3.232856
46	0x40864c76	4.1968336
47	0x408f5c2c	4.4800014
48	0x409843f9	4.7582974
49	0x408d44a6	4.41463
50	0x4088d1a3	4.2755904
51	0x4083cf88	4.1190834
52	0x4083d53d	4.11978
53	0x40827359	4.0765805
54	0x4077a9da	3.869742
55	0x405ff060	3.4990463
56	0x4039c0bc	2.9023886
57	0x3ff9c00c	1.9511733
58	0x40151be0	2.3298264
59	0x401e7e51	2.4764597
60	0x401bff74	2.4374666
61	0x4010635c	2.2560644
62	0x3ffff023	1.9995159
63	0x40174e93	2.3641708
64	0x4019cf65	2.4032834
65	0x40169cba	2.3533158
66	0x400b9cde	2.1814494
67	0x3fee0ca4	1.8597608
68	0x3ffc7bb3	1.972525
69	0x3fede236	1.8584659
70	0x3fc24a2c	1.5178885
71	0x3fbefc81	1.4920808
72	0x400db0e0	2.2139206
73	0x405eba0f	3.480106
74	0x408f87bd	4.4853196
75	0x409c523a	4.8850374
76	0x40a53dc2	5.163789
77	0x40a4e02e	5.1523657
78	0x40b5af57	5.677654
79	0x40a5dfe3	5.18358
80	0x40ac7d19	5.3902707
81	0x40afbfbe	5.492156
82	0x40acc7db	5.3993964
83	0x40b0dfeb	5.5273337
84	0x40ae9a09	5.456303
85	0x40b517d8	5.6591606
86	0x40aa7663	5.3269515
87	0x40ac3981	5.3820195
88	0x40a4b76f	5.147392
89	0x409d89d1	4.9230733
90	0x4094f207	4.6545444
91	0x40648d46	3.5711226
92	0x404cc408	3.1994648
93	0x4084ec8c	4.1538754
94	0x409901de	4.781478
95	0x40991042	4.7832346
96	0x409c257e	4.8795767
97	0x409def93	4.935495
98	0x4097695a	4.7316103
99	0x408bc38e	4.3676214
100	0x407cf5d1	3.9525034
101	0x407e8039	3.976576
102	0x4089ccb0	4.3062363
103	0x4090ba86	4.522769
104	0x4098564d	4.760535
105	0x40985258	4.7600517
106	0x40918e3e	4.5486135
107	0x4085ba03	4.1789565
108	0x406626fe	3.59613
109	0x4083798b	4.108587
110	0x4096e22d	4.7151093
111	0x4099d747	4.807529
112	0x409ecf27	4.962787
113	0x40aad259	5.338177
114	0x40a83232	5.2561274
115	0x40af157b	5.471372
116	0x40ae6379	5.4496427
117	0x40a69ef4	5.2069035
118	0x40ad3b66	5.413501
119	0x40aa821c	5.3283825
120	0x40a207f4	5.063471
121	0x40a30f86	5.095645
122	0x40a225ef	5.0671306
123	0x408f4185	4.476748
124	0x4080c343	4.0238357
125	0x40241773	2.5639312
126	0x401d3c1c	2.4567938
127	0x400a502c	2.1611433
128	0x3fcd0a4c	1.6018767
129	0x400a6682	2.1625066
130	0x401d540f	2.4582555
131	0x4023e6cd	2.560962
132	0x407d8653	3.9613235
133	0x408f32cf	4.474952
134	0x40a145aa	5.039754
135	0x40a0ee27	5.0290713
136	0x40ab2771	5.3485646
137	0x40a5b2f0	5.178093
138	0x40ac6359	5.3871274
139	0x40ab7857	5.35844
140	0x40adb059	5.427777
141	0x40acefa2	5.404252
142	0x40a6efd8	5.216778
143	0x40a81015	5.251963
144	0x409e408d	4.9453797
145	0x409c892e	4.8917456
146	0x4095a6d0	4.676613
147	0x4088a03d	4.2695603
148	0x40659baf	3.5876272
149	0x408560d7	4.1680713
150	0x4091a042	4.5508127
151	0x4095467c	4.664854
152	0x40990b00	4.782593
153	0x40940690	4.625801
154	0x408c0c98	4.3765373
155	0x407aea2e	3.9205432
156	0x4081b362	4.0531473
157	0x40904fe0	4.5097504
158	0x409c545b	4.8852973
159	0x4098978c	4.7684994
160	0x409ce6d9	4.9031796
161	0x409bcbc2	4.868623
162	0x4096fc7a	4.71832
163	0x408421dd	4.1291337
164	0x404db73d	3.214309
165	0x40655b7f	3.5837095
166	0x40954ae4	4.665392
167	0x40a23fe9	5.0703015
168	0x40ac4980	5.383972
169	0x40ab129c	5.3460217
170	0x40a95eb7	5.292812
171	0x40af81ca	5.4845934
172	0x40a97839	5.2959256
173	0x40b09892	5.5186243
174	0x40b34bec	5.603018
175	0x40b202f7	5.562862
176	0x40ae491c	5.4464245
177	0x40ab9a47	5.3625827
178	0x40aded14	5.43519
179	0x40a7d34e	5.244544
180	0x40a3e48d	5.1216493
181	0x409c3bf8	4.8823204
182	0x408d1016	4.4082136
183	0x405bc7c7	3.4340684
184	0x400db0e0	2.2139206
185	0x3fbefc8f	1.4920825
186	0x3fc24a48	1.5178919
187	0x3fede2e0	1.8584862
188	0x3ffc7c33	1.9725403
189	0x3fee0c83	1.8597568
190	0x400b9ff1	2.181637
191	0x40169c28	2.353281
192	0x4019d45d	2.4035866
193	0x40174ead	2.364177
194	0x3ffff10a	1.9995434
195	0x401063b5	2.2560856
196	0x401c01a2	2.4375997
197	0x401e7668	2.475977
198	0x4015138c	2.329318
199	0x3ff9c01f	1.9511756
200	0x40395e9d	2.8963997
201	0x405e6f70	3.4755516
202	0x4076f689	3.8587973
203	0x40820b34	4.0638676
204	0x408272ed	4.076529
205	0x40853c67	4.1636233
206	0x40898cd6	4.298442
207	0x408f43fd	4.4770494
208	0x40952d54	4.661783
209	0x408ad833	4.3388915
210	0x4083414c	4.101721
211	0x404eff17	3.2343194
212	0x4001fb67	2.0309694
213	0x400032a4	2.0030909
214	0x40449540	3.0716095
215	0x40719076	3.7744422
216	0x40974e65	4.7283196
217	0x40a25bbd	5.0736985
218	0x40a62966	5.1925535
219	0x40a8d223	5.2756515
220	0x40adede0	5.4352875
221	0x40a74c2e	5.2280493
222	0x40afb708	5.4910927
223	0x40ad0c40	5.4077454
224	0x40ac4f95	5.3847146
225	0x40ab1f02	5.347535
226	0x40aba6e7	5.364124
227	0x40b00eb4	5.501795
228	0x40ad3f26	5.4139585
229	0x40b0abf2	5.5209894
230	0x40ab7c2f	5.358909
231	0x40ad179f	5.4091334
232	0x40aa8721	5.328995
233	0x40a45dc4	5.136446
234	0x40912403	4.535646
235	0x4032f480	2.796173
236	0x4040e3d7	3.0139062
237	0x409562bc	4.6683025
238	0x40a652b6	5.1975965
239	0x40a63e8a	5.195134
240	0x40aba349	5.3636823
241	0x40afb59a	5.490918
242	0x40ae134d	5.439856
243	0x40ac4828	5.383808
244	0x40aec003	5.460939
245	0x40a7c259	5.242474
246	0x4094d6ea	4.6512346
247	0x409a5ee3	4.824083
248	0x4093a78c	4.6142025
249	0x40af4579	5.4772305
250	0x40af57ef	5.479484
251	0x40b8d34d	5.7757936
252	0x40b6d997	5.7140613
253	0x40b8b7be	5.7724295
254	0x40b61f3e	5.6913137
255	0x40b45c40	5.636261

exp_avg f4 [1, 1, 256, 256]
0	0xb83ab158	-4.451102e-05
1	0xb850bc24	-4.9766284e-05
2	0xb8456c17	-4.7069127e-05
3	0xb831c53e	-4.2383785e-05
4	0xb80f135b	-3.4111883e-05
5	0xb7db10e4	-2.61147e-05
6	0xb79c0b1b	-1.860182e-05
7	0xb721e4be	-9.649606e-06
8	0xb66fc261	-3.5726919e-06
9	0xb604aeb3	-1.977122e-06
10	0xb5f41e3a	-1.8188214e-06
11	0xb6897e22	-4.097602e-06
12	0xb707d419	-8.09601e-06
13	0xb71d5cba	-9.379519e-06
14	0xb72c44a1	-1.0267978e-05
15	0xb71b3838	-9.251809e-06
16	0xb712becc	-8.7467015e-06
17	0xb6da984a	-6.514635e-06
18	0xb6764d85	-3.6701979e-06
19	0xb59eb824	-1.1825509e-06
20	0x33992127	7.130648e-08
21	0xb2c58457	-2.2994e-08
22	0xb598b939	-1.1378789e-06
23	0xb68ac24b	-4.135339e-06
24	0xb6dced1f	-6.5841155e-06
25	0xb71dfcc2	-9.416779e-06
26	0xb73f2705	-1.1393572e-05
27	0xb75170a9	-1.24836015e-05
28	0xb7542c8d	-1.26465575e-05
29	0xb7583d2d	-1.2888847e-05
30	0xb75535c5	-1.27083085e-05
31	0xb74e7d6b	-1.2307758e-05
32	0xb752a9d2	-1.2556515e-05
33	0xb74ecc8c	-1.2326182e-05
34	0xb751152a	-1.2462298e-05
35	0xb73c96ef	-1.1240815e-05
36	0xb7380083	-1.0967374e-05
37	0xb7054842	-7.944242e-06
38	0xb6eb1d9d	-7.006993e-06
39	0xb6892c9e	-4.0881123e-06
40	0xb6035bda	-1.9573986e-06
41	0xb525f37a	-6.1821595e-07
42	0xb4091810	-1.2767873e-07
43	0xb1db2148	-6.3775225e-09
44	0xb29dbc14	-1.8362734e-08
45	0x32a43320	1.9115362e-08
46	0xb5342877	-6.711411e-07
47	0xb59685b8	-1.1214788e-06
48	0xb5afe28a	-1.3104448e-06
49	0xb5be4350	-1.4175694e-06
50	0xb596ea49	-1.1244057e-06
51	0xb51e919d	-5.907148e-07
52	0xb52a9c29	-6.355718e-07
53	0xb511cbff	-5.431356e-07
54	0xb4b0ad34	-3.2908576e-07
55	0xb3fd1ce5	-1.17864865e-07
56	0xb3b54788	-8.441481e-08
57	0xb3f8b3ab	-1.1581081e-07
58	0xb198dd80	-4.448964e-09
59	0xb4031acc	-1.2210074e-07
60	0xb3b7b70e	-8.554899e-08
61	0xb377c714	-5.769023e-08
62	0x32b07110	2.0540512e-08
63	0xb0c811d0	-1.4556978e-09
64	0x3201f16e	7.563683e-09
65	0xb397f68c	-7.076332e-08
66	0xb2dc9562	-2.5679302e-08
67	0x32c6b4be	2.3132426e-08
68	0xb397e32e	-7.072809e-08
69	0xb304be90	-3.090696e-08
70	0x3334f2dd	4.21304e-08
71	0x33a1cb27	7.5341e-08
72	0xb1327e00	-2.5974032e-09
73	0xb447b1af	-1.859796e-07
74	0xb53a2f4a	-6.9359214e-07
75	0xb63ac8d5	-2.783306e-06
76	0xb6cd7e7f	-6.124202e-06
77	0xb70b3067	-8.296315e-06
78	0xb733f97f	-1.0727322e-05
79	0xb756c2fe	-1.2800794e-05
80	0xb77e72b3	-1.5166285e-05
81	0xb781b6af	-1.5463067e-05
82	0xb78fd04c	-1.7143924e-05
83	0xb7949218	-1.7711005e-05
84	0xb78a5943	-1.6492448e-05
85	0xb7832510	-1.5633676e-05
86	0xb758eb49	-1.2929385e-05
87	0xb726b653	-9.936822e-06
88	0xb6f8a3f0	-7.410061e-06
89	0xb6896876	-4.095079e-06
90	0xb5b30fd3	-1.3341145e-06
91	0xb483f53f	-2.4579091e-07
92	0x34291342	1.5746357e-07
93	0xb544fb73	-7.3381597e-07
94	0xb5f6085a	-1.8330859e-06
95	0xb61d1d80	-2.3411994e-06
96	0xb6383d8c	-2.7453962e-06
97	0xb64bcde4	-3.0369201e-06
98	0xb6325c65	-2.6577848e-06
99	0xb60799ac	-2.0206016e-06
100	0xb5846c5b	-9.866302e-07
101	0xb4d5abbf	-3.9799303e-07
102	0xb56dee6c	-8.863633e-07
103	0xb5fec0d8	-1.89806e-06
104	0xb618ba5f	-2.2758247e-06
105	0xb6103fb6	-2.1494757e-06
106	0xb5c0dfdb	-1.4370265e-06
107	0xb5155307	-5.5627646e-07
108	0xb4e1c990	-4.2056172e-07
109	0xb59b44b9	-1.1568401e-06
110	0xb62b0d7c	-2.5488835e-06
111	0xb69a918c	-4.6065015e-06
112	0xb6e6af8f	-6.874972e-06
113	0xb709f750	-8.223418e-06
114	0xb76d2ccd	-1.4136732e-05
115	0xb78feeb1	-1.7158078e-05
116	0xb7a7223a	-1.992389e-05
117	0xb7bd3bf7	-2.2558479e-05
118	0xb7bb8a47	-2.2356528e-05
119	0xb7b0b051	-2.1062939e-05
120	0xb7884e48	-1.6248916e-05
121	0xb763cce9	-1.3577964e-05
122	0xb71993e7	-9.153947e-06
123	0xb6876541	-4.035101e-06
124	0xb608502d	-2.0312248e-06
125	0xb4f3beda	-4.540114e-07
126	0xb41b1f80	-1.444696e-07
127	0xb6071441	-2.0128357e-06
128	0xb600a5ca	-1.9169988e-06
129	0xb605101c	-1.9827921e-06
130	0xb4046868	-1.2331441e-07
131	0xb5038ddb	-4.900773e-07
132	0xb62b1101	-2.5490883e-06
133	0xb687d99d	-4.048647e-06
134	0xb71ca9fe	-9.337904e-06
135	0xb76b52be	-1.4026356e-05
136	0xb76e224b	-1.419389e-05
137	0xb7b7ddc3	-2.1918566e-05
138	0xb7bcab1b	-2.2491024e-05
139	0xb7b7b70a	-2.1900534e-05
140	0xb7a7c700	-2.0000618e-05
141	0xb7923916	-1.7431139e-05
142	0xb76f5404	-1.42650715e-05
143	0xb70e49f2	-8.481076e-06
144	0xb6e87c9c	-6.9286452e-06
145	0xb691e488	-4.3479413e-06
146	0xb63268c2	-2.6585044e-06
147	0xb53b1b79	-6.9702907e-07
148	0xb4edc004	-4.42844e-07
149	0xb51d6505	-5.863406e-07
150	0xb5c01457	-1.4311034e-06
151	0xb620e649	-2.3975902e-06
152	0xb614f272	-2.219484e-06
153	0xb5da6e0c	-1.6274294e-06
154	0xb5391afd	-6.8957144e-07
155	0xb51074ba	-5.381404e-07
156	0xb544c878	-7.330741e-07
157	0xb5df0271	-1.6615505e-06
158	0xb618a989	-2.2748447e-06
159	0xb666e3c4	-3.4405248e-06
160	0xb6349c14	-2.691294e-06
161	0xb60f642a	-2.1366964e-06
162	0xb6044bfe	-1.9713766e-06
163	0xb553db73	-7.8922966e-07
164	0x344c86eb	1.9048063e-07
165	0xb46b488a	-2.191247e-07
166	0xb5afcd17	-1.3098205e-06
167	0xb67baa50	-3.750105e-06
168	0xb6e77aec	-6.8986465e-06
169	0xb727fb2c	-1.0012456e-05
170	0xb75a13d8	-1.2998433e-05
171	0xb786796e	-1.603059e-05
172	0xb78d262a	-1.6826281e-05
173	0xb794ba84	-1.7729828e-05
174	0xb78c3666	-1.6714632e-05
175	0xb7806731	-1.5306841e-05
176	0xb77c7388	-1.504727e-05
177	0xb7509fc2	-1.2434963e-05
178	0xb73cc92d	-1.1252513e-05
179	0xb707efbb	-8.102444e-06
180	0xb6d05d42	-6.2097397e-06
181	0xb63b2c56	-2.7890978e-06
182	0xb564c568	-8.522388e-07
183	0xb4959aa3	-2.7865926e-07
184	0xb1327e00	-2.5974032e-09
185	0x33a1cd16	7.5344516e-08
186	0x3334fad0	4.213763e-08
187	0xb3049078	-3.086504e-08
188	0xb397d1e5	-7.069665e-08
189	0x32c6a3e0	2.3124755e-08
190	0xb2d959f4	-2.530303e-08
191	0xb3981e64	-7.0835796e-08
192	0x320cdde8	8.199528e-09
193	0xb0c669d0	-1.443647e-09
194	0x32b0efbe	2.0598119e-08
195	0xb37798b7	-5.7648062e-08
196	0xb3b7246d	-8.5282274e-08
197	0xb4041c40	-1.2303735e-07
198	0xb1b8d570	-5.37937e-09
199	0xb3f8b13d	-1.15806394e-07
200	0xb3cd64e4	-9.564408e-08
201	0xb42fab77	-1.6360524e-07
202	0xb4bbd182	-3.49839e-07
203	0xb5183f7b	-5.671679e-07
204	0xb541cd3d	-7.2196764e-07
205	0xb5081a0e	-5.070186e-07
206	0xb590d4f0	-1.0790809e-06
207	0xb5ad28c1	-1.2901365e-06
208	0xb5c7b505	-1.4879339e-06
209	0xb5baf43c	-1.3929161e-06
210	0xb560c564	-8.3733744e-07
211	0x32bcfc90	2.2000933e-08
212	0xb29dcefc	-1.8371331e-08
213	0xb1da93e8	-6.36145e-09
214	0xb417fdee	-1.415535e-07
215	0xb51019ae	-5.368155e-07
216	0xb5fa1138	-1.8631463e-06
217	0xb6845d9b	-3.9448037e-06
218	0xb6e74806	-6.892721e-06
219	0xb704287a	-7.877237e-06
220	0xb738dfa6	-1.1019327e-05
221	0xb743a711	-1.1661804e-05
222	0xb751afdf	-1.2498319e-05
223	0xb75508b1	-1.2697813e-05
224	0xb757f67c	-1.2872388e-05
225	0xb7503289	-1.2409532e-05
226	0xb759bc28	-1.29780165e-05
227	0xb75a1150	-1.2997843e-05
228	0xb7562968	-1.2765035e-05
229	0xb74e349f	-1.2290809e-05
230	0xb7413c5a	-1.1517748e-05
231	0xb720e02c	-9.588937e-06
232	0xb6e82a49	-6.9190614e-06
233	0xb68c5137	-4.18178e-06
234	0xb597f4a6	-1.1321579e-06
235	0xb2c4aaea	-2.2895126e-08
236	0x3390f6f6	6.7504445e-08
237	0xb592d47c	-1.0939689e-06
238	0xb6620459	-3.3679155e-06
239	0xb6d8afd7	-6.457772e-06
240	0xb711b05a	-8.6837335e-06
241	0xb717455f	-9.016453e-06
242	0xb7291887	-1.0078896e-05
243	0xb71c541d	-9.317909e-06
244	0xb704dc04	-7.9190395e-06
245	0xb6854bb1	-3.9725205e-06
246	0xb5ef5145	-1.783054e-06
247	0xb615cb7b	-2.2321171e-06
248	0xb6755fca	-3.6563601e-06
249	0xb72150d3	-9.615166e-06
250	0xb79b0ce1	-1.8483437e-05
251	0xb7db6896	-2.6155536e-05
252	0xb80fc407	-3.427642e-05
253	0xb83235b3	-4.248852e-05
254	0xb8455167	-4.7044272e-05
255	0xb850ec02	-4.9810864e-05

exp_avg_sq f4 [1, 1, 256, 256]
0	0x31062215	1.951894e-09
1	0x31294db6	2.463691e-09
2	0x3116d55b	2.1949151e-09
3	0x30f6ca4f	1.7956355e-09
4	0x30a3f179	1.1928442e-09
5	0x3043bab2	7.1205897e-10
6	0x2fcf35a1	3.7691186e-10
7	0x2eeff8d3	1.0912662e-10
8	0x2da4569e	1.8683107e-11
9	0x2cc20caa	5.5152176e-12
10	0x2cc0994f	5.473989e-12
11	0x2dbab2dd	2.1225183e-11
12	0x2e9410fb	6.733277e-11
13	0x2ecfb135	9.4447485e-11
14	0x2ef7c9ff	1.1268141e-10
15	0x2ed6050a	9.7324884e-11
16	0x2eb4c8a9	8.221097e-11
17	0x2e43f42f	4.4554745e-11
18	0x2d9faa3d	1.8151808e-11
19	0x2c315209	2.5198752e-12
20	0x2aa6c50b	2.962425e-13
21	0x2ac36f3d	3.4716145e-13
22	0x2c24c300	2.3414048e-12
23	0x2da04429	1.8220163e-11
24	0x2e4ca907	4.6534356e-11
25	0x2ed06f00	9.4784625e-11
26	0x2f15fa81	1.3640468e-10
27	0x2f386f72	1.6774296e-10
28	0x2f3fa318	1.7429291e-10
29	0x2f3fe0a7	1.7451161e-10
30	0x2f3d4e5e	1.7217291e-10
31	0x2f3f2475	1.7384301e-10
32	0x2f46331d	1.8026154e-10
33	0x2f44b539	1.789048e-10
34	0x2f41527d	1.7582553e-10
35	0x2f1710b9	1.3739311e-10
36	0x2f13416e	1.3392817e-10
37	0x2eaada28	7.769457e-11
38	0x2e7a7b24	5.695279e-11
39	0x2dceeca5	2.352458e-11
40	0x2d22db89	9.2573805e-12
41	0x2c47b9e4	2.838279e-12
42	0x2b831df7	9.316427e-13
43	0x2ab5c89a	3.2291254e-13
44	0x2b0f5954	5.0927773e-13
45	0x2b7949ff	8.856526e-13
46	0x2c0a24ea	1.963147e-12
47	0x2c7efd5d	3.6236216e-12
48	0x2ca70b10	4.7476537e-12
49	0x2cdf8a55	6.353399e-12
50	0x2cd46273	6.0363325e-12
51	0x2c9d8810	4.4773144e-12
52	0x2c84323a	3.757242e-12
53	0x2c3379fc	2.5505145e-12
54	0x2bdc8df8	1.5671344e-12
55	0x2b634723	8.074532e-13
56	0x2b2c5f75	6.123915e-13
57	0x2b75a104	8.726494e-13
58	0x2b053ba5	4.7333865e-13
59	0x2b05bf85	4.751688e-13
60	0x2b0cbd18	5.000041e-13
61	0x2b491e06	7.145121e-13
62	0x2b5d505c	7.8626493e-13
63	0x2b13b8ff	5.2481625e-13
64	0x2ae0157a	3.9805296e-13
65	0x2ab852e9	3.2742496e-13
66	0x2aeadb78	4.1719037e-13
67	0x2b089439	4.8522606e-13
68	0x2acdf8b4	3.6587888e-13
69	0x2aa8ada4	2.9963282e-13
70	0x2a908249	2.5669942e-13
71	0x2a9bf671	2.7704534e-13
72	0x2aaa5424	3.025645e-13
73	0x2b5065f8	7.4037955e-13
74	0x2c4cb5d5	2.909108e-12
75	0x2d611422	1.279424e-11
76	0x2e3d2627	4.300751e-11
77	0x2eaf58a2	7.973823e-11
78	0x2f10ea8b	1.318005e-10
79	0x2f456a21	1.795475e-10
80	0x2f847afb	2.4098043e-10
81	0x2f952bc5	2.7134042e-10
82	0x2fb65da2	3.3172137e-10
83	0x2fb243c8	3.2426173e-10
84	0x2fae432d	3.1698147e-10
85	0x2f84789a	2.4096353e-10
86	0x2f4bfde9	1.855295e-10
87	0x2efdbaa4	1.1538262e-10
88	0x2e97375f	6.876521e-11
89	0x2dc3b704	2.2250209e-11
90	0x2c9929f2	4.3531784e-12
91	0x2bc2edb0	1.3850501e-12
92	0x2c0db671	2.013858e-12
93	0x2c57ac68	3.0649042e-12
94	0x2cf100cb	6.84972e-12
95	0x2d2ddf15	9.883446e-12
96	0x2d56ed17	1.2217136e-11
97	0x2d67254c	1.3139111e-11
98	0x2d527485	1.19629905e-11
99	0x2d13536a	8.374504e-12
100	0x2cc67a63	5.641086e-12
101	0x2cb37d6f	5.101412e-12
102	0x2cd55127	6.062834e-12
103	0x2d20646d	9.117246e-12
104	0x2d32394c	1.0130851e-11
105	0x2d094535	7.802915e-12
106	0x2cd1ba56	5.9608247e-12
107	0x2c89be66	3.9149127e-12
108	0x2c628059	3.218778e-12
109	0x2c99cbf8	4.3711666e-12
110	0x2d31369c	1.0073411e-11
111	0x2e02b0ef	2.9715726e-11
112	0x2e9b5334	7.063364e-11
113	0x2ee737df	1.05145885e-10
114	0x2f8342b9	2.387617e-10
115	0x2fc172e2	3.5188125e-10
116	0x30000237	4.6569276e-10
117	0x30278ab4	6.0951355e-10
118	0x30195707	5.578475e-10
119	0x30092419	4.989161e-10
120	0x2fbd31aa	3.4414188e-10
121	0x2f7bdf2a	2.2907601e-10
122	0x2f000aa4	1.1645312e-10
123	0x2e6e8ebe	5.4241715e-11
124	0x2e7c0796	5.7304904e-11
125	0x2ed84ccc	9.8361846e-11
126	0x2f1f7767	1.4503386e-10
127	0x2f85fc3a	2.4371777e-10
128	0x2fd4ab1b	3.8684153e-10
129	0x2f85d46a	2.4343488e-10
130	0x2f1f7064	1.4500895e-10
131	0x2ed8578d	9.838095e-11
132	0x2e83272b	5.964148e-11
133	0x2e6f047a	5.4346284e-11
134	0x2f03bd59	1.198165e-10
135	0x2f850616	2.4196883e-10
136	0x2f996483	2.7901956e-10
137	0x30135dbc	5.3611493e-10
138	0x301b1566	5.641908e-10
139	0x301f2c1d	5.790655e-10
140	0x3000e554	4.6892024e-10
141	0x2fc6941c	3.6121228e-10
142	0x2f854fde	2.4249308e-10
143	0x2ef1b77c	1.09920045e-10
144	0x2e9d1a88	7.144246e-11
145	0x2df16ba5	2.7446332e-11
146	0x2d3b2515	1.0637953e-11
147	0x2c6d2169	3.3698272e-12
148	0x2c63ef07	3.2391327e-12
149	0x2c8b8d75	3.9663225e-12
150	0x2cd11424	5.9423733e-12
151	0x2d1aae77	8.7926255e-12
152	0x2d2d6e4e	9.858404e-12
153	0x2d0d3ce4	8.0284425e-12
154	0x2cc4235b	5.5745803e-12
155	0x2cbac3f2	5.3081923e-12
156	0x2cb6fe80	5.2010063e-12
157	0x2cf4198d	6.937734e-12
158	0x2d2dbffa	9.876539e-12
159	0x2d8a7e7c	1.5744954e-11
160	0x2d51d201	1.1926905e-11
161	0x2d1d3fc6	8.938577e-12
162	0x2d0229ee	7.398955e-12
163	0x2c5ddfef	3.1530297e-12
164	0x2c0c93c6	1.9977227e-12
165	0x2bc0646d	1.3670294e-12
166	0x2c96a38f	4.281415e-12
167	0x2dabffdd	1.9554075e-11
168	0x2e86f8b2	6.137792e-11
169	0x2f007ed4	1.168659e-10
170	0x2f4ded7d	1.8729014e-10
171	0x2f8aa63b	2.5220168e-10
172	0x2fb49aed	3.285189e-10
173	0x2fb29c95	3.248927e-10
174	0x2faec13c	3.1787717e-10
175	0x2f92a580	2.667484e-10
176	0x2f82a30e	2.376272e-10
177	0x2f3bb5e3	1.707217e-10
178	0x2f1c7f78	1.4233403e-10
179	0x2ea87e24	7.6621626e-11
180	0x2e419458	4.4014875e-11
181	0x2d61ac2e	1.2828001e-11
182	0x2c615c4f	3.2025665e-12
183	0x2b5e9018	7.9070214e-13
184	0x2aaa5308	3.025568e-13
185	0x2a9ba59b	2.7648443e-13
186	0x2a903f7f	2.5623598e-13
187	0x2aa80b47	2.985062e-13
188	0x2acd43ed	3.6462448e-13
189	0x2b08b724	4.8571065e-13
190	0x2ae88412	4.130312e-13
191	0x2ab8c1a8	3.2819342e-13
192	0x2adc7658	3.9161968e-13
193	0x2b13b3ed	5.247459e-13
194	0x2b5d1fff	7.8559376e-13
195	0x2b491518	7.143882e-13
196	0x2b0c464c	4.983555e-13
197	0x2b06f9f6	4.7953254e-13
198	0x2b05ed36	4.758029e-13
199	0x2b759e61	8.726128e-13
200	0x2b2e2dc3	6.1880725e-13
201	0x2b693e43	8.2864634e-13
202	0x2bdea3af	1.581948e-12
203	0x2c35831f	2.5794434e-12
204	0x2c891b1f	3.8967852e-12
205	0x2c98fb36	4.34799e-12
206	0x2cd09f87	5.9294267e-12
207	0x2cd3804a	6.0112236e-12
208	0x2cb8d00a	5.2526915e-12
209	0x2c96e8bf	4.2890964e-12
210	0x2c18237f	2.1620203e-12
211	0x2b78e7b2	8.842884e-13
212	0x2b0f7a90	5.0973895e-13
213	0x2ab69e6a	3.2439616e-13
214	0x2b840509	9.380562e-13
215	0x2c42e8ed	2.7698358e-12
216	0x2d1c8fb3	8.899481e-12
217	0x2dc54d0e	2.2430526e-11
218	0x2e7368bc	5.5344826e-11
219	0x2ea87f96	7.662419e-11
220	0x2f147bb2	1.3504467e-10
221	0x2f2198d2	1.4697157e-10
222	0x2f42487d	1.766995e-10
223	0x2f4f3de3	1.8848527e-10
224	0x2f4effee	1.8826515e-10
225	0x2f41daf9	1.7631042e-10
226	0x2f4486a6	1.7873933e-10
227	0x2f42f2d9	1.7730474e-10
228	0x2f42d7d6	1.7720878e-10
229	0x2f333c29	1.6301328e-10
230	0x2f1903ba	1.3916593e-10
231	0x2ed7afc7	9.8082924e-11
232	0x2e600901	5.09397e-11
233	0x2da3ae3c	1.860833e-11
234	0x2c23d880	2.3283875e-12
235	0x2ac35f3f	3.4705049e-13
236	0x2aa86a5c	2.9916597e-13
237	0x2c238d02	2.3241968e-12
238	0x2d8ca68d	1.599012e-11
239	0x2e40ead6	4.3864322e-11
240	0x2eb27244	8.1148005e-11
241	0x2ecccf30	9.31365e-11
242	0x2eef15e0	1.08723475e-10
243	0x2ecd3b01	9.332802e-11
244	0x2e8e5825	6.47307e-11
245	0x2db1aaac	2.0198364e-11
246	0x2cbc02cc	5.343592e-12
247	0x2ce71380	6.56758e-12
248	0x2da8db72	1.9196842e-11
249	0x2eee7690	1.0844048e-10
250	0x2fccc7c0	3.7249315e-10
251	0x3044553d	7.1425516e-10
252	0x30a5870f	1.2043716e-09
253	0x30f7ee01	1.803926e-09
254	0x3116af30	2.1927455e-09
255	0x31299966	2.4679934e-09

loss f8 []
0	0x405787c955dc5f40	94.12166353722296
